rust/cuda-nn-eval/tests/data/pre-sttt-4x8.onnx (onnx, 222346 bytes, 50 tensors)

tower.0.weight f4 [8, 2, 3, 3]
-0.13264053 -0.06401872 0.14475833 -0.15584442 -0.04248355 0.20035326 -0.20067017 0.0841465
-0.090691015 0.13832891 0.0700306 -0.020662937 0.056990135 -0.03015205 0.11544197 -0.14608577
0.046005134 0.037260182 -0.21484181 0.11768601 -0.05187699 0.08353506 -0.0039071324 0.18544975
-0.20015757 0.040918678 -0.11279293 0.20451759 0.20205359 -0.013083601 -0.02735034 0.030871646
0.16899389 -0.059832845 -0.11892829 0.00165221 0.07203071 0.09493353 0.17273237 0.11042922
-0.21346083 0.05938606 -0.12601925 -0.01692598 0.15849882 -0.11407748 -0.14128123 0.15380333
0.1222708 -0.086367905 -0.03682787 0.15269503 -0.012540283 -0.04500644 -0.054735295 0.13339202
-0.05873993 0.042540073 -0.15200216 -0.21463029 0.1609118 0.1419645 -0.103247546 -0.122812375
0.1141369 -0.0686637 -0.04160903 0.014409515 0.062568866 0.116693005 0.20850106 -0.039434172
0.198534 0.019996664 -0.21434982 0.021357741 -0.034250304 -0.14619964 0.040940974 0.081594
0.018676352 0.107245006 -0.05831054 0.118491374 0.060040902 -0.06893782 -0.018596517 0.13792612
0.011484636 -0.19520806 -0.10113986 0.13681576 0.18894467 -0.065158464 -0.15704168 -0.1745438
0.22221136 0.023806812 0.15279329 0.010367693 -0.14882569 0.029385285 0.036248375 -0.06614219
0.13162974 0.04760656 -0.20812744 0.07591569 0.09453421 -0.1645573 0.18518865 -0.18538955
-0.12198787 0.1500282 -0.09975319 -0.18508993 -0.16014405 -0.21628083 0.002253737 -0.039562967
0.10827468 -0.02765058 -0.14613287 0.20358597 0.029216914 0.017283877 0.14974198 0.17654385
-0.106251806 0.1918009 -0.024695076 0.19942287 -0.20119147 -0.13664259 0.21905056 -0.1413951
0.20172243 -0.23509145 -0.12475793 -0.1563837 -0.20638731 0.16239189 -0.08965195 0.102279834
00000000: ebd2 07be 3f1c 83bd 873b 143e ae95 1fbe
00000010: 3b03 2ebd 6829 4d3e 7b7c 4dbe 0055 ac3d
00000020: 36bc b9bd 18a6 0d3e 346c 8f3d 5245 a9bc
00000030: 7d6e 693d 6f01 f7bc d76c ec3d 8297 15be
00000040: e16f 3c3d 229e 183d 7eff 5bbe 5d05 f13d
00000050: f77c 54bd 6e14 ab3d 6707 80bb 8ae6 3d3e
00000060: 1bf6 4cbe 589a 273d fbff e6bd 0f6d 513e
00000070: 23e7 4e3e 9a5c 56bc d20d e0bc 89e6 fc3c
00000080: bc0c 2d3e 4913 75bd ad90 f3bd f88e d83a
00000090: d684 933d 836c c23d c1e0 303e b728 e23d
000000a0: 7a95 5abe cc3e 733d 310b 01be 5aa8 8abc
000000b0: 844d 223e 74a1 e9bd 07ac 10be 9f7e 1d3e
000000c0: 1d69 fa3d a8e1 b0bd d2d8 16bd 165c 1c3e
000000d0: c275 4dbc ac58 38bd 1e32 60bd eb97 083e
000000e0: 4899 70bd 803e 2e3d 74a6 1bbe 0bc8 5bbe
000000f0: 10c6 243e 245f 113e 7373 d3bd 0e85 fbbd
00000100: 9bc0 e93d 8e9f 8cbd 3b6e 2abd e315 6c3c
00000110: 1b24 803d befc ee3d 4d81 553e ba85 21bd
00000120: 7f4c 4b3e 0bd0 a33c 857e 5bbe 6ef6 ae3c
00000130: 0c4a 0cbd 5cb5 15be b9b1 273d c11a a73d
00000140: 26ff 983c 45a3 db3d 08d7 6ebd 9bab f23d
00000150: 73ed 753d 462f 8dbd b957 98bc 813c 0d3e
00000160: 0e2a 3c3c 9fe4 47be 6a22 cfbd 6e19 0c3e
00000170: b67a 413e cd71 85bd 89cf 20be 9cbb 32be
00000180: 608b 633e 8106 c33c d875 1c3e 42dd 293c
00000190: c365 18be 69b9 f03c 2d79 143d 8e75 87bd
000001a0: f2c9 063e 19ff 423d 5c1f 55be af79 9b3d
000001b0: 279b c13d b581 28be 18a2 3d3e c2d6 3dbe
000001c0: c7d4 f9bd fea0 193e 674b ccbd 3788 3dbe
000001d0: cdfc 23be b978 5dbe 6fb3 133b c70c 22bd
000001e0: 1ebf dd3d 7883 e2bc dba3 15be d778 503e
000001f0: 4f58 ef3c eb96 8d3c f655 193e e9c7 343e
00000200: 8c9a d9bd 7567 443e 544d cabc 8235 4c3e
00000210: 2305 4ebe 09ec 0bbe ca4e 603e e1c9 10be
00000220: 5390 4e3e d0bb 70be 1681 ffbd 0c23 20be
00000230: 3257 53be 0f4a 263e 719b b7bd 1778 d13d

tower.0.bias f4 [8]
0.088951 0.01782026 -0.079974554 -0.2086141 0.10565606 0.09009576 0.06887501 -0.008177304
00000000: f12b b63d cbfb 913c b3c9 a3bd ef9e 55be
00000010: 3462 d83d 2084 b83d 570e 8d3d 19fa 05bc

tower.1.seq.0.weight f4 [8]
1.0043912 1.0091333 0.99842364 0.9993067 0.99314237 0.99096525 0.9898133 1.0150645
00000000: e48f 803f 482b 813f b198 7f3f 90d2 7f3f
00000010: 943e 7e3f e6af 7d3f 6864 7d3f a2ed 813f

tower.1.seq.0.bias f4 [8]
0.0029323117 0.0023356637 -0.0062238197 0.00402533 -0.0021303077 -0.0044942815 0.0023687503 0.005936728
00000000: 072c 403b ef11 193b 2ff1 cbbb eae6 833b
00000010: a29c 0bbb c444 93bb 093d 1b3b e288 c23b

tower.1.seq.0.running_mean f4 [8]
0.08001411 0.008134631 -0.076565705 -0.21381032 0.104644 0.09331577 0.062251005 0.0049341465
00000000: 70de a33d 1e47 053c 7bce 9cbd 18f1 5abe
00000010: 984f d63d 571c bf3d e9fa 7e3d 9fae a13b

tower.1.seq.0.running_var f4 [8]
0.19989744 0.25261652 0.22663395 0.22509967 0.17698264 0.2644737 0.28803355 0.42648837
00000000: eab1 4c3e f456 813e bb12 683e 8780 663e
00000010: f03a 353e 1969 873e 2279 933e af5c da3e

tower.1.seq.5.weight f4 [8, 8, 3, 3]
-0.077250056 -0.026814584 0.03882104 0.020590616 -0.105945915 -0.014030238 -0.044270735 -0.0078645805
0.08494933 -0.014152555 0.08666955 -0.09833844 -0.04762102 0.070881024 0.045178294 0.06617087
-0.07172094 -0.092831165 -0.02816329 -0.037989415 -0.10251195 0.05023356 -0.104868606 -0.08696281
0.041575342 -0.04442511 0.04080734 -0.092075795 0.013925903 0.106755674 -0.049914293 -0.115825
-0.110788 0.02387781 0.0990327 0.10356138 0.10163276 0.05047115 -0.025692943 -0.017070984
0.006692359 -0.02115258 0.043269444 -0.028323447 0.0860096 0.0600293 -0.088416256 -0.04575389
0.061267905 0.1027455 -0.104541115 0.11325711 -0.05765699 0.07776112 0.08828034 0.01804524
-0.0048072166 -0.00331681 -0.019893412 0.11068597 0.027993742 0.021392165 -0.025852928 -0.011905027
0.06960731 0.12960841 0.01912272 -0.11376787 0.049434043 -0.1189467 -0.014247938 0.0039275885
-0.110094205 0.005675907 -0.06960823 0.03016243 0.073330924 -0.1226085 -0.07166426 -0.017082507
-0.026212644 -0.08148746 -0.06805636 -0.01621542 -0.058512993 -0.0053237346 0.087159716 -0.10393949
-0.05597663 -0.06733952 -0.040280506 0.027152238 0.038038336 0.104840554 -0.10052014 -0.017841345
-0.13293445 0.019205684 0.008117633 -0.058327958 0.110008635 0.0259654 -0.088563025 -0.08282759
0.051457528 -0.06948626 -0.15377054 -0.061927818 -0.02142175 -0.055032298 0.048100986 -0.058996715
0.04688838 -0.027053803 0.09918485 -0.07380099 0.0005104204 0.059925023 -0.035930507 -0.10669042
-0.05274616 0.04509192 -0.080006 0.0011912793 0.02535192 -0.12753184 -0.07795369 0.04088314
0.030087171 0.015190975 -0.115370765 -0.057752844 -0.042566936 0.008864339 0.05159129 -0.043390915
-0.0646599 0.043896597 -0.041881364 0.026167871 0.06790084 -0.070130944 0.031010417 -0.14725259
-0.0046172794 0.05450485 0.12316756 -0.027261415 -0.007901712 -0.08080427 -0.09365805 0.04703738
0.10872165 -0.07649582 -0.023594312 0.048217267 0.10811809 0.044930123 -0.021044808 -0.01722515
-0.08206014 0.046465077 -0.10129999 -0.08569699 -0.082276985 -0.040815584 0.0008489882 0.1079789
0.09815073 0.074875206 0.047552217 -0.07240113 0.019585643 -0.08527828 -0.03446206 -0.074980244
-0.018573675 -0.07803077 -0.02970742 -0.020605864 0.1012325 -0.012802281 0.0887762 0.023936264
-0.055108745 0.03358974 0.03481132 -0.038108084 -0.009552045 -0.07870256 0.091512635 0.065500885
-0.056565657 0.019267125 -0.056930177 -0.008440656 0.08283231 -0.06308716 0.069672875 -0.06761287
0.026544651 -0.07213774 0.034045924 0.06606397 -0.03492743 0.024109744 -0.047097933 0.10311137
0.04853618 0.02830102 -0.07840732 -0.11610154 0.02563624 -0.10904774 0.013929111 0.038178615
-0.05299875 -0.0663694 -0.010220614 0.00073715334 -0.06710598 0.047513217 -0.05768781 -0.05574295
-0.010008363 0.10984406 0.11248159 0.11046304 -0.096730895 0.100893565 -0.0612045 -0.065102585
-0.05919106 0.065390825 -0.014065546 0.027974056 0.02352342 0.035814427 -0.043603253 0.10607064
0.09562987 -0.068708174 0.061104316 0.03645798 0.017008847 0.14315635 -0.102902494 -0.09831076
-0.08343867 0.12783886 0.09956143 0.047409277 -0.07256639 0.07017286 -0.093331344 0.009001073
00000000: 4735 9ebd 42aa dbbc d002 1f3d a7ad a83c
00000010: 2cfa d8bd 15df 65bc 3b55 35bd 71da 00bc
00000020: eaf9 ad3d 1ee0 67bc ce7f b13d aa65 c9bd
00000030: 420e 43bd 122a 913d e00c 393d 9884 873d
00000040: 6ee2 92bd 441e bebd b3b6 e6bc ca9a 1bbd
00000050: c9f1 d1bd b5c1 4d3d 5ac5 d6bd 8f19 b2bd
00000060: e84a 2a3d 1bf7 35bd 9925 273d 3c92 bcbd
00000070: 7829 643c b8a2 da3d ee72 4cbd a835 edbd
00000080: d2e4 e2bd 669b c33c a8d1 ca3d fd17 d43d
00000090: d624 d03d d6ba 4e3d 027a d2bc 73d8 8bbc
000000a0: 944b db3b 2d48 adbc 4d3b 313d 9306 e8bc
000000b0: cd25 b03d 49e1 753d 9513 b5bd 6e68 3bbd
000000c0: 0ef4 7a3d 3c6c d23d a719 d6bd 58f3 e73d
000000d0: bc29 6cbd 3941 9f3d 53cc b43d 9cd3 933c
000000e0: db85 9dbb d65e 59bb 82f7 a2bc 53af e23d
000000f0: 2253 e53c 9f3e af3c 85c9 d3bc 4d0d 43bc
00000100: 478e 8e3d 11b8 043e 40a7 9c3c 21ff e8bd
00000110: 5a7b 4a3d 549a f3bd 2f70 69bc 00b3 803b
00000120: 1279 e1bd f5fc b93b c28e 8ebd 3317 f73c
00000130: 862e 963d 2a1a fbbd b6c4 92bd 9df0 8bbc
00000140: e6bb d6bc e6e2 a6bd 2261 8bbd 33d6 84bc
00000150: 52ab 6fbd b972 aebb cb80 b23d 3ade d4bd
00000160: c047 65bd 4de9 89bd 2cfd 24bd 5f6e de3c
00000170: 16ce 1b3d a5b6 d63d 81dd cdbd 0328 92bc
00000180: f81f 08be 3d55 9d3c d2ff 043c 4ce9 6ebd
00000190: 354c e13d 64b5 d43c 8860 b5bd 83a1 a9bd
000001a0: 21c5 523d d04e 8ebd 0676 1dbe 06a8 7dbd
000001b0: aa7c afbc 8c69 61bd 8a05 453d 8aa6 71bd
000001c0: 080e 403d f09f ddbc 6d21 cb3d f924 97bd
000001d0: bccd 053a f173 753d de2b 13bd 8280 dabd
000001e0: 5c0c 58bd 4eb2 383d 30da a3bd b324 9c3a
000001f0: d4ae cf3c b597 02be 2fa6 9fbd 1475 273d
00000200: 5f79 f63c 91e3 783c 8247 ecbd 3f8e 6cbd
00000210: ab5a 2ebd bc3b 113c 6351 533d acba 31bd
00000220: 696c 84bd ebcc 333d cb8b 2bbd 015e d63c
00000230: 980f 8b3d d0a0 8fbd 8f09 fe3c 62c9 16be
00000240: 8c4c 97bb 7a40 5f3d 463f fc3d 5553 dfbc
00000250: 2f76 01bc b67c a5bd cbcf bfbd 45aa 403d
00000260: 75a9 de3d d7a9 9cbd dc48 c1bc 787f 453d
00000270: 046d dd3d a608 383d 2966 acbc c21b 8dbc
00000280: 260f a8bd 2a52 3e3d 5f76 cfbd e781 afbd
00000290: d680 a8bd 3e2e 27bd a28e 5e3a 0b24 dd3d
000002a0: 4003 c93d 2c58 993d 1dc6 423d 0b47 94bd
000002b0: 1272 a03c 61a6 aebd 1728 0dbd 3e8f 99bd
000002c0: d227 98bc 99ce 9fbd fa5c f3bc a1cd a8bc
000002d0: fc52 cf3d a9c0 51bc 4cd0 b53d fc15 c43c
000002e0: b5b9 61bd 6595 093d 5196 0e3d 3917 1cbd
000002f0: 2e80 1cbc cf2e a1bd fa6a bb3d 5425 863d
00000300: 64b1 67bd 17d6 9d3c 9e2f 69bd ad4a 0abc
00000310: fca3 a93d d733 81bd a7b0 8e3d 9e78 8abd
00000320: 2b74 d93c f4bc 93bd bd73 0b3d 8c4c 873d
00000330: 1110 0fbd cc81 c53c c3e9 40bd 0e2c d33d
00000340: e0cd 463d 8ad7 e73c 0494 a0bd a5c6 edbd
00000350: 1803 d23c 6c54 dfbd ed36 643c 2e61 1c3d
00000360: 3815 59bd aeec 87bd 5d74 27bc 863d 413a
00000370: dc6e 89bd 389d 423d 0e4a 6cbd b852 64bd
00000380: 1efa 23bc ecf5 e03d bf5c e63d 723a e23d
00000390: d91a c6bd 49a1 ce3d 92b1 7abd 8154 85bd
000003a0: 5372 72bd a0eb 853d 2d73 66bc d929 e53c
000003b0: 30b4 c03c 26b2 123d 5399 32bd 903b d93d
000003c0: 98d9 c33d dfb6 8cbd 8548 7a3d f654 153d
000003d0: 2356 8b3c 9497 123e 8bbe d2bd 2757 c9bd
000003e0: e5e1 aabd 31e8 023e dde6 cb3d 3b30 423d
000003f0: b09d 94bd cab6 8f3d 8124 bfbd 3d79 133c

tower.1.seq.5.bias f4 [8]
0.101441324 0.059261627 -0.008721437 -0.10948783 -0.06544058 0.021521447 -0.07591099 0.07839193
00000000: 78c0 cf3d 52bc 723d 5ce4 0ebc 283b e0bd
00000010: b605 86bd bf4d b03c 3977 9bbd f38b a03d

tower.2.seq.0.weight f4 [8]
0.9942962 1.0018741 1.0117629 0.98819095 1.0039536 0.99797463 1.016908 0.98434716
00000000: 328a 7e3f 693d 803f 7281 813f 15fa 7c3f
00000010: 8d81 803f 447b 7f3f 0b2a 823f 2dfe 7b3f

tower.2.seq.0.bias f4 [8]
-0.0047612153 0.023569709 0.02380579 -0.0052368133 0.025751079 0.006389301 0.037571598 -0.0038616513
00000000: f803 9cbb 4315 c13c 5c04 c33c 9399 abbb
00000010: edf3 d23c 575d d13b ade4 193d c213 7dbb

tower.2.seq.0.running_mean f4 [8]
0.13007665 -0.4940904 -0.13868977 -0.06789779 -0.05346722 0.39259034 0.5614228 -0.32028484
00000000: d032 053e 6bf9 fcbe b104 0ebe ff0d 8bbd
00000010: 7200 5bbd 9a01 c93e 68b9 0f3f 60fc a3be

tower.2.seq.0.running_var f4 [8]
0.23608787 0.31764534 0.29609215 0.37467048 0.33734363 0.28690332 0.33947194 0.43404195
00000000: 05c1 713e 69a2 a23e 6499 973e cfd4 bf3e
00000010: 4eb8 ac3e fee4 923e 44cf ad3e bf3a de3e

tower.2.seq.5.weight f4 [8, 8, 3, 3]
0.08369033 -0.06954456 0.012131824 0.03677085 0.0809041 0.07925091 -0.105199486 0.08404416
0.012645005 0.119422734 -0.027526904 -0.028122643 0.06083031 0.10533783 0.08718889 0.07068801
0.08408215 0.0049789874 0.03279371 -0.03985706 0.007989192 0.06814198 -0.07662482 -0.09126288
0.037326775 0.08303413 -0.07307726 0.074829176 -0.08140012 -0.0010744601 -0.035769757 -0.0834104
-0.065826915 0.07476028 0.0955898 0.08938127 0.051430978 0.10994436 0.10114707 0.08465524
0.06997663 -0.029041775 -0.08054218 0.048027728 -0.0065853465 0.036286365 0.051134303 -0.049744327
-0.041604616 0.094818234 -0.12447844 -0.119873144 -0.004377547 -0.013479799 -0.096499406 0.033722345
0.018606223 -0.009478221 -0.0030863704 0.0064722276 -0.09908865 0.08264956 0.04480364 0.1074091
-0.014165879 -0.015469906 0.036765117 -0.06360337 0.05998534 0.092686795 0.08073639 -0.11471624
-0.09277717 -0.053532917 -0.062165394 0.12496593 0.06687719 0.0684783 0.025123669 0.016671162
-0.020599239 0.011467147 0.107203946 0.06607326 0.011475976 0.007892232 -0.10069776 -0.12654217
-0.064589076 0.048109706 0.07623253 0.0831955 -0.12058561 0.120527245 0.063273676 0.08272643
-0.05217231 0.032307353 -0.120476805 0.06897411 -0.11911568 -0.08551829 0.015974566 -0.12425466
-0.110270694 -0.111492194 -0.08426486 0.042234365 0.05998801 -0.03595507 0.040218577 0.061560046
0.08134259 -0.097893864 0.050327953 0.044647966 -0.009375777 0.032034572 0.019965988 -0.07131276
-0.046021275 0.066791944 -0.084276706 -0.09703451 -0.06406901 -0.11426621 -0.105556846 0.018507674
0.056393784 -0.09316502 0.063565075 -0.018899392 -0.016871465 -0.020931812 -0.040756896 0.063088566
-0.09814364 -0.011479156 -0.10147414 0.08392469 0.067830764 0.04738099 0.09265252 0.063012
-0.0679367 -0.06839008 0.016618393 -0.042367294 0.061130773 -0.06059543 0.0358064 0.048170608
0.112762 -0.07445046 0.0010151842 -0.07739872 -0.08262509 -0.040512025 0.08866928 0.07316817
0.071742214 0.082935594 0.09720673 0.036420785 -0.0935282 -0.0030119414 0.05144485 -0.08085009
0.08344495 0.04530569 0.116389975 -0.06612923 0.113866776 -0.07755125 0.029187445 -0.08398418
0.049280785 -0.118884355 -0.09934616 -0.09597215 0.030713074 -0.0047633215 -0.10038656 0.019897925
-0.080078445 -0.12564859 -0.002974101 -0.094004475 0.022232434 -0.0077513065 0.09468763 0.043773197
-0.11774437 0.044476867 -0.09133888 0.005629859 -0.020695852 0.017854175 0.124900654 -0.025126332
0.034765873 -0.07392017 -0.044893146 0.10191757 -0.042218324 0.07338073 -0.04100582 -0.020682843
0.002674657 -0.07903734 0.041154567 0.007033867 0.030557847 0.071094245 0.021148873 0.059085857
0.053421386 -0.05552457 0.046928078 0.061809085 -0.1027309 -0.020813728 -0.07272652 0.08558802
0.040164944 0.008831503 -0.14435622 0.061879657 0.011114985 0.072643735 -0.07258557 0.0802906
-0.027070357 -0.09922223 0.08378066 -0.0699125 0.027309347 -0.034186155 -0.09055255 -0.014416572
0.03064145 -0.00046613967 0.013643323 0.087592214 0.10954578 -0.059751116 -0.09359632 0.02988433
-0.06418402 0.09514245 0.07100907 -0.059124745 0.028972989 0.0681809 -0.09588093 0.034406442
00000000: d665 ab3d 616d 8ebd 8fc4 463c 089d 163d
00000010: 0cb1 a53d 4d4e a23d d472 d7bd 581f ac3d
00000020: ff2c 4f3c e893 f43d 1a80 e1bc 7561 e6bc
00000030: 3429 793d 5cbb d73d 1790 b23d e0c4 903d
00000040: 4333 ac3d c626 a33b b252 063d 2841 23bd
00000050: 1ae5 023c 068e 8b3d 79ed 9cbd 08e8 babd
00000060: f6e3 183d cc0d aa3d 88a9 95bd 0a40 993d
00000070: 1bb5 a6bd e6d4 8cba 4f83 12bd 12d3 aabd
00000080: 43d0 86bd eb1b 993d 96c4 c33d 870d b73d
00000090: 4aa9 523d 822a e13d 3226 cf3d ba5f ad3d
000000a0: e84f 8f3d 04e9 edbc 4cf3 a4bd b9b8 443d
000000b0: e4c9 d7bb 03a1 143d 3472 513d b5c0 4bbd
000000c0: 9a69 2abd 1030 c23d 8dee febd 0d80 f5bd
000000d0: 8771 8fbb 60da 5cbc 7ba1 c5bd 7120 0a3d
000000e0: 146c 983c 8a4a 1bbc b444 4abb fb14 d43b
000000f0: fdee cabd 2c44 a93d 0684 373d 4df9 db3d
00000100: 0118 68bc 7d75 7dbc 0597 163d 7c42 82bd
00000110: 30b3 753d 93d2 bd3d 1f59 a53d 59f0 eabd
00000120: f501 bebd 5545 5bbd 24a1 7ebd 23ee ff3d
00000130: e8f6 883d 5a3e 8c3d 27d0 cd3c f691 883c
00000140: bcbf a8bc b3e0 3b3c be8d db3d 6b51 873d
00000150: bb05 3c3c 6c4e 013c a13a cebd 4594 01be
00000160: 4747 84bd af0e 453d cd1f 9c3d 6762 aa3d
00000170: 97f5 f6bd fdd6 f63d a195 813d 796c a93d
00000180: a2b2 55bd b754 043d 8bbc f6bd 4c42 8d3d
00000190: ecf2 f3bd 3724 afbd 18dd 823c 3a79 febd
000001a0: 9ad5 e1bd 0556 e4bd 0e93 acbd f1fd 2c3d
000001b0: fdb5 753d a045 13bd 3cbc 243d 6326 7c3d
000001c0: f296 a63d 947c c8bd af24 4e3d c9e0 363d
000001d0: dc9c 19bc af36 033d b68f a33c 6d0c 92bd
000001e0: ce80 3cbd 37ca 883d 4499 acbd 07ba c6bd
000001f0: 9d36 83bd 6704 eabd 302e d8bd 689d 973c
00000200: 2bfd 663d 4dcd bebd 682e 823d e6d2 9abc
00000210: 0736 8abc 3179 abbc b4f0 26bd 9434 813d
00000220: 88ff c8bd 1213 3cbc add1 cfbd b5e0 ab3d
00000230: dbea 8a3d 9212 423d 9bc0 bd3d 6f0c 813d
00000240: 6622 8bbd 1910 8cbd 4c23 883c 5489 2dbd
00000250: 4364 7a3d ea32 78bd bba9 123d 8b4e 453d
00000260: c3ef e63d 7c79 98bd ee0f 853a 3883 9ebd
00000270: 5837 a9bd f0ef 25bd 3d98 b53d 32d9 953d
00000280: 95ed 923d 23da a93d 5214 c73d f62d 153d
00000290: b78b bfbd fe63 45bb d6b7 523d bb94 a5bd
000002a0: 30e5 aa3d 7692 393d de5d ee3d c36e 87bd
000002b0: fc32 e93d 31d3 9ebd 821a ef3c e6ff abbd
000002c0: a6da 493d a479 f3bd 0076 cbbd 0c8d c4bd
000002d0: fc99 fb3c a315 9cbb 7897 cdbd f900 a33c
000002e0: 2b00 a4bd 06aa 00be 23e9 42bb 6b85 c0bd
000002f0: cb20 b63c acfe fdbb 97eb c13d 864b 333d
00000300: f623 f1bd 602d 363d e10f bbbd ae7a b83b
00000310: 598a a9bc eb42 923c eacb ff3d bdd5 cdbc
00000320: a966 0e3d 7563 97bd e0e1 37bd 29ba d03d
00000330: 1fed 2cbd a348 963d b8f5 27bd 116f a9bc
00000340: 4c49 2f3b 54de a1bd b191 283d 5a7c e63b
00000350: 7354 fa3c dc99 913d 6740 ad3c 0304 723d
00000360: 62d0 5a3d bb6d 63bd a837 403d 862b 7d3d
00000370: 9464 d2bd 8d81 aabc a4f1 94bd c648 af3d
00000380: ff83 243d 02b2 103c 1ed2 13be 8675 7d3d
00000390: a01b 363c 3dc6 943d bea7 94bd 666f a43d
000003a0: a7c2 ddbc 0635 cbbd 3295 ab3d 492e 8fbd
000003b0: dab7 df3c c806 0cbd 9e73 b9bd 7c33 6cbc
000003c0: c703 fb3c 3564 f4b9 3f88 5f3c 8c63 b33d
000003d0: 8a59 e03d 96bd 74bd 6daf bfbd fccf f43c
000003e0: e972 83bd 0bda c23d 346d 913d ca2c 72bd
000003f0: c358 ed3c 6da2 8b3d 395d c4bd c5ed 0c3d

tower.2.seq.5.bias f4 [8]
-0.08386422 -0.0266716 0.0023952473 0.025362656 -0.049899988 0.13370614 0.0034940687 -0.06471714
00000000: 01c1 abbd 667e dabc 95f9 1c3b 58c5 cf3c
00000010: ee63 4cbd 43ea 083e bffc 643b 6b8a 84bd

tower.3.seq.0.weight f4 [8]
0.95227975 0.9873361 0.98536414 1.0207322 1.0090436 1.02306 1.0025774 1.0086073
00000000: 9bc8 733f 0fc2 7c3f d340 7c3f 5aa7 823f
00000010: 5728 813f a1f3 823f 7554 803f 0b1a 813f

tower.3.seq.0.bias f4 [8]
-0.039550535 0.015348038 0.004259374 0.032787535 0.012570336 0.043525845 0.01658382 0.0053192703
00000000: beff 21bd 5676 7b3c 3892 8b3b 394c 063d
00000010: d0f3 4d3c 2848 323d cbda 873c 464d ae3b

tower.3.seq.0.running_mean f4 [8]
0.37632716 -0.6833786 -0.22558874 -0.20036687 0.0412514 0.7187037 0.83283675 -0.7263025
00000000: f4ad c03e e6f1 2ebf bc00 67be f92c 4dbe
00000010: 3af7 283d f7fc 373f ca34 553f f6ee 39bf

tower.3.seq.0.running_var f4 [8]
0.2950985 0.4744841 0.48859632 0.45320135 0.3786201 0.4629839 0.57141453 0.5088166
00000000: 2717 973e 94ef f23e 4c29 fa3e 020a e83e
00000010: 7eda c13e 3a0c ed3e 3948 123f ce41 023f

tower.3.seq.5.weight f4 [8, 8, 3, 3]
-0.03479209 -0.048900906 -0.005921129 -0.074262 -0.008689889 -0.06433232 -0.094141565 -0.0079574445
-0.09222747 0.016230633 -0.011590998 0.0066444343 -0.030458292 -0.011242836 0.09695249 -0.07422159
-0.09340289 0.0066885375 -0.061766345 0.12416483 0.018943327 -0.11699619 0.10039045 -0.12234648
0.099586375 -0.07009468 0.06405581 -0.06465701 -0.058543958 0.129393 0.02300762 -0.09546949
0.017062727 -0.08010422 0.04454431 0.055962183 0.040722862 0.097825944 -0.09793281 -0.004756309
0.0906708 0.032131534 0.06872182 -0.100725345 0.06403362 0.027333848 0.033847164 0.0034273597
-0.102297984 0.075083375 -0.11230651 0.054273333 0.0079871835 0.07823603 -0.05620857 -0.06867086
0.07037177 0.14282873 -0.06668655 -0.06192558 0.0036848811 -0.03119684 -0.09384165 0.15855306
-0.08791198 0.10452005 0.11732569 -0.117987834 -0.06847452 -0.0405823 -0.024089735 -0.010343262
0.03134303 -0.08773701 -0.034677763 0.08466586 0.07549498 0.028873494 0.057367627 -0.0035649447
-0.0936303 0.06664755 0.08641642 -0.12413785 -0.027685663 0.01234251 -0.091335535 -0.05683153
-0.057161737 -0.07580908 0.04669814 -0.0047912365 -0.10506649 -0.09418233 -0.034493778 0.033852756
0.02580117 0.037251316 -0.0065313564 -0.04662767 0.056211468 -0.031251974 -0.029503806 0.03548887
0.070205174 -0.13646723 0.002735334 0.05806682 -0.096687846 0.03404716 -0.089976095 -0.061482117
0.09780362 -0.115383096 0.024365384 -0.06544841 -0.029404227 -0.148823 -0.05175258 0.049504306
-0.13353926 -0.042871457 0.065596744 0.060037863 0.02525217 -0.06754203 0.037854947 -0.026291877
-0.13105667 0.055696897 0.040300798 -0.07621348 -0.04547866 -0.002396746 -0.040046707 -0.070418164
0.05786027 0.060458023 -0.004907182 0.05230253 -0.13096027 0.041305546 -0.017271489 -0.11185895
-0.038215622 -0.07668599 0.025061531 0.10749271 0.121168986 0.025686018 -0.083159134 -0.048366744
0.01680868 -0.02470261 -0.014800434 -0.030407393 -0.043889638 0.13014638 -0.097547464 0.11399388
-0.01988269 -0.072339766 -0.06710644 0.06568821 -0.011174105 0.06435272 0.069532976 -0.0016101752
-0.075258926 0.023204826 0.018481493 0.13392451 0.09223413 0.10273565 0.060403615 -0.013940719
-0.1092208 -0.051292296 0.012319711 0.0484482 0.10713507 -0.09078104 0.071232446 -0.04305574
0.054644924 -0.011008022 0.023659656 0.12276283 0.0046687573 -0.11617907 -0.11004677 0.0843109
0.015069648 -0.036229216 0.009770336 -0.08141278 0.0295806 -0.09536262 0.10405624 -0.031631004
0.027000707 0.007660552 -0.04517848 -0.018924102 -0.047394074 -0.091867484 0.13108476 -0.11346593
-0.016688291 -0.036170777 -0.10031171 -0.015102733 -0.10760438 -0.047894355 -0.08380583 -0.03922722
0.012160479 0.13108853 -0.073258035 0.0391509 0.0041222777 -0.00850827 0.08598759 0.0664948
-0.075747214 0.042688537 0.08656802 -0.08835533 -0.104218625 0.024595222 0.025889467 -0.09183049
0.12794024 -0.062249593 -0.09656774 -0.117039695 -0.04545621 -0.0064983475 0.00078719354 -0.04511391
-0.018275209 -0.029995698 0.053567387 0.046964984 -0.077054024 0.02499026 0.13431747 -0.03089129
0.100810036 0.05356846 0.018354215 -0.025416672 -0.020559363 0.075954534 0.12626475 0.12078164
00000000: 2782 0ebd 514c 48bd 0806 c2bb ad16 98bd
00000010: 0960 0ebc aac0 83bd 4bcd c0bd f15f 02bc
00000020: c1e1 bcbd 1bf6 843c 2be8 3dbc 8eb9 d93b
00000030: ab83 f9bc df33 38bc 078f c63d 7d01 98bd
00000040: 044a bfbd 852b db3b b5fe 7cbd 214a fe3d
00000050: 092f 9b3c b39b efbd 8299 cd3d cb90 fabd
00000060: f1f3 cb3d cd8d 8fbd b12f 833d e56a 84bd
00000070: cacb 6fbd 997f 043e 7a7a bc3c 8285 c3bd
00000080: 22c7 8b3c ae0d a4bd 1874 363d 9a38 653d
00000090: 04cd 263d f858 c83d ff90 c8bd d0da 9bbb
000000a0: 9db1 b93d 5b9c 033d 07be 8c3d 1749 cebd
000000b0: 0f24 833d 3ceb df3c 53a3 0a3d 8e9d 603b
000000c0: 9b81 d1bd 50c5 993d f500 e6bd b74d 5e3d
000000d0: addc 023c 363a a03d f53a 66bd 4fa3 8cbd
000000e0: 131f 903d b241 123e f592 88bd ada5 7dbd
000000f0: 0c7e 713b 8490 ffbc 0d30 c0bd bc5b 223e
00000100: 320b b4bd 9c0e d63d 7448 f03d 9ba3 f1bd
00000110: 5f3c 8cbd a039 26bd d657 c5bc c976 29bc
00000120: 8d61 003d 76af b3bd 450a 0ebd 4b65 ad3d
00000130: 1d9d 9a3d 1b88 ec3c 51fa 6a3d d9a1 69bb
00000140: 3ec1 bfbd 837e 883d 18fb b03d fc3b febd
00000150: 0bcd e2bc 3d38 4a3c 200e bbbd 2ec8 68bd
00000160: 6d22 6abd ca41 9bbd 8d46 3f3d ceff 9cbb
00000170: 1a2d d7bd aae2 c0bd 5949 0dbd 30a9 0a3d
00000180: fa5c d33c d694 183d fd04 d6bb a8fc 3ebd
00000190: ff3d 663d 1202 00bd f7b1 f1bc c75c 113d
000001a0: bbc7 8f3d 11be 0bbe 4a43 333b 79d7 6d3d
000001b0: 4704 c6bd 0975 0b3d 6345 b8bd acd4 7bbd
000001c0: 444d c83d f94d ecbd ea99 c73c d109 86bd
000001d0: 22e1 f0bc 0e65 18be 83fa 53bd 07c5 4a3d
000001e0: 84be 08be fb99 2fbd 9657 863d 43ea 753d
000001f0: a4dd ce3c 7a53 8abd ca0d 1b3d 1062 d7bc
00000200: b833 06be 6e22 643d 7312 253d d015 9cbd
00000210: d547 3abd ba12 1dbb 0408 24bd 6637 90bd
00000220: e4fe 6c3d d5a2 773d 6dcc a0bb 2d3b 563d
00000230: 731a 06be 0130 293d f07c 8dbc 4e16 e5bd
00000240: fc87 1cbd 8b0d 9dbd d74d cd3c 2325 dc3d
00000250: 7227 f83d 7c6b d23c 564f aabd 351c 46bd
00000260: 5bb2 893c 215d cabc 857d 72bc ed18 f9bc
00000270: 9fc5 33bd 1845 053e f7c6 c7bd a075 e93d
00000280: 06e1 a2bc df26 94bd 1a6f 89bd 8a87 863d
00000290: 9813 37bc 5ccb 833d 4e67 8e3d 840c d3ba
000002a0: 5a21 9abd 0c18 be3c 8066 973c 8223 093e
000002b0: 3fe5 bc3d 1267 d23d c869 773d 9d67 64bc
000002c0: 28af dfbd df17 52bd 9dd8 493c 9f71 463d
000002d0: a269 db3d 69eb b9bd 51e2 913d 375b 30bd
000002e0: 5bd3 5f3d fe5a 34bc e5d1 c13c 146b fb3d
000002f0: 60fc 983b 4bef edbd 3360 e1bd 31ab ac3d
00000300: afe6 763c 1665 14bd c213 203c bebb a6bd
00000310: 0453 f23c 7a4d c3bd 701b d53d 838f 01bd
00000320: 9630 dd3c 5e05 fb3b 120d 39bd b806 9bbc
00000330: 4a20 42bd 0525 bcbd 153b 063e d360 e8bd
00000340: e2b5 88bc cf27 14bd 3a70 cdbd 7471 77bc
00000350: af5f dcbd df2c 44bd 64a2 abbd b9ac 20bd
00000360: bf3c 473c 123c 063e 4f08 96bd b25c 203d
00000370: 2c14 873b 4566 0bbc 431a b03d 6d2e 883d
00000380: 5b21 9bbd 2dda 2e3d 934a b13d a4f3 b4bd
00000390: 9370 d5bd eb7b c93c 2616 d43c a011 bcbd
000003a0: c402 033e 6ef9 7ebd 4fc5 c5bd 82b2 efbd
000003b0: 4a30 3abd 17f0 d4bb aa5b 4e3a 5dc9 38bd
000003c0: e4b5 95bc 8ab9 f5bc 7a69 5b3d 5b5e 403d
000003d0: 80ce 9dbd 60b8 cc3c 858a 093e bb0f fdbc
000003e0: 7e75 ce3d 9a6a 5b3d 945b 963c a036 d0bc
000003f0: 1c6c a8bc 0d8e 9b3d 8c4b 013e 5d5c f73d

tower.3.seq.5.bias f4 [8]
0.0744041 0.1255754 0.06083523 0.080402315 -0.096086465 -0.08465261 0.121446535 -0.112087645
00000000: 2d61 983d d696 003e 5d2e 793d f8a9 a43d
00000010: fbc8 c4bd 595e adbd f6b8 f83d 358e e5bd

tower.4.seq.0.weight f4 [8]
0.97980165 1.0139346 1.0129507 0.99928564 1.0111593 1.0129713 0.9812396 0.9873934
00000000: 48d4 7a3f 9cc8 813f 5ea8 813f 2fd1 7f3f
00000010: ab6d 813f 0ba9 813f 8532 7b3f d0c5 7c3f

tower.4.seq.0.bias f4 [8]
-0.021708425 0.008781178 0.034437146 0.017807534 0.032317363 0.02700367 -0.010030425 0.006687001
00000000: ded5 b1bc eede 0f3c f70d 0d3d 1be1 913c
00000010: 365f 043d cd36 dd3c a756 24bc a11e db3b

tower.4.seq.0.running_mean f4 [8]
0.2772066 -0.9164675 -0.24259755 0.06728627 0.04014449 0.5771776 1.1541365 -1.4941399
00000000: 06ee 8d3e 9d9d 6abf 7e6b 78be 62cd 893d
00000010: 8c6e 243d e9c1 133f bfba 933f fa3f bfbf

tower.4.seq.0.running_var f4 [8]
0.43696132 0.852809 0.6597845 0.6254951 0.5499666 0.7452242 0.92733747 0.8048921
00000000: 65b9 df3e b151 5a3f a3e7 283f 7220 203f
00000010: 9cca 0c3f 03c7 3e3f fd65 6d3f 690d 4e3f

tower.4.seq.5.weight f4 [8, 8, 3, 3]
-0.051516786 -0.02850285 0.0851164 -0.005576825 0.07644337 -0.023509433 -0.13148236 0.0183955
0.090287864 0.09780243 0.093464084 -0.05929235 -0.051984143 0.07524584 0.09772514 -0.025020814
-0.016589776 -0.11202122 0.14830658 0.0128291845 0.13583575 0.124571756 0.068157874 -0.109325364
-0.05505838 -0.020615667 -0.0013597464 -0.0709078 0.066875525 0.13560781 0.030960113 -0.064090356
-0.004786034 0.089903966 0.08368522 -0.020504933 0.06451071 0.04218044 0.13237846 -0.007009091
-0.08172746 0.048631825 -0.012177121 0.02896109 -0.07589795 0.054026417 0.044179447 0.15869178
0.11613198 0.10216889 -0.026013097 -0.0025713122 -0.023539346 0.042578794 0.051295675 -0.084270015
-0.039671563 0.04191384 0.073186465 -0.085788004 0.021916768 0.0043957722 -0.055421684 -0.09142032
0.0693253 0.08994265 -0.08747557 -0.13066988 0.14345063 -0.07282426 -0.100290276 0.0967034
-0.0012600998 0.00790411 -0.08160418 -0.0274008 -0.07588431 0.04379647 0.011716199 0.076703414
-0.050621133 0.09519074 -0.046722494 -0.018591072 -0.056916848 -0.01771485 -0.0589688 0.07380668
-0.050847977 -0.06676873 0.038119867 0.07100101 0.0028594828 -0.04974679 -0.11127793 -0.0357703
-0.040287938 0.0661445 -0.071746156 0.021523213 0.060296275 -0.030567927 -0.0024924427 -0.15324543
-0.050448265 0.09485033 0.050933875 -0.09057533 -0.0490857 -0.106498875 0.06250202 0.007704559
-0.09174225 -0.007429357 -0.14435703 -0.061146375 -0.014969246 -0.0096546225 -0.018665995 -0.062427837
-0.019164314 -0.12316349 -0.044273533 0.042234804 -0.06996183 -0.1238129 0.02776529 -0.10315603
0.021935575 0.08926887 0.065014124 0.06767104 -0.028565718 -0.08132663 -0.06666535 -0.07926848
-0.01860406 -0.08889241 -0.007010722 -0.10802043 -0.017547196 0.0040348554 -0.14543192 0.025285147
-0.033528898 -0.026178578 0.06470502 0.01801669 -0.0014711433 0.045423444 -0.00034178025 0.083135396
-0.061220463 0.0024755683 -0.014295421 -0.0566666 -0.04945375 -0.061887313 0.053329755 -0.030805111
0.044015784 -0.015712641 0.12220771 0.11029114 -0.020318883 -0.00018342116 -0.03547998 0.040311433
-0.0038379806 -0.12893005 0.08056656 0.06960795 -0.054597754 0.113501094 0.097626075 -0.018245198
0.013539278 0.06588533 -0.0078294175 -0.013126232 -0.0053227087 0.0600683 -0.10086888 0.08475541
0.053581126 -0.058455437 -0.0015236998 0.024528107 -0.052898753 0.10760941 0.016770825 0.06929379
0.07720275 -0.06235459 0.09765621 -0.021351863 0.052091304 0.02555859 0.08151725 0.11496058
0.1360502 -0.0004133982 0.09424415 -0.09068201 -0.014603025 0.027462639 -0.082275786 0.09107697
-0.07558938 0.009860012 -0.027852964 -0.012195701 0.0372888 0.04060722 -0.09904564 0.011191269
-0.03337785 0.09108319 -0.06263186 0.06087151 0.10827476 -0.06378685 0.09985124 0.029426865
-0.05538854 0.028075159 -0.023064373 0.06286416 -0.095066994 0.059885275 0.03341135 -0.041803014
-0.046591677 -0.05167961 -0.06173929 -0.06300706 -0.049237166 -0.061103765 0.07667828 0.07808283
0.05440468 -0.014150299 0.0397029 0.004514347 -0.078592196 0.03846346 -0.09920265 0.010075408
0.07890635 0.093002 0.09196504 0.024457213 0.08983537 -0.035514962 0.020028517 -0.014890677
00000000: 4403 53bd cf7e e9bc 8251 ae3d ccbd b6bb
00000010: 578e 9c3d db96 c0bc 50a3 06be 29b2 963c
00000020: d8e8 b83d a44c c83d 196a bf3d 89dc 72bd
00000030: 53ed 54bd 7e1a 9a3d 1e24 c83d 73f8 ccbc
00000040: 48e7 87bc 626b e5bd aedd 173e 8031 523c
00000050: 8718 0b3e 7a1f ff3d 5b96 8b3d fae5 dfbd
00000060: e584 61bd 30e2 a8bc 8539 b2ba 1c38 91bd
00000070: 09f6 883d c6dc 0a3e 10a0 fd3c ce41 83bd
00000080: 2ad4 9cbb 921f b83d 2863 ab3d f6f9 a7bc
00000090: 311e 843d 66c5 2c3d 388e 073e 84ac e5bb
000000a0: ba60 a7bd 2a32 473d 8c82 47bc cf3f ed3c
000000b0: 6270 9bbd ce4a 5d3d 82f5 343d 1980 223e
000000c0: 9bd6 ed3d ec3d d13d 6b19 d5bc 7683 28bb
000000d0: 96d5 c0bc 1a67 2e3d 6a1b 523d c295 acbd
000000e0: a67e 22bd d9ad 2b3d c9e2 953d 9fb1 afbd
000000f0: cb8a b33c 690a 903b d901 63bd 943a bbbd
00000100: 6cfa 8d3d da33 b83d 6426 b3bd 53ce 05be
00000110: b9e4 123e e324 95bd fd64 cdbd 6f0c c63d
00000120: ef29 a5ba 3d80 013c 1820 a7bd a477 e0bc
00000130: 3c69 9bbd ed63 333d 4df5 3f3c ae16 9d3d
00000140: 1b58 4fbd 5df3 c23d 1660 3fbd 4e4c 98bc
00000150: a421 69bd bc1e 91bc 4589 71bd f527 973d
00000160: f845 50bd 0bbe 88bd 9423 1c3d fa68 913d
00000170: 2966 3b3b 4ac3 4bbd afe5 e3bd e183 12bd
00000180: f704 25bd c576 873d a6ef 92bd 7351 b03c
00000190: 3af9 763d 9769 fabc 4058 23bb 5fec 1cbe
000001a0: d7a2 4ebd e440 c23d 0aa0 503d 8f7f b9bd
000001b0: 160e 49bd 151c dabd 0f01 803d 8676 fc3b
000001c0: 5ce3 bbbd f771 f3bb 54d2 13be 9f74 7abd
000001d0: 9241 75bc 6c2e 1ebc 6ee9 98bc 55b4 7fbd
000001e0: 7bfe 9cbc 243d fcbd 2a58 35bd 67fe 2c3d
000001f0: 2648 8fbd 9e91 fdbd 0974 e33c 7843 d3bd
00000200: 3cb2 b33c 99d2 b63d 2026 853d 1d97 8a3d
00000210: a702 eabc 948e a6bd d887 88bd 8357 a2bd
00000220: 8b67 98bc 390d b6bd 33ba e5bb d139 ddbd
00000230: 23bf 8fbc d236 843b 1bec 14be cc22 cf3c
00000240: 9955 09bd 7574 d6bc 1184 843d bd97 933c
00000250: 61d3 c0ba ef0d 3a3d f830 b3b9 e442 aa3d
00000260: 4fc2 7abd 253d 223b 5737 6abc 3d1b 68bd
00000270: 0490 4abd 8d7d 7dbd 4d70 5a3d 005b fcbc
00000280: e549 343d ccb7 80bc 0948 fa3d 52e0 e13d
00000290: c973 a6bc be54 40b9 7553 11bd 9a1d 253d
000002a0: a186 7bbb 3d06 04be 1500 a53d 9d8e 8e3d
000002b0: e5a1 5fbd 4373 e83d 2ef0 c73d f476 95bc
000002c0: d9d3 5d3c e3ee 863d f546 00bc 680f 57bc
000002d0: 1e6a aebb 2e0a 763d 5894 cebd 3f94 ad3d
000002e0: e277 5b3d f86e 6fbd e2b6 c7ba 2bef c83c
000002f0: 5dac 58bd 5362 dc3d f862 893c e7e9 8d3d
00000300: 7a1c 9e3d 8767 7fbd fbff c73d 1aea aebc
00000310: b15d 553d 4060 d13c 84f2 a63d 7470 eb3d
00000320: be50 0b3e 5ebd d8b9 1403 c13d 7db7 b9bd
00000330: 8741 6fbc 54f9 e03c 3580 a8bd 9086 ba3d
00000340: 9bce 9abd e38b 213c e62b e4bc 7ad0 47bc
00000350: 24bc 183d c253 263d 71d8 cabd 965b 373c
00000360: 36b7 08bd d389 ba3d 2245 80bd 6854 793d
00000370: 28bf dd3d aea2 82bd cf7e cc3d 9c10 f13c
00000380: 18df 62bd e0fd e53c 7ff1 bcbc edbe 803d
00000390: 7cb2 c2bd 434a 753d 57da 083d a339 2bbd
000003a0: ead6 3ebd 00ae 53bd 56e2 7cbd d809 81bd
000003b0: e9ac 49bd f147 7abd 8109 9d3d e4e9 9f3d
000003c0: 71d7 5e3d a8d6 67bc 829f 223d 16ed 933b
000003d0: f2f4 a0bd dc8b 1d3d c22a cbbd 5313 253c
000003e0: a799 a13d d577 be3d 2b58 bc3d 7e5a c83c
000003f0: 9bfb b73d 2378 11bd d812 a43c 07f8 73bc

tower.4.seq.5.bias f4 [8]
0.10868665 -0.025400722 0.072169594 -0.011855402 0.06660549 0.08933419 -0.047999635 0.039973468
00000000: 1b97 de3d 2d15 d0bc a7cd 933d 293d 42bc
00000010: 7668 883d d8f4 b63d 449b 44bd 38bb 233d

tower.5.weight f4 [8]
0.9812847 1.0038149 0.9679492 1.0096076 0.97194433 0.99683994 0.96821994 1.0580765
00000000: 7935 7b3f 027d 803f 85cb 773f d23a 813f
00000010: 58d1 783f e730 7f3f 43dd 773f 0d6f 873f

tower.5.bias f4 [8]
0.03467473 0.0745734 -0.008181095 0.05906548 0.045563307 0.04552358 0.060108747 0.0934248
00000000: 1707 0e3d f0b9 983d 000a 06bc a5ee 713d
00000010: 97a0 3a3d ef76 3a3d 9734 763d 8055 bf3d

tower.5.running_mean f4 [8]
0.76028687 -1.6056831 0.17028165 0.39193398 -0.62662184 0.7558829 1.4977612 -2.749099
00000000: 29a2 423f 0687 cdbf 505e 2e3e 92ab c83e
00000010: 4a6a 20bf 8b81 413f a4b6 bf3f 3df1 2fc0

tower.5.running_var f4 [8]
0.68947494 1.2081858 0.83346844 0.9139186 0.6625548 0.855808 1.252765 1.8970599
00000000: 6e81 303f d5a5 9a3f 305e 553f 92f6 693f
00000010: 319d 293f 3c16 5b3f 9b5a a03f dcd2 f23f

policy_head.0.1.bias f4 [1, 5, 1, 1]
0.1362584 0.13110763 0.13568994 0.13438624 0.13081318
00000000: 5287 0b3e 1441 063e 4ef2 0a3e 8c9c 093e
00000010: e4f3 053e

policy_head.2.weight f4 [81, 405]
-0.068535164 -0.05967539 -0.060765874 -0.05999944 -0.068308696 -0.021107242 -0.09497985 -0.063094124
0.0052998853 -0.016058566 -0.11412201 -0.05126964 -0.018083045 -0.11218191 -0.117447056 -0.0751953
-0.06163824 -0.032958068 0.021793542 -0.11918382 -0.059919037 -0.08173808 -0.11127471 -0.059968833
-0.09677965 -0.10020202 -0.020963373 -0.011218628 -0.08530167 -0.044189308 -0.13146925 -0.08900856
-0.10672812 -0.10240637 -0.08201187 -0.0055615897 -0.023143148 -0.057647407 -0.06310807 -0.037774786
-0.031152941 -0.043638118 -0.08001134 -0.0691853 -0.038688716 -0.060720608 -0.115446776 -0.07761888
-0.07550978 -0.08856429 -0.1216049 -0.09909877 -0.035635065 -0.058899924 -0.0703814 -0.15689158
-0.13134 -0.10888898 -0.06145373 -0.09193979 -0.088156536 -0.11834886 -0.07562457 -4.8572598e-05
-0.1363742 -0.12718773 -0.06471428 -0.060945984 -0.1088236 -0.0988354 -0.078303166 -0.069749475
0.02629268 -0.11106472 -0.048444383 -0.046993017 -0.08352074 -0.103136025 -0.0662853 -0.017744265
0.028008234 -0.10243337 -0.12286229 -0.060514007 -0.09460492 -0.10953985 -0.13084738 -0.07432958
-0.15293156 -0.08936033 -0.09181842 -0.07696323 -0.11391909 -0.07988791 -0.049961846 -0.062679365
-0.05906538 -0.050943844 -0.034679804 -0.06814485 -0.07350002 -0.056473933 -0.050612006 -0.06806178
-0.08838652 -0.029359791 -0.045939684 -0.06263081 -0.05392232 -0.07471855 -0.11371576 -0.09781534
-0.10298299 -0.017085694 -0.056537528 -0.048055515 -0.007534646 -0.12801927 -0.04157847 -0.11599163
-0.050335847 -0.09578657 -0.0668189 -0.1194068 -0.12318548 -0.022536173 -0.045675606 -0.030318769
-0.030720856 -0.11155714 -0.017002316 -0.10740721 -0.044804655 -0.05761555 -0.05022407 -0.122256756
-0.09782341 -0.12351278 -0.09672229 -0.1165336 -0.117264345 -0.03729541 -0.038294174 -0.039351158
-0.059998777 -0.062947236 -0.028974136 -0.008742812 -0.054891136 -0.094549134 -0.04586348 -0.057116684
0.009256917 -0.112167396 -0.07761216 -0.048618216 -0.04084106 -0.042576313 -0.06193467 -0.057623457
-0.1184813 -0.06806043 0.013519069 -0.022777358 -0.0831915 -0.024807958 -0.09904386 -0.04124955
-0.056493174 -0.059675753 0.0018974823 -0.018425945 -0.13314205 -0.10277987 -0.10753788 -0.09009366
-0.05405902 -0.123751715 -0.045950394 -0.03324148 -0.0475619 -0.118058234 -0.082362674 -0.095714666
-0.07482527 -0.038704377 -0.064646624 -0.10781338 -0.08552626 -0.08048227 -0.06864626 -0.072266
-0.03942531 -0.07319884 -0.049287066 -0.12932529 -0.0669889 -0.090194084 -0.016938306 -0.08407269
-0.12867452 -0.11605531 -0.082324356 -0.071757905 -0.056521684 -0.049052842 -0.047051128 -0.008852001
-0.049020834 -0.09815906 -0.09991037 -0.06441823 -0.09418243 -0.089113966 -0.04891328 -0.042643744
-0.042330712 -0.1364897 -0.034279425 -0.09258167 -0.11766608 -0.057591945 -0.076392956 -0.037600275
-0.07514877 -0.07023262 -0.11685302 -0.06893426 -0.0630062 -0.08634442 -0.113342166 -0.095645405
-0.12484085 -0.07804914 -0.00080280524 -0.09965204 -0.07190879 -0.05297643 -0.06624782 -0.044454362
-0.014740168 -0.07121229 -0.08357922 -0.09217396 -0.09929055 -0.12291449 -0.100438885 -0.064384624
-0.09707762 -0.12782778 -0.13530765 -0.07557105 -0.05357722 -0.016773686 -0.08946812 -0.098537326
00000000: 2a5c 8cbd 2f6e 74bd a3e5 78bd f9c1 75bd
00000010: 6ee5 8bbd 18e9 acbc cc84 c2bd 7e37 81bd
00000020: a9aa ad3b 418d 83bc cdb8 e9bd 1d00 52bd
00000030: e522 94bc a1bf e5bd 1588 f0bd feff 99bd
00000040: 6178 7cbd 0aff 06bd 5f88 b23c a616 f4bd
00000050: aa6d 75bd 4b66 a7bd ffe3 e3bd e1a1 75bd
00000060: 6934 c6bd b736 cdbd 61bb abbc 56ce 37bc
00000070: a4b2 aebd d9ff 34bd e09f 06be 1f4a b6bd
00000080: 4694 dabd 6eba d1bd d7f5 a7bd ff3d b6bb
00000090: b396 bdbc b01f 6cbd ce3e 81bd bcb9 1abd
000000a0: 7434 ffbc e2bd 32bd fcdc a3bd 06b1 8dbd
000000b0: 0f78 1ebd 2cb6 78bd 5c6f ecbd a6f6 9ebd
000000c0: dfa4 9abd 3261 b5bd fd0b f9bd 4cf4 cabd
000000d0: 13f6 11bd 0c41 71bd 2024 90bd 30a8 20be
000000e0: fe7d 06be 2f01 dfbd e8b6 7bbd ee4a bcbd
000000f0: 6a8b b4bd e360 f2bd 0ee1 9abd 6eba 4bb8
00000100: aea5 0bbe 803d 02be ec88 84bd 7fa2 79bd
00000110: e8de debd 376a cabd 695d a0bd d0d8 8ebd
00000120: bf63 d73c e675 e3bd 9e6d 46bd c07b 40bd
00000130: ec0c abbd fb38 d3bd 96c0 87bd 6c5c 91bc
00000140: 8671 e53c 96c8 d1bd 399f fbbd 89dd 77bd
00000150: 39c0 c1bd 6e56 e0bd dbfc 05be 1b3a 98bd
00000160: 179a 1cbe 8c02 b7bd 4c0b bcbd e69e 9dbd
00000170: 694e e9bd 469c a3bd cba4 4cbd 0a5e 80bd
00000180: 8aee 71bd 7eaa 50bd 690c 0ebd 878f 8bbd
00000190: 2e87 96bd 3651 67bd 894e 4fbd f963 8bbd
000001a0: fe03 b5bd f283 f0bc 402b 3cbd 9544 80bd
000001b0: a7dd 5cbd 0a06 99bd cfe3 e8bd 6953 c8bd
000001c0: bfe8 d2bd 4cf7 8bbc e593 67bd dcd5 44bd
000001d0: 31e5 f6bb 7c17 03be 304e 2abd 058d edbd
000001e0: f62c 4ebd c02b c4bd 59d8 88bd 8d8b f4bd
000001f0: ab48 fcbd c89d b8bc 5816 3bbd 115f f8bc
00000200: 4eaa fbbc 1278 e4bd 7148 8bbc 50f8 dbbd
00000210: 1685 37bd 48fe 6bbd c1b7 4dbd c061 fabd
00000220: a457 c8bd 45f4 fcbd 5616 c6bd 2ba9 eebd
00000230: 4a28 f0bd 12c3 18bd 5ada 1cbd ae2e 21bd
00000240: 47c1 75bd 7bea 80bd 2b5b edbc 033e 0fbc
00000250: 87d5 60bd faa2 c1bd 58db 3bbd 2ff3 69bd
00000260: 53aa 173c 05b8 e5bd 20f3 9ebd e523 47bd
00000270: f548 27bd 8064 2ebd 35af 7dbd 9306 6cbd
00000280: 53a6 f2bd 4463 8bbd 167f 5d3c 9597 babc
00000290: 4e60 aabd 0f3a cbbc 82d7 cabd 4af5 28bd
000002a0: 6365 67bd 906e 74bd f1b4 f83a 02f2 96bc
000002b0: 6456 08be 417e d2bd d23c dcbd 0683 b8bd
000002c0: fe6c 5dbd 8a71 fdbd 7b36 3cbd 3828 08bd
000002d0: 44d0 42bd 84c8 f1bd c3ad a8bd 0d06 c4bd
000002e0: fe3d 99bd 7b88 1ebd 7365 84bd 43cd dcbd
000002f0: 6428 afbd e3d3 a4bd 6996 8cbd 3200 94bd
00000300: 6f7c 21bd 46e9 95bd 3ce1 49bd d96d 04be
00000310: 7a31 89bd adb7 b8bd 34c2 8abc 4d2e acbd
00000320: 41c3 03be 68ae edbd ac99 a8bd cff5 92bd
00000330: 4883 67bd a2eb 48bd afb8 40bd fc07 11bc
00000340: 12ca 48bd 9e07 c9bd cf9d ccbd b4ed 83bd
00000350: b8e2 c0bd 6281 b6bd 4b59 48bd 35ab 2ebd
00000360: f862 2dbd f5c3 0bbe 9568 0cbd 759b bdbd
00000370: eafa f0bd 88e5 6bbd e973 9cbd bf02 1abd
00000380: 99e7 99bd 1fd6 8fbd a350 efbd 682d 8dbd
00000390: 6509 81bd 58d5 b0bd f01f e8bd bde1 c3bd
000003a0: 8fac ffbd 3ad8 9fbd 5973 52ba 5e16 ccbd
000003b0: ea44 93bd d0fd 58bd f0ac 87bd c715 36bd
000003c0: bf80 71bc c0d7 91bd 952b abbd b3c5 bcbd
000003d0: d858 cbbd 98ba fbbd e7b2 cdbd 16dc 83bd
000003e0: a2d0 c6bd 49e5 02be 178e 0abe ffc4 9abd
000003f0: c973 5bbd f868 89bc 103b b7bd f0cd c9bd

policy_head.2.bias f4 [81]
-0.08924912 -0.074082956 -0.12638949 -0.072423115 -0.061357126 -0.11419028 -0.120635286 -0.10446271
-0.059950754 -0.14924139 -0.06865138 -0.08052765 -0.106063545 -0.084743634 -0.10928705 -0.13455316
-0.13744722 -0.10664523 -0.109384224 -0.06741868 -0.13206567 -0.10067199 -0.08680342 -0.1296535
-0.0743269 -0.07385558 -0.07453017 -0.102829486 -0.11213815 -0.09995262 -0.13807179 -0.13508342
-0.122903645 -0.05969125 -0.11698346 -0.14525957 -0.082490355 -0.051446605 -0.07291411 -0.123011336
-0.104202256 -0.056008622 -0.05038539 -0.12114094 -0.14025961 -0.13684067 -0.13673846 -0.07629034
-0.12094164 -0.1024009 -0.07548085 -0.11594437 -0.13991986 -0.061180905 -0.098900914 -0.078210205
-0.06160751 -0.11848961 -0.06437999 -0.05613008 -0.14692898 -0.10116738 -0.1399434 -0.07349867
-0.099288195 -0.14763853 -0.08783074 -0.060518682 -0.11531086 -0.0952944 -0.13109094 -0.12360169
-0.07953468 -0.10596353 -0.13228895 -0.10675645 -0.10761218 -0.08798194 -0.11795527 -0.07311778
-0.11914614
00000000: 3ec8 b6bd ceb8 97bd 3f6c 01be 9252 94bd
00000010: 9c51 7bbd 98dc e9bd a20f f7bd 8cf0 d5bd
00000020: ec8e 75bd bcd2 18be 1899 8cbd aeeb a4bd
00000030: d837 d9bd 128e adbd e4d1 dfbd 4ec8 09be
00000040: f7be 0cbe d068 dabd d604 e0bd ce12 8abd
00000050: 393c 07be 1e2d cebd fec5 b1bd e3c3 04be
00000060: b438 98bd 9841 97bd 46a3 98bd 4498 d2bd
00000070: b0a8 e5bd f6b3 ccbd b162 0dbe 4f53 0abe
00000080: e8b4 fbbd d07e 74bd 0695 efbd edbe 14be
00000090: b4f0 a8bd adb9 52bd fe53 95bd 5eed fbbd
000000a0: fe67 d5bd 4c69 65bd e960 4ebd be18 f8bd
000000b0: 37a0 0fbe f61f 0cbe 2b05 0cbe 1c3e 9cbd
000000c0: 40b0 f7bd 90b7 d1bd b495 9abd 3e74 edbd
000000d0: 2747 0fbe d498 7abd 908c cabd ac2c a0bd
000000e0: 2858 7cbd aeaa f2bd a8d9 83bd a8e8 65bd
000000f0: 8d74 16be d830 cfbd 534d 0fbe 7886 96bd
00000100: 9c57 cbbd 8e2e 17be 9ae0 b3bd 70e2 77bd
00000110: 1a28 ecbd b629 c3bd b43c 06be e222 fdbd
00000120: 14e3 a2bd 6803 d9bd c176 07be 20a3 dabd
00000130: c663 dcbd e02f b4bd 8892 f1bd c6be 95bd
00000140: e402 f4bd

value_head.0.1.bias f4 [1, 6, 1, 1]
0.054361474 0.060394563 0.055916205 0.05905235 0.060691178 0.05083438
00000000: 23aa 5e3d 4a60 773d 6408 653d e1e0 713d
00000010: 5097 783d b637 503d

value_head.2.weight f4 [32, 486]
0.06264002 0.072669275 0.036860067 0.07369098 0.047402564 0.046025224 -0.0045206184 0.04681072
0.017492246 0.006427688 0.026311245 0.06983399 0.059705302 0.033552203 0.06202486 0.06317638
0.015188479 0.04024701 0.057426214 0.045513365 -0.009617604 0.069027424 0.06260965 -0.002358381
0.06025466 -0.0040094517 0.0493788 0.032588094 0.014219779 0.04953352 0.025758827 -0.002704769
0.021508414 0.018389197 0.031404953 0.05676968 0.051633857 0.03174817 -0.019090408 0.054608207
-0.009523758 0.008991358 0.02816524 0.054612715 0.04819779 0.01488962 0.030802293 0.017423656
0.02703548 0.027627097 0.066533856 0.021784006 0.046513956 0.059895907 0.08230672 0.019719334
0.062776886 0.08390849 0.052974 0.04073359 0.063642584 0.00057201926 0.059092045 0.018230181
-0.0054672007 0.059348706 0.009114946 0.06053248 0.021327216 0.06677832 0.074349396 0.08161561
0.036420133 0.025277328 0.006583406 -0.0043554883 -0.0003700512 0.079764135 0.057599425 0.07289489
0.01161638 0.076218046 0.004980816 0.034043897 0.007624526 0.030814346 0.07968742 -0.0069273654
-0.028509898 0.022661462 0.08418737 0.02631649 0.06859411 0.08257445 0.067271814 0.052049253
0.053818382 0.048844855 0.06823227 0.035142012 0.027623339 0.05467098 0.056824867 0.01623353
0.06387952 -0.00041786773 0.047049597 0.022709401 0.070564695 -0.0032785328 -5.9969232e-05 0.016159657
-0.0070090774 0.030452715 0.027171366 -0.0107355 0.07248928 0.06473233 0.048694625 0.0012380424
0.024857448 0.023752436 0.061464377 0.050931063 0.019876145 0.026478507 0.0062841135 -0.01341397
-0.0062544546 0.04266886 -0.009857463 0.049139723 0.081082374 0.005489054 0.04387011 0.08556644
0.011071236 0.06612537 0.07496515 0.011151174 0.03892729 0.022566317 0.00969395 0.07357027
0.060879257 0.055675343 0.054742154 0.040911637 0.0025604304 0.036876895 0.0006648998 -0.0055403383
0.08192883 0.063923724 0.00034688038 0.022524491 0.08238083 0.02284485 0.03785181 0.07641963
0.04428566 0.021574827 0.0370466 0.012945977 0.010678142 0.073074445 0.08799245 0.040819455
0.02014892 0.023660252 9.7473625e-05 0.08482667 0.011208777 0.031863537 0.07470195 -0.0030371882
0.040875446 0.016311746 0.061141327 0.07238476 0.05283403 0.061446074 0.0068209115 0.021705763
-0.0038792037 0.007868097 0.069833 0.06773769 0.0047670538 0.07400154 0.056248255 -0.0047788485
0.05964627 0.027523227 0.0041226945 0.010672961 0.051226478 0.024226097 0.009008558 0.07598089
0.0453714 0.0178274 0.03554215 0.0822777 0.05277962 0.016726 0.055513643 0.007706615
0.04545078 0.0037683898 0.06268838 0.05691838 0.045222063 0.012628396 0.06392992 0.060804904
0.06811842 0.0068913572 0.0062467526 0.07741733 -0.003297089 0.007454413 0.058398534 0.02772943
0.04778706 0.050993875 0.01966774 0.010857975 0.001971563 -0.008512415 0.04865814 0.042760022
0.01504392 0.060031734 0.0731506 0.0735035 -0.0025174022 0.03656752 0.011675025 0.06421596
0.07461164 0.031953912 0.08288898 0.044368062 0.05806475 0.0045932555 0.061827168 -0.002413347
0.0734582 0.07448777 0.040717054 0.08277099 0.038056646 -0.004452421 0.01792818 -0.0034320985
00000000: 6949 803d a1d3 943d 95fa 163d 4ceb 963d
00000010: 3129 423d f284 3c3d b221 94bb 99bc 3f3d
00000020: e64b 8f3c 5b9f d23b ae8a d73c 1f05 8f3d
00000030: 8c8d 743d 096e 093d c80d 7e3d 9e62 813d
00000040: 19d9 783c 0cda 243d c037 6b3d 396c 3a3d
00000050: 2893 1dbc 405e 8d3d 7d39 803d 118f 1abb
00000060: 97cd 763d b861 83bb 6d41 4a3d 187b 053d
00000070: 13fa 683c a9e3 4a3d 2d04 d33c 7e42 31bb
00000080: 6a32 b03c f1a4 963c 7ba2 003d 5387 683d
00000090: 067e 533d 5e0a 023d 7d63 9cbc dbac 5f3d
000000a0: 8909 1cbc 7d50 133c caba e63c 95b1 5f3d
000000b0: 0c6b 453d 98f3 733c 1755 fc3c 0ebc 8e3c
000000c0: 8379 dd3c 3952 e23c e742 883d 5f74 b23c
000000d0: 6b85 3e3d 6955 753d 6d90 a83d 718a a13c
000000e0: 2b91 803d 37d8 ab3d 44fb 583d 44d8 263d
000000f0: 0b57 823d 90f3 153a 800a 723d 7657 953c
00000100: 3426 b3bb a117 733d db56 153c e8f0 773d
00000110: 6ab6 ae3c 12c3 883d 7f44 983d 1626 a73d
00000120: 472d 153d 6612 cf3c 9db9 d73b 7cb8 8ebb
00000130: 6e03 c2b9 615b a33d 60ed 6b3d eb49 953d
00000140: a152 3e3c 3518 9c3d 1d36 a33b 9d71 0b3d
00000150: 29d7 f93b 5e6e fc3c 2833 a33d f4fe e2bb
00000160: 978d e9bc 88a4 b93c 6e6a ac3d ae95 d73c
00000170: 127b 8c3d cb1c a93d cec5 893d 9931 553d
00000180: aa70 5c3d 8b11 483d 5cbd 8b3d 12f1 0f3d
00000190: 574a e23c adee 5f3d 31c1 683d 2efc 843c
000001a0: 44d3 823d 4215 dbb9 14b7 403d 1109 ba3c
000001b0: 3984 903d a7dc 56bb 7987 7bb8 4261 843c
000001c0: 67ac e5bb f977 f93c 7c96 de3c f3e3 2fbc
000001d0: 4275 943d 6292 843d 0474 473d cf45 a23a
000001e0: d9a1 cb3c 7894 c23c 12c2 7b3d 179d 503d
000001f0: 4cd3 a23c 74e9 d83c f7ea cd3b 45c6 5bbc
00000200: 2bf2 ccbb 8bc5 2e3d 3281 21bc bc46 493d
00000210: 840e a63d 86dd b33b 25b1 333d 753d af3d
00000220: 2164 353c bd6c 873d 5487 993d 6ab3 363c
00000230: 3972 1f3d ffdc b83c 60d3 1e3c 02ac 963d
00000240: 875c 793d d40b 643d 4f39 603d f692 273d
00000250: e5cc 273b 3a0c 173d ac4c 2e3a ba8b b5bb
00000260: 4dca a73d 71ea 823d 7fdd b539 4885 b83c
00000270: 48b7 a83d 1f25 bb3c 800a 1b3d e581 9c3d
00000280: e164 353d b1bd b03c 2dbe 173d 5d1b 543c
00000290: 60f3 2e3c 0ea8 953d 6335 b43d 4d32 273d
000002a0: 590f a53c 25d3 c13c c16a cc38 9bb9 ad3d
000002b0: 05a5 373c 5783 023d 56fd 983d 900b 47bb
000002c0: 036d 273d 36a0 853c 546f 7a3d 763e 943d
000002d0: 7f68 583d e1ae 7b3d f481 df3b 49d0 b13c
000002e0: 3d3a 7ebb 31e9 003c 9b04 8f3d 0fba 8a3d
000002f0: f234 9c3b 1f8e 973d 9264 663d e397 9cbb
00000300: a64f 743d 6478 e13c ab17 873b a5dd 2e3c
00000310: dbd2 513d cf75 c63c a198 133c de9b 9b3d
00000320: 5cd7 393d c40a 923c a594 113d 3681 a83d
00000330: 712f 583d f704 893c 4662 633d c687 fc3b
00000340: 992a 3a3d 17f7 763b c462 803d 3f23 693d
00000350: c53a 393d 55e7 4e3c b1ed 823d 900e 793d
00000360: ac81 8b3d e5d0 e13b 8fb1 cc3b fa8c 9e3d
00000370: f913 58bb 2644 f43b 4d33 6f3d d428 e33c
00000380: 5dbc 433d f4de 503d 3e1e a13c a6e5 313c
00000390: 5735 013b a877 0bbc c24d 473d 2225 2f3d
000003a0: c67a 763c d6e3 753d fbcf 953d 0189 963d
000003b0: 00fb 24bb d3c7 153d 9b48 3f3c a883 833d
000003c0: fdcd 983d 1be2 023d b3c1 a93d 49bb 353d
000003d0: 4ed5 6d3d 0583 963b 7c3e 7d3d 3e29 1ebb
000003e0: 4171 963d 0b8d 983d edc6 263d d683 a93d
000003f0: 49e1 1b3d 9de5 91bb 1ede 923c 0fed 60bb

value_head.2.bias f4 [32]
0.055212285 0.027795512 -0.031227719 0.034087826 0.031223264 -0.027225552 0.031507425 0.057107434
0.07778061 0.07005671 0.027417572 -0.04923553 0.026188852 0.03416945 0.086566836 0.009773766
0.0025168501 -0.0032917804 0.08340746 -0.00478936 0.06353792 0.07536323 0.0010332805 -0.020439196
0.02897156 -0.03139113 0.07698984 0.0717507 -0.020024816 0.075579196 -0.0063777915 0.015034169
00000000: 4726 623d 6ab3 e33c 46d1 ffbc ad9f 0b3d
00000010: eec7 ff3c 1f08 dfbc ee0d 013d 7ce9 693d
00000020: 714b 9f3d e479 8f3d d19a e03c 32ab 49bd
00000030: 018a d63c 44f5 0b3d f449 b13d 2522 203c
00000040: bdf1 243b e9ba 57bb 88d1 aa3d 10f0 9cbb
00000050: 2b20 823d 0a58 9a3d 246f 873a 1a70 a7bc
00000060: c455 ed3c fc93 00bd d9ac 9d3d 08f2 923d
00000070: 150b a4bc 44c9 9a3d cbfc d0bb e051 763c
