rust/cuda-nn-eval/tests/data/pre-sttt-4x8.onnx (onnx, 222346 bytes, 50 tensors)

tower.0.weight f4 [8, 2, 3, 3]
000000 04 2c fd 3c d1 36 59 3e e8 10 a4 bc 93 e0 6d 3e
       0.030904777 0.21212317 -0.020027593 0.232302
000010 8c da 0c 3e 50 df 97 3d 2a 14 dc 3d 26 3c 0f 3c
       0.13755244 0.0741564 0.107460335 0.008742368
000020 50 e4 e8 3a a7 74 1c bd 17 06 47 bd 2b da b9 3d
       0.0017768238 -0.038197186 -0.048589792 0.09074815
000030 2e 6f b7 bd cb 48 2c be 64 ed ca bd 51 d2 6b 3d
       -0.08956753 -0.16824643 -0.0990856 0.05757362
000040 f3 78 26 3e 7d 34 09 3e 03 99 52 3e 4f 16 bc bd
       0.16257076 0.13398929 0.20566182 -0.091839425
000050 2e fd ee 3d 70 63 db bd 94 19 13 3c e7 a9 1e 3e
       0.11669384 -0.107123256 0.008978266 0.154945
000060 65 c7 ab bd 5b f4 e8 3d a4 f6 36 3e 6a 59 b0 3d
       -0.08387641 0.11374732 0.17867523 0.086108044
000070 5f d5 e2 bc ca c8 a0 3d 34 de 59 3e a1 ea 58 be
       -0.027689634 0.078507975 0.2127617 -0.21183254
000080 e6 3d 67 bd 44 fc 04 be 68 23 8f 3d 20 9a 10 bd
       -0.056455515 -0.12986857 0.06989175 -0.035303235
000090 ae 55 09 be ee ca 26 bc a0 9e eb 3d 8c b0 0b be
       -0.1341159 -0.010180218 0.11504865 -0.13641566
0000a0 60 ee 1a be 48 1e 0d 3e da 11 d3 bd 8f cd 71 be
       -0.15129995 0.13781083 -0.10306139 -0.2361357
0000b0 24 c5 b8 bd 7d 13 53 3d 25 ad f9 3d bc 52 e1 3d
       -0.090219766 0.051532257 0.12191228 0.110021085
0000c0 25 8c 69 3d b8 f0 0f 3e 8a 69 d8 3d 4a ef 67 3c
       0.057018418 0.1405667 0.10567005 0.014156172
0000d0 77 e7 61 3d 32 10 be bd ef 4d 2d be 3f 5f 68 be
       0.055152383 -0.09280433 -0.1692426 -0.22692584
0000e0 83 95 90 bd 2d 1c 8d 3c 69 a8 3c bd 54 a6 48 bd
       -0.07059767 0.01722535 -0.046059046 -0.048986748
0000f0 ed 43 11 be 73 d1 1c 3e ed 62 4b 3e 51 b8 11 bd
       -0.14186068 0.15314274 0.19861956 -0.03557617
000100 1a cc 30 3e 9e 40 d1 bd dd 8c b6 3b e5 8a 13 3e
       0.17265359 -0.10217403 0.0055709914 0.14408453
000110 6e 65 f0 3d bc 97 17 bd 69 38 54 3e 31 6b 33 3e
       0.11738096 -0.03700994 0.20724644 0.17521359
000120 02 be d6 bd d9 00 18 3e 0e 11 0c bd 5f 4c f3 3d
       -0.1048546 0.14844073 -0.034195952 0.11879801
000130 06 5f 3f 3e 19 d3 ae 3d 0a 98 2a 3e 37 d1 63 bd
       0.18688592 0.085363574 0.16659561 -0.055619445
000140 b3 e6 98 3d ed 8b 37 3e 0c ed 55 3e 57 8b 83 bd
       0.074658774 0.17924471 0.20891207 -0.06423061
000150 6f 4d 29 3d 0e 98 28 be 61 d5 1a bc b3 39 2f 3e
       0.041333612 -0.16464254 -0.009450288 0.17111854
000160 cf d6 17 3d ba 9c cd 3d 4a 44 7d 3e 29 ae 01 3e
       0.03707009 0.10039659 0.24733081 0.12664093
000170 b5 6d d8 bc 60 ad fc bd d6 9d 15 3d 07 b3 82 bd
       -0.0264195 -0.12337756 0.036527477 -0.06381803
000180 ce 11 22 be 24 46 d6 bc 1e f8 68 3e 7a 00 23 3e
       -0.15827104 -0.026156493 0.22750899 0.1591815
000190 97 22 ba bd 67 bc 4e be c3 a4 3c 3e 7f 82 3a 3e
       -0.09088629 -0.20189057 0.18422227 0.18213843
0001a0 7f e4 01 be ff 74 27 3e 3a 5d a2 3d 0f 84 73 bc
       -0.1268482 0.16353224 0.07927938 -0.014863028
0001b0 98 4f 5b be 93 60 b0 3d 4b 93 98 3d 93 b6 27 3d
       -0.21417081 0.0861217 0.07449969 0.0409456
0001c0 f6 ef 19 3c 7a 1f 5c be 96 b5 39 bd 6c 8d f1 bc
       0.00939559 -0.21496382 -0.04533919 -0.02948638
0001d0 3e ed 32 be 40 ac 71 bc a1 40 43 3b ba 8e 5d 3e
       -0.17473313 -0.01475054 0.002979316 0.21636477
0001e0 61 fa 22 be 35 e0 33 3e 71 ce 03 be b9 98 5f be
       -0.15915824 0.17565997 -0.1287172 -0.21835603
0001f0 9e 2b 8f 3d 9d 12 5e 3d bb f8 5a be 67 46 43 3d
       0.06990741 0.05421697 -0.21383946 0.047674563
000200 ca 8b 24 3e a1 c7 5b 3e 1e 88 51 be 26 3b c3 bd
       0.1606895 0.21462871 -0.20462081 -0.09532766
000210 54 c2 86 bd 70 5c 8b bd dc 63 c5 bd c1 e2 23 be
       -0.06580034 -0.068047404 -0.09638187 -0.16004469
000220 be cb 68 bd 6e 13 10 bd 53 0f f7 bd fe f3 32 3e
       -0.05683493 -0.03517478 -0.1206347 0.17475888
000230 e9 38 1e 3e 33 b9 59 3e 27 75 3c 3e f4 56 d5 3c
       0.15451397 0.21262054 0.18404065 0.026042439

tower.0.bias f4 [8]
000000 2b 0d c2 bb d5 28 86 3d 00 d4 49 bd d4 38 59 be
       -0.00592198 0.06550757 -0.049274445 -0.21213084
000010 48 d7 1d be be ea 6f bc d9 80 71 bc 86 35 4d bc
       -0.15414155 -0.014643369 -0.014740192 -0.012524968

tower.1.seq.0.weight f4 [8]
000000 35 56 81 3f 01 ac 80 3f 22 0e 79 3f 91 f5 7b 3f
       1.0104433 1.0052491 0.9728719 0.9842158
000010 3c 08 80 3f 47 30 7e 3f bf 92 84 3f 75 bf 7e 3f
       1.0002513 0.99292415 1.0357283 0.9951089

tower.1.seq.0.bias f4 [8]
000000 54 f4 79 3b c1 8c 4e 3b dc 69 4e bc 67 05 9d 3b
       0.0038140016 0.0031517001 -0.012598481 0.004791904
000010 57 58 b6 3c ee 7e 94 3c 49 23 5e 3d c8 9b 58 bc
       0.02225892 0.018126931 0.05423287 -0.013220735

tower.1.seq.0.running_mean f4 [8]
000000 4c 9f 3d 3c ff dd a2 3d 2f 9c 48 bd 77 4d 5c be
       0.011573624 0.07952499 -0.048977073 -0.21513925
000010 a1 f0 04 be f9 95 c7 b9 db 36 c9 bc 7a 45 78 bc
       -0.12982418 -0.00038067976 -0.02456229 -0.015153283

tower.1.seq.0.running_var f4 [8]
000000 72 31 64 3e 49 e8 74 3e 0a 19 58 3e ab 5f 8b 3e
       0.22284487 0.23916735 0.21103302 0.27221426
000010 8b ac 7e 3e 37 17 9e 3e 48 43 8a 3e fb 53 a4 3e
       0.24870507 0.30877087 0.27004457 0.32095322

tower.1.seq.5.weight f4 [8, 8, 3, 3]
000000 e0 d5 ac bd b1 76 66 bd c3 05 bf 3d c7 00 c5 bd
       -0.08439231 -0.056265537 0.09327271 -0.09619289
000010 0b ab b7 bd db 59 da bd 50 9e a9 3c d0 ab 98 3d
       -0.08968171 -0.1066167 0.020705372 0.07454646
000020 ad a5 b0 bd 96 67 bb 3c ad a1 2f 3d ae 51 db 3d
       -0.0862535 0.022876542 0.042878795 0.107089385
000030 71 4d b6 bd bd 9d 87 3d b2 3b c9 3c e6 e6 49 3d
       -0.089014895 0.06621883 0.024564598 0.049292468
000040 cf b6 52 3d 85 75 36 bc 7e 07 23 3d 15 20 a7 bc
       0.05144387 -0.011136417 0.039802067 -0.02040104
000050 07 5d ee bc f3 a3 b1 bc 1f a3 c0 bc ad 67 01 be
       -0.029097093 -0.021684622 -0.023515282 -0.12637205
000060 33 b8 97 3d b7 08 a4 3d 9f a8 93 bc 7c 7f 65 bd
       0.0740818 0.08009475 -0.01802474 -0.05602978
000070 e1 8d a0 bd a6 e8 f5 bc bc 18 b3 3c ec b3 0b 3e
       -0.07839561 -0.030018162 0.02186238 0.13642853
000080 7a 2b af bc 96 41 79 3b 5e 8d bf bc dc 04 cb bd
       -0.021383036 0.0038033477 -0.023382839 -0.09913036
000090 1d 6a f0 3d 34 24 e3 3d 2f ed de 3a 69 4c b3 3d
       0.117389895 0.110908896 0.0017007942 0.087548085
0000a0 61 05 05 3d bf 97 00 3d f6 a1 39 bd 46 62 a7 3d
       0.032475833 0.031394716 -0.045320474 0.08173041
0000b0 a3 94 b0 bd d8 c2 2f 3d ac 7f 02 3e 81 e4 83 ba
       -0.086221 0.042910427 0.12744015 -0.0010062606
0000c0 35 f4 e3 3d af 29 e3 bc d4 64 a9 3d 14 02 82 bd
       0.11130563 -0.027729837 0.082711846 -0.063480526
0000d0 9f b3 af 3d bb 71 68 bd 52 b6 84 3d 9f 25 a1 bd
       0.08579182 -0.056749087 0.06480087 -0.07868504
0000e0 14 08 0a bd 39 6c 84 3c 13 f0 a0 3d f8 56 da bd
       -0.03369911 0.016164886 0.078582905 -0.10661119
0000f0 68 be a1 3d e4 0d 9d 3d 4e 80 b2 3d 4f 75 c2 3d
       0.07897645 0.07668665 0.087158784 0.09495031
000100 5b b1 90 3c 91 5f 5a 3d ec 43 a6 3d 9e 95 9d bd
       0.017662695 0.053313795 0.08118424 -0.07694553
000110 5a 34 05 3e 21 df b5 3d 53 dd 9e bd 51 4c 9a 3d
       0.13008252 0.08880449 -0.07757058 0.075340874
000120 d1 67 a5 3d 94 ba 6d bc 4a 5a ea 3a 74 18 b9 3d
       0.08076442 -0.014509816 0.0017879691 0.09037867
000130 2b 38 bf 3d 9e 7a 6d 3d bb fd 09 bc d5 4d 75 3d
       0.09336885 0.057978265 -0.00842231 0.05988868
000140 ec 74 97 3d 3c 1a 4f bd 3a 30 86 bd d1 1f 99 bd
       0.07395348 -0.05056213 -0.06552167 -0.074767716
000150 14 1c b3 bd 5e 85 a5 bc 2a 30 44 bd 15 77 c8 3d
       -0.0874559 -0.020205196 -0.047897495 0.09788338
000160 6a 69 12 bd 86 2f 48 bd 62 18 42 3d 45 97 ba 3d
       -0.035745062 -0.048873447 0.047386535 0.091108836
000170 ce 1c 67 3d aa f0 4f bd df fc bb bc f6 00 28 3d
       0.056423955 -0.050766625 -0.022947727 0.04101654
000180 20 95 8a 3d da d5 34 bd 11 da ee bc a6 63 91 3d
       0.067667246 -0.044149257 -0.029156717 0.070990846
000190 aa 0c 68 3d 0a 4b f8 bd 19 2f 8e bd 09 88 c9 bd
       0.056652702 -0.121236876 -0.06942577 -0.098404
0001a0 16 bc a1 bb 9f b2 02 3d 54 ff 11 bd 4b 50 11 3d
       -0.0049357517 0.031908628 -0.03564389 0.035476964
0001b0 26 fc db bb c4 e8 1c 3d 52 f2 14 3d 67 39 c9 bc
       -0.006713408 0.03830792 0.036363907 -0.024563504
0001c0 cb 9a 30 3d 2c bb 94 3d bf b1 49 3d 99 d1 d2 3d
       0.043116372 0.07262263 0.049241778 0.10293884
0001d0 c0 34 0f bd 97 54 b4 bd d1 af 00 be 9a 8d e3 3d
       -0.034962416 -0.08805197 -0.12567069 0.11110993
0001e0 43 6a a3 3c 6a 96 4e 3d 2c d6 20 3d 2b 11 58 bb
       0.01994813 0.050436415 0.03926675 -0.0032969217
0001f0 1b 60 7f bd 3a 5b e1 3d 70 82 a4 bd 27 b6 5a 3c
       -0.062347513 0.11003728 -0.080326915 0.013349093
000200 73 6e 39 bd 16 b4 c3 bd 3b 97 73 3d ec fb aa bd
       -0.04527135 -0.09555833 0.059470396 -0.083488315
000210 1d d3 b9 3d e6 37 8e 3d 55 43 d0 bd 60 49 43 3d
       0.0907347 0.069442555 -0.101690926 0.047677398
000220 08 a6 d5 bb ea 91 df bc 9b 5f a6 3d 3d eb b9 3c
       -0.0065200366 -0.027291257 0.08123704 0.022695178
000230 d1 08 a8 bb ca df b3 3c f1 fd 72 3d 6b c7 8e bd
       -0.005128004 0.021957297 0.05932421 -0.0697163
000240 c5 97 05 3e d6 8f 28 3d 04 4d 01 3e 52 b3 83 bb
       0.13046177 0.041152798 0.12627035 -0.0040191794
000250 ee 0e c9 bd 0e 9a 79 bd 5e 79 df bc 21 70 4b bd
       -0.09817301 -0.060937934 -0.027279552 -0.04966748
000260 5d 47 2a 3d b4 bf b8 3c 77 55 f1 bd 8f fd 7a bd
       0.041571964 0.022552349 -0.11783879 -0.06127697
000270 7d d0 d9 3d a3 04 8e 3c 07 ad f0 bd f0 5f 22 3d
       0.10635469 0.017336195 -0.11751752 0.039642274
000280 f8 17 aa 3d aa 18 94 3d 45 9c c6 bd 03 af 21 3c
       0.08305353 0.07231267 -0.09697775 0.009868386
000290 ff 16 01 3e d6 a3 bd 3c 0c 54 15 3d 95 2f d9 bd
       0.12606429 0.023149412 0.036457106 -0.10604779
0002a0 5a 26 a7 3c 96 8c 6a 3d 28 96 6e bd 60 7f 91 3d
       0.02040403 0.05726298 -0.05824867 0.07104373
0002b0 4c db 5c bd 62 4f c1 3d 0e 37 ad 3d ba 18 6b bc
       -0.053920075 0.09438969 0.084577665 -0.014349157
0002c0 42 5a b4 3c d8 6e a5 3d e2 39 b2 3d ff c6 9b 3d
       0.022015695 0.080777824 0.087024465 0.07606315
0002d0 03 73 06 bc 66 e7 ab 3c 4c 9e 97 3d 29 dd 0e 3e
       -0.008206132 0.020984363 0.074032396 0.13951553
0002e0 b2 68 ad 3d bc d4 8e 3d c8 b6 29 bd 0f 63 f9 bc
       0.08467235 0.069741696 -0.04143408 -0.030442743
0002f0 65 66 91 bd ac 00 85 bd 88 ee 7b 3d 5a 3e 33 3c
       -0.07099608 -0.06494269 0.061506778 0.010940159
000300 f5 c8 95 3d 32 23 91 bd 71 b5 c9 3d ff 52 db 3d
       0.0731372 -0.07086791 0.0984906 0.107091896
000310 8b ec 94 bd ad ec d8 bb 09 41 2f 3d ee 6b 6f 3d
       -0.072716795 -0.006620011 0.04278663 0.05845254
000320 3f f5 31 3c 40 64 17 bd 04 1d 27 bd 75 6f 33 3b
       0.010861694 -0.03696084 -0.040799156 0.0027379666
000330 30 cc 36 3d 5d f6 d1 3d fa a6 f4 3c ff bf d5 bc
       0.044628322 0.10252068 0.029864777 -0.026092527
000340 94 76 98 bd 19 71 00 3e c7 56 c2 3d 80 41 e2 bd
       -0.07444492 0.12543143 0.09489208 -0.110476494
000350 ca 16 83 3d 6a ef af 3d 1e 4f b5 3c 5b 65 5e 3d
       0.06400831 0.085905865 0.022132453 0.05429588
000360 f4 22 64 3b ed 53 5f bd e6 e6 98 3d 6a bc 96 bd
       0.0034810873 -0.054523397 0.074659154 -0.07360156
000370 09 c0 50 bd 79 46 b5 bc 4b 65 d9 bd 14 90 33 bd
       -0.05096439 -0.02212833 -0.10615023 -0.043838575
000380 5c ef 81 3d 9d c1 c4 bc 88 58 00 3d 1a c7 2e 3d
       0.06344482 -0.024018103 0.03133443 0.042670347
000390 d9 1f 68 bc 57 01 1a 3d f3 71 d2 3d e1 75 b0 bd
       -0.014167749 0.037598934 0.1027564 -0.086162336
0003a0 c8 e4 65 3d 3d 54 00 bd 4d d0 ad bd 2c 3c bb 3d
       0.056126386 -0.031330336 -0.08486996 0.09142336
0003b0 1e 92 ba bd c9 dd dd 3d e0 2d a8 bd 81 b1 4c 3d
       -0.09109901 0.10833318 -0.08211875 0.04997397
0003c0 cc fe bd bd ef 50 25 bd ce c2 cf bb ba b1 f3 bd
       -0.09277114 -0.040360387 -0.006340361 -0.11899133
0003d0 32 ed 83 3d 19 67 9b 3d 33 bf 24 bd c3 6f 4c bd
       0.06441726 0.07588024 -0.040221404 -0.04991127
0003e0 bd 5f d9 bd dc 44 20 3a 14 f1 5b bd e2 0c 86 bc
       -0.10613964 0.00061137765 -0.053696707 -0.016363565
0003f0 d9 e2 54 3d db db 07 be 09 4a 6f 3d 3b 0c ce bd
       0.05197415 -0.13267462 0.058420215 -0.100609265

tower.1.seq.5.bias f4 [8]
000000 8a f8 18 bd c8 47 ad bc 20 03 92 bd c6 60 30 3d
       -0.0373464 -0.021152392 -0.07129502 0.04306104
000010 d1 a6 58 bc 11 65 c7 3d d5 63 d1 bd f2 8c c7 3d
       -0.013223366 0.09736074 -0.102241196 0.0974368

tower.2.seq.0.weight f4 [8]
000000 8f 9f 82 3f b9 8d 80 3f 3a 36 80 3f b1 8c 7e 3f
       1.0204943 1.004325 1.0016549 0.9943343
000010 33 9b 7d 3f fc cd 7e 3f fe c4 7f 3f 85 f6 7c 3f
       0.9906494 0.9953306 0.9990996 0.9881366

tower.2.seq.0.bias f4 [8]
000000 2c 09 7a 3c ef fa 3e 3b 33 4c 43 3d 33 b0 07 bc
       0.015260976 0.0029141267 0.04768009 -0.008281755
000010 db 84 08 bc d5 25 be 3c a8 bb 60 3c ab a9 20 3c
       -0.008332456 0.0232114 0.013716616 0.009806077

tower.2.seq.0.running_mean f4 [8]
000000 0a 36 9d 3e fd 5f 25 3e 5f d1 c4 3e ae 0d e5 be
       0.3070529 0.16149898 0.38440987 -0.44737
000010 c3 26 2e be 5d 0e 21 be 06 32 01 bf cc 1d 39 3d
       -0.17006974 -0.15728135 -0.50466955 0.045194432

tower.2.seq.0.running_var f4 [8]
000000 35 fa b9 3e 17 e2 c3 3e bc d2 d2 3e 7d e6 c6 3e
       0.36323705 0.3825843 0.41176403 0.38847724
000010 9c 8b a3 3e f4 8d d4 3e f2 e4 d5 3e 9e 92 bf 3e
       0.3194245 0.41514552 0.41776234 0.37416548

tower.2.seq.5.weight f4 [8, 8, 3, 3]
000000 a2 56 b5 bc d6 af 94 3d c0 e6 d8 3d ba 4d bd bd
       -0.022136036 0.072601005 0.10590887 -0.09243341
000010 b1 22 43 bd 90 4b 28 bd dd d3 04 3d 9b 41 f0 ba
       -0.047640506 -0.041087687 0.03242861 -0.0018330099
000020 09 aa 98 3d f4 31 a3 bd 38 09 bc bd ac cb 91 bc
       0.07454307 -0.07968512 -0.09181446 -0.017797314
000030 f4 04 97 3c f4 fa 71 3d 16 f6 b1 bd db 12 62 3d
       0.018434979 0.05907722 -0.08689515 0.055193763
000040 84 cc 2b bd fb 9b 6a 3d 7f 49 df 3d 43 53 44 3d
       -0.04194309 0.05727766 0.1090269 0.047930967
000050 6e 0b d7 3d 6c 34 33 bd 78 86 b3 3d 74 cf ac 3b
       0.10500227 -0.043751165 0.08765882 0.005273754
000060 d6 d4 b4 bd 0c 17 8f 3d 9d 61 d1 3c a9 b4 90 bc
       -0.08829658 0.06986818 0.025559241 -0.01766427
000070 71 72 c6 3d e6 d7 35 3c 03 df 0f be cd 5f bb 3b
       0.09689797 0.0110988375 -0.14049916 0.0057182075
000080 ed 29 b8 bd 75 bc f1 3c cb cd 5d 3d 1d 28 11 bc
       -0.08992372 0.029508809 0.054151338 -0.008859661
000090 85 d2 13 bc 5e 21 ae 3d 96 37 4c 3d 29 b1 08 bb
       -0.00902236 0.08502458 0.0498577 -0.0020857549
0000a0 6d b3 cf ba ce f1 f2 3d 53 05 81 3d 9f 21 f6 3d
       -0.001584632 0.11862527 0.06299844 0.120181315
0000b0 a8 84 22 bd ab ed 8b 3d e0 27 d9 3d 3b 34 a3 bd
       -0.039677292 0.06832441 0.10603309 -0.079689465
0000c0 4f 68 7b 3d 7c 4c f2 bd ac 31 d6 bd d0 bc 95 3d
       0.061378773 -0.118309945 -0.10458693 0.07311404
0000d0 0c 28 ae 3d 79 2a 46 3d 60 a4 ce bc d2 ef 96 bd
       0.08503732 0.04838035 -0.025224864 -0.07369961
0000e0 69 16 58 3c 11 0d af 3d e4 a3 80 bd bb 48 a7 3d
       0.013188937 0.08547414 -0.0628126 0.08168169
0000f0 64 a2 c8 bd 8a d3 c3 bd e3 2d a8 bd 6f 6a ca 3d
       -0.097965986 -0.09561832 -0.08211877 0.09883582
000100 f0 af 9f bd bc fd 3d bd 1a da d1 bc 2a f7 d1 3c
       -0.07797229 -0.046384558 -0.025616694 0.025630552
000110 d2 3f 85 3d 77 12 1c bc d2 48 85 3d 55 89 11 3d
       0.065063134 -0.009525887 0.0650803 0.03553136
000120 11 fe 68 3c c2 77 1a 3d bf 7a bf 3d 4d da c2 bd
       0.01422073 0.037711866 0.09349584 -0.09514294
000130 28 ef b9 bc e9 3e 08 3b 0d c0 da 3c 33 00 79 3d
       -0.022697046 0.002078945 0.026702905 0.060791206
000140 17 f4 c7 3d 08 a3 3b 3c be 2f 7f bd 2f d7 d0 3c
       0.09763353 0.011452444 -0.06230139 0.025493233
000150 a4 b3 ad bd 4a 90 5b 3d d6 26 92 3d 4f 76 f3 3d
       -0.08481529 0.0536044 0.071363136 0.118878
000160 1b 67 46 3d aa d7 f2 bb f7 c7 96 3d 59 62 9f bd
       0.048438173 -0.007410963 0.07362359 -0.0778243
000170 73 3f 58 3b ca 31 42 3c 92 b6 b3 3d 99 b6 e7 3d
       0.0032996803 0.011852691 0.08775057 0.113141246
000180 ce ab 9d bb 4b 38 b8 bd 61 09 aa bd 82 1a d0 bd
       -0.0048117405 -0.08995112 -0.0830257 -0.10161306
000190 64 f1 03 bd 22 52 e2 3d e8 de 80 3d 8c a5 7a bd
       -0.03221263 0.11050822 0.06292516 -0.061193034
0001a0 01 64 13 3e ee ec e1 3d 7e 24 42 bd 19 79 ba 3d
       0.14393617 0.11031519 -0.047398083 0.09105129
0001b0 4d d1 07 bd 1d a7 18 bd e5 c2 ad bc 71 4b cc 3d
       -0.03315859 -0.037268747 -0.021211097 0.09975327
0001c0 f9 b0 d5 3d 30 55 c2 bc 8b 5e cd bc 0d f0 87 3c
       0.104341455 -0.023722261 -0.025069496 0.016593957
0001d0 1d 4d cc 3c 7c 0f dc bd 15 94 de bd c5 cc 0b 3d
       0.024939114 -0.10745141 -0.10868088 0.03413083
0001e0 69 c1 8c 3d a6 98 ae bd de 5e e2 bd 17 c8 d6 bc
       0.068728276 -0.08525209 -0.11053251 -0.026218457
0001f0 5f e7 04 bc e7 a0 ee 3c 6b 67 3e 3d b6 dc f3 bd
       -0.008111804 0.029129459 0.046485346 -0.11907332
000200 93 74 e8 bd 20 1f a1 bd b1 28 ab 3d b9 72 82 bd
       -0.1135036 -0.07867265 0.08357371 -0.06369538
000210 c9 45 e3 3c 68 52 aa bd 53 5b 99 3d b1 50 cb bc
       0.027743237 -0.08316499 0.07488122 -0.02481875
000220 0c c4 5a bd f2 54 fd bc e1 a9 d8 bd 44 43 b0 bd
       -0.05340962 -0.030924294 -0.10579277 -0.0860658
000230 d6 3a 8a 3b aa 7b a1 3d e8 fa 83 3b fa b4 44 3d
       0.0042184396 0.07884915 0.004027713 0.048024155
000240 99 7d b0 bc 65 64 25 bc dc a1 f7 3a f7 5f cf 3d
       -0.021544265 -0.010094737 0.0018892842 0.10125726
000250 62 a1 c5 ba a3 f1 f7 bd a6 1c 9b bc 54 f3 cc bd
       -0.0015078003 -0.121066354 -0.01893456 -0.10007349
000260 ec cd a1 bc f6 55 22 bd de 0d 23 3d 0b 6b 3a bd
       -0.019751512 -0.03963276 0.039808147 -0.04551224
000270 c9 fd bc bd 2c fe 8a bd 35 b9 c8 3d e4 95 f5 3d
       -0.09228093 -0.06786761 0.098009504 0.1199148
000280 81 d9 5e 3c bc 94 ba 3c 6e 60 bd bc 06 4c 8b bd
       0.013601662 0.022776 -0.02311727 -0.0680161
000290 fa 22 ac 3d 80 ce 53 3d 79 e5 dc bc d0 6a 89 3b
       0.08405109 0.051710606 -0.02696489 0.0041936412
0002a0 d6 aa 4e 3d 1d c2 9a 3d 4b e6 22 3d 52 65 c9 bb
       0.05045589 0.075565554 0.039770406 -0.0061461115
0002b0 a4 31 a6 3d dc d1 1d 3d 82 87 ae b8 ad c4 e3 bd
       0.08114937 0.038530216 -8.322207e-05 -0.11121497
0002c0 d9 78 87 3c 11 47 ce bd 3e 2c c1 bd 4c fe e4 3d
       0.016537117 -0.100721486 -0.09432267 0.11181316
0002d0 af 87 d5 3d 01 bf 6b 3d 50 89 c3 3d b4 af dd bb
       0.1042627 0.057555202 0.09547675 -0.00676533
0002e0 19 c3 bd bd 45 21 31 3c f2 82 86 bc 06 18 b5 bc
       -0.092657275 0.010811155 -0.016419861 -0.022106182
0002f0 b3 0e aa 3d 4c 8b 30 bd 8f 90 31 3d 98 a6 cf 3d
       0.08303585 -0.043101594 0.043350752 0.10139197
000300 0b 68 c4 3d 5f 0a 23 bb 3c 49 42 bd ee 1f 24 3d
       0.09590157 -0.0024878008 -0.047433123 0.040069513
000310 05 1e e9 3d 83 5d 5d bd ea b9 9a 3d 0c 4e d6 3c
       0.11382679 -0.054044258 0.075549915 0.026160263
000320 da 08 a5 3d 8f 4e 9a 3d 8d 26 50 bd a5 9c 0d 3c
       0.08058329 0.07534515 -0.050818015 0.008643304
000330 fb 87 98 3d 9a 4e 8b 3d 89 10 9e bc c9 1b 98 3c
       0.07447811 0.068021014 -0.019294994 0.018567936
000340 aa 10 2d bc 5d 00 c2 3d ed ec 72 3d 07 ab ce 3d
       -0.010563055 0.094727255 0.05930798 0.100912146
000350 69 a8 de 3d 97 a1 a8 bd e5 a8 dd 3d 9c 55 43 bd
       0.108719654 -0.08233946 0.1082323 -0.047689065
000360 ed 1d 05 bd 87 67 18 bd 2e b4 a2 3d ba 49 11 3d
       -0.032499243 -0.037208106 0.07944523 0.0354707
000370 fd 1a d0 bd c1 fc 27 bd 6c 60 31 3d 82 d9 98 bc
       -0.101613976 -0.04101253 0.043304846 -0.018658403
000380 ec 06 b3 3c 83 8c 9d 3d 5c 00 8d bc 36 78 c9 3d
       0.021853887 0.07692816 -0.017212085 0.098373815
000390 e3 ac 90 bd 8f bc 1c bd ec 23 97 3c 80 c3 14 be
       -0.070642255 -0.03826576 0.018449746 -0.14527702
0003a0 d5 99 fc bd ce f9 80 bd 28 c6 60 bd a3 f9 66 3d
       -0.12334029 -0.062976465 -0.054876477 0.056390416
0003b0 85 ae c7 bd f3 45 df bd 70 0d 7f 38 a1 57 6a bb
       -0.09750084 -0.10902014 6.0809252e-05 -0.0035757797
0003c0 7d dc 06 be 82 26 5d bd 81 e8 20 bd 40 5f 9b 3b
       -0.13170047 -0.053991802 -0.039284233 0.0047415793
0003d0 40 51 23 3c 4b 0a b3 3d 91 11 e6 3d 9c 77 1d bb
       0.009968102 0.087421976 0.11233819 -0.0024027592
0003e0 b0 db ea 3d 0a 63 75 bd 98 cd ce 3c 92 07 37 bd
       0.11467683 -0.059908904 0.02524452 -0.044684954
0003f0 1c 3e 37 bd 0b 8d 3b 3c 15 fd 01 bd a1 ca e5 bc
       -0.044736966 0.0114472015 -0.0317355 -0.028050723

tower.2.seq.5.bias f4 [8]
000000 86 3b 7c 3d e1 80 d5 3d b0 ab 89 3d 53 d6 6b bc
       0.061580203 0.10424972 0.067222 -0.014394361
000010 ce eb 8a 3d d9 22 d9 bd b1 40 bd bd bd a1 bb 3d
       0.067832574 -0.1060235 -0.092408545 0.091617085

tower.3.seq.0.weight f4 [8]
000000 50 a8 80 3f 60 ce 7c 3f 6e 4b 80 3f e8 0d 80 3f
       1.0051365 0.98752403 1.0023019 1.0004244
000010 85 c5 7e 3f eb 80 7c 3f 3c f7 80 3f 80 c2 80 3f
       0.9952014 0.98634213 1.007545 1.0059357

tower.3.seq.0.bias f4 [8]
000000 f6 4b df 3c 60 dc 44 bb 5f 7a f1 3c f1 65 b2 3c
       0.0272579 -0.003003858 0.029477296 0.021777125
000010 30 fd b8 bb 7f 26 c6 3c 94 59 11 3d c0 d0 ee b7
       -0.0056454167 0.024188278 0.03548582 -2.8469018e-05

tower.3.seq.0.running_mean f4 [8]
000000 80 c1 14 3f f3 53 8c 3e 5b 01 57 3f 26 62 4d bf
       0.5810776 0.27407798 0.83986443 -0.8022789
000010 c3 fb a4 be 86 e3 c1 be 10 ba 48 bf a6 c5 8c 3e
       -0.3222333 -0.378689 -0.7840891 0.27494544

tower.3.seq.0.running_var f4 [8]
000000 35 02 f7 3e 41 0d e7 3e 52 71 47 3f 65 0c 18 3f
       0.4824387 0.451273 0.7790729 0.5939391
000010 25 32 07 3f 29 d1 05 3f 63 c1 37 3f 4c 99 da 3e
       0.5281089 0.5227228 0.7177946 0.4269508

tower.3.seq.5.weight f4 [8, 8, 3, 3]
000000 e3 8e bc bd 60 ee 23 bc bd b8 02 3e 9e dc 9a bc
       -0.09206941 -0.0100055635 0.12765785 -0.018904027
000010 23 0e 1e be 09 5d 21 bd 53 25 89 bb 3b b4 0e bd
       -0.1543508 -0.039395366 -0.0041853576 -0.03483985
000020 1d ff 5a bd 9e 2c c5 bc 1a eb bb 3c 7c c6 0b 3d
       -0.05346595 -0.024069127 0.022939254 0.034124836
000030 de e2 1c bb ad a9 a2 bd 1c 1e a3 bd 1c 2b 16 bd
       -0.0023938934 -0.07942519 -0.07964727 -0.036662206
000040 10 51 12 bb 10 f5 fa 3c 56 b4 09 bd 29 91 ca 3c
       -0.002232615 0.030634433 -0.033619247 0.02472742
000050 87 f3 ce bc 4b 6b db 3d de 2c 8b bd 15 d0 80 bd
       -0.025262607 0.10713824 -0.06795667 -0.062896885
000060 59 4b fd 3d 09 49 e5 3d bc 17 9c 3d bb 0f c8 3d
       0.12367887 0.11195571 0.076217145 0.09768625
000070 a2 96 77 3d fe af 12 bb f3 c9 db 3d a9 7c 7b 3d
       0.06044639 -0.0022382732 0.10731878 0.061398182
000080 c4 83 d9 3d e7 17 99 bd 81 1f f9 3d 35 37 6d 3d
       0.106208354 -0.07475262 0.12164212 0.057913978
000090 3b 53 ce 3d a6 c6 a2 bd 1b c5 a4 3d e0 80 e3 bd
       0.10074469 -0.079480454 0.080454074 -0.11108565
0000a0 d3 10 b2 3d 64 6c 3d bd 8b f3 7c bd 1b f4 85 bb
       0.08694615 -0.046245947 -0.0617557 -0.0040879375
0000b0 de 35 1b bd 8f 63 c2 3b d7 28 79 3d 96 41 ab 3d
       -0.03789317 0.0059322785 0.060829964 0.08362119
0000c0 0b 04 d6 3d d5 81 1b bd 46 34 44 3c 10 7f 19 bc
       0.1044999 -0.037965614 0.011975354 -0.009368673
0000d0 eb ca 86 3d 82 ac 78 bd f3 25 45 bc cd 27 67 3d
       0.06581672 -0.06071139 -0.012032974 0.05643444
0000e0 63 c7 4f bd 56 56 ef 3d 35 3f fa bd d4 fa 0d 3e
       -0.05072726 0.11686389 -0.12219087 0.13865215
0000f0 64 22 a5 bd 13 2f 90 bd 04 02 8e bd 07 23 a9 bc
       -0.080632 -0.07040229 -0.06933978 -0.020646585
000100 d7 57 aa 3d 47 b5 5e bd f2 83 49 bd 84 6f c8 3d
       0.08317535 -0.0543721 -0.0491981 0.09786895
000110 a8 7d e6 bd 82 f2 a4 bc 84 a0 11 3d 38 b3 ae bd
       -0.11254436 -0.020135168 0.03555347 -0.08530277
000120 a1 ea 8d 3d 25 c8 d7 bd df 83 bf bd e6 2c ca 3c
       0.069295175 -0.105362214 -0.09351324 0.024679612
000130 3b 1f 3d bd e4 5d 8d 3d 46 5b d4 3c 2f 2e d2 3d
       -0.04617236 0.06902674 0.025922429 0.10262715
000140 77 22 b8 3d 62 6a bf bc 63 44 d2 bd c6 1f a2 3d
       0.08990949 -0.023366157 -0.1026695 0.079162166
000150 ff 24 93 bd 6e 60 87 3c 55 35 ec 3b d5 ea be 3d
       -0.07184791 0.016525473 0.007208506 0.093221344
000160 29 e8 c9 bd 63 96 52 bd b3 15 97 3d 1a 0f 2f 3d
       -0.09858734 -0.05141295 0.07377186 0.04273901
000170 7a 5e c4 3d c4 c2 80 3d 00 6c 3d bc f5 be 78 3d
       0.095883325 0.062871486 -0.011561394 0.060728986
000180 c9 98 63 3c f6 ac b0 3d f3 ea b7 3c 46 8e 0e be
       0.013891407 0.0862674 0.0224509 -0.1392146
000190 45 f9 0a 3d 27 fa ba bc d5 6f d4 bd 13 55 75 bd
       0.03392913 -0.02282436 -0.10372893 -0.059895586
0001a0 15 21 c3 3d 05 46 ea bd 70 8b dd 3d 83 f2 a8 bc
       0.09527794 -0.114391364 0.10817611 -0.020623451
0001b0 92 a1 2f 3c 3c c2 06 bc d2 e6 ac bd 78 5f 1a bd
       0.010719674 -0.00822502 -0.08442463 -0.037688702
0001c0 fc 69 79 3d e0 c6 e7 3d 7e a3 75 3d 72 e2 a0 bd
       0.06089209 0.11317229 0.05997037 -0.07855691
0001d0 68 f2 5b 3d 5d d8 da bd 4d a6 b6 bd 5d de c3 bd
       0.053697973 -0.10685799 -0.08918438 -0.09563897
0001e0 4f c6 eb 3c 2b 6b ba 3d 50 e4 44 bd a4 82 69 bc
       0.028781084 0.09102472 -0.0480693 -0.014252339
0001f0 2e 2c 5d bc 88 c8 7d b9 cc b0 d7 bd 6a 3d e0 bc
       -0.013499303 -0.00024202664 -0.10531768 -0.027373035
000200 9a 95 2a bd 7a fa e1 bd 04 6e fb bd d5 5a 86 3d
       -0.041646577 -0.11034103 -0.12276843 0.065602936
000210 e4 14 0f 3e b0 91 74 bc 8d 12 c2 3d 03 e8 d0 bd
       0.13972813 -0.014927313 0.094761945 -0.10200503
000220 52 7e 5b 3d be 5c 82 3d 28 70 92 3d c6 95 db 3d
       0.053587265 0.063653454 0.07150298 0.107219264
000230 e1 eb 8b 3d f8 af c8 bc 2c 31 26 3d 9f 3c 7b 3b
       0.068321 -0.024497971 0.040574238 0.0038335694
000240 64 7a 5f 3d da b0 54 bc 66 be c7 bc 40 0f 7a 3d
       0.05456008 -0.012981618 -0.024382781 0.0610497
000250 e7 ff 4b 3d 60 14 08 be 73 81 6a bd 05 fb be 3d
       0.049804594 -0.13289022 -0.05725236 0.09325222
000260 c7 64 37 bd fa 78 b2 bd 44 9c 0d 3c d6 20 b3 bd
       -0.044773843 -0.08714481 0.008643214 -0.08746497
000270 f7 8e 72 bd 18 2f 8c 3c cd 04 d2 3d c6 77 fb 3d
       -0.059218373 0.0171123 0.10254822 0.12278704
000280 ee 65 e5 3d 35 f2 a2 bd 07 e4 61 3d b1 7a 51 bd
       0.11201082 -0.079563536 0.055149104 -0.0511424
000290 62 3f 9b 3d dc c7 7b bc d7 e3 b2 3d 89 4c 27 3d
       0.07580449 -0.015367474 0.08734863 0.040844474
0002a0 10 81 66 3d 4b 22 ac 3d 87 f3 cf 3c fa 0a 21 bc
       0.056275427 0.08404978 0.025384678 -0.009829277
0002b0 48 9c 94 3d 6c e2 cd bd 6d 98 8a 3d 85 e3 ae 3d
       0.07256371 -0.10052952 0.06767354 0.0853949
0002c0 1d 39 cc bc 59 05 1d 3d 7b 52 87 3c 01 81 9d bc
       -0.024929577 0.038335178 0.016518822 -0.019226553
0002d0 6d 4a 83 bc 48 d0 8f 3c 3f c8 4c 3d d3 45 d9 3d
       -0.0160267 0.01755537 0.049995657 0.10609021
0002e0 9e 60 a8 bd 25 da a5 3d 7a 76 8c 3d 33 fa 4b 3d
       -0.08221553 0.080982484 0.06858535 0.049799155
0002f0 8c 7f 08 bd 52 cb 99 3d 69 6f c6 3b 33 b7 cf bd
       -0.033324763 0.075094834 0.0060557616 -0.10142364
000300 b5 7f bc 3c 58 db 92 bd 90 1f 10 3d a6 46 93 3c
       0.023010114 -0.07170743 0.03518635 0.017978024
000310 a0 54 59 bd 1a e4 c2 bc 88 3a da bc 73 26 ac bd
       -0.05305922 -0.023790408 -0.026639238 -0.08405771
000320 24 9d 69 bc d4 c7 5f 3d a0 a7 ea bd 35 d7 ab 3c
       -0.014258657 0.05463393 -0.11457753 0.020976642
000330 2a 31 bb 3d 70 8e 19 bd 65 18 b3 bd 67 7e d1 bd
       0.09140237 -0.037489355 -0.08744887 -0.102291875
000340 85 d2 76 3d df d6 66 bb 26 12 a3 3d 83 6f 08 3b
       0.06025936 -0.0035223288 0.07962446 0.002081842
000350 a4 20 fc 3d 11 75 4a 3d 82 39 07 bd 48 1e 5a bd
       0.12310913 0.04942805 -0.033013828 -0.053251535
000360 d8 9d f8 bd 71 67 cd 3d fe e6 f2 bd 70 17 13 bd
       -0.12139481 0.100294955 -0.118604645 -0.035911024
000370 c1 fc a2 bd d7 05 d8 3d 5f d7 4f 3d 5e a5 18 3e
       -0.07958365 0.10547989 0.050742503 0.14906833
000380 07 61 89 3d d0 9e 85 bd 13 8c ea bd bc 83 00 be
       0.067079596 -0.06524432 -0.11452498 -0.12550253
000390 81 2d 1d bd 5d a1 af 3c af 37 24 bd 67 36 99 3d
       -0.038373474 0.021439249 -0.040092167 0.074810795
0003a0 db 67 01 3e 0e 7d 3b 3d 9b e7 48 3d 64 92 78 3d
       0.12637274 0.04577356 0.049049 0.060686484
0003b0 64 13 d0 bd 63 df 1d bd 88 85 e8 3d 88 69 ae 3d
       -0.101599485 -0.038543116 0.11353594 0.08516222
0003c0 ce 15 f7 bd bb ac b2 3c 0b 44 bb 3c eb a3 b0 bb
       -0.12064706 0.02181088 0.022859594 -0.0053906343
0003d0 71 8f 08 bc 9c 12 eb bc a0 5a 66 3c c6 d3 a6 bd
       -0.00833498 -0.028695397 0.014059693 -0.08145861
0003e0 75 6c 5d 3d c3 2f 91 bd c7 95 3b bc 16 09 ac bc
       0.05405851 -0.07089188 -0.011449284 -0.021000426
0003f0 ff 79 d3 bc 40 72 92 bd b0 af 9c 3d 73 00 69 bd
       -0.025815008 -0.07150698 0.07650697 -0.056885194

tower.3.seq.5.bias f4 [8]
000000 59 0f 1a bd 6a cd de bd 77 2b 93 3d 18 e5 aa 3d
       -0.037612293 -0.108790234 0.07186025 0.083444774
000010 f9 f2 9c bd f8 ce 8c bd b3 3c 91 3d 17 b9 5d 3b
       -0.07663531 -0.06875414 0.070916556 0.0033832246

tower.4.seq.0.weight f4 [8]
000000 54 db 84 3f 3a 65 76 3f 52 dd 82 3f 37 21 7b 3f
       1.0379434 0.9624821 1.0223792 0.98097557
000010 5b 95 7b 3f b9 37 7d 3f c6 10 84 3f e3 7f 79 3f
       0.98274773 0.9891315 1.0317619 0.97460765

tower.4.seq.0.bias f4 [8]
000000 32 d8 4f 3d 2c 32 00 3b 79 6f 1d 3d c2 28 03 bd
       0.05074329 0.0019561155 0.038436387 -0.03202129
000010 a3 54 0e bc d6 aa a4 3c 79 b0 33 3d f4 34 1c 3b
       -0.008687171 0.020100992 0.04386947 0.0023835273

tower.4.seq.0.running_mean f4 [8]
000000 6e 76 24 3f b0 c3 71 3e f9 bb 8e 3f 24 0e 21 bf
       0.6424321 0.23609805 1.1151115 -0.629122
000010 e0 12 1a bf b4 6c 44 be c0 17 7a bf 2c c3 c2 3e
       -0.6018505 -0.19182092 -0.9769249 0.3803953

tower.4.seq.0.running_var f4 [8]
000000 0a ba 3e 3f e7 8e 44 3f 18 c8 64 3f aa a9 2f 3f
       0.74502623 0.7678055 0.8936782 0.6861826
000010 37 b2 50 3f e5 8c 3b 3f d7 4b 9d 3f 27 1e f2 3e
       0.81521934 0.73261863 1.228877 0.4728863

tower.4.seq.5.weight f4 [8, 8, 3, 3]
000000 86 51 ad bd da d3 e7 3d fc a7 31 bd d6 4f df bd
       -0.08462815 0.11319704 -0.043373093 -0.10903899
000010 c2 35 c1 bd 0d e4 c6 bc 3c 15 53 3d dc e3 3f 3d
       -0.094340816 -0.024278665 0.051533923 0.046848163
000020 23 89 7a bd 22 a9 17 bc 49 2f 0a 3d 25 c5 3f 3c
       -0.06116594 -0.009256633 0.0337365 0.011704718
000030 72 4a 43 bd d3 6a 02 3e a0 72 4c 3c 91 77 d0 bd
       -0.04767842 0.12736063 0.012478501 -0.101790555
000040 75 4b 65 3d 07 c3 23 bd 77 e8 62 3c 95 8e bc bc
       0.055980165 -0.039980914 0.013849369 -0.023017207
000050 c5 38 1f 3e 08 d2 27 3d 51 ae 9f 3b 3c 83 d0 3d
       0.15549 0.040971786 0.004873075 0.10181281
000060 2e 1c ad bd 5b 89 64 ba 42 e9 e9 3d ee 77 59 3d
       -0.084526405 -0.00087179773 0.114214435 0.05309289
000070 18 5b 0e 3e 9d be 9f bd 9c 6f 8d 3c 28 04 2b 3d
       0.13901937 -0.078000285 0.017265134 0.04175201
000080 57 b2 16 3d c3 4f ad 3c 9d c3 9a bd 08 29 df 3d
       0.036791172 0.021156197 -0.075568415 0.10896498
000090 1d c2 be bd e0 9a b4 bc f8 f8 bd bd cd f5 f4 3c
       -0.09314368 -0.022046506 -0.09276003 0.029902363
0000a0 a8 50 70 bd b0 1f f9 bd 0d b7 04 3c cc da c1 bd
       -0.05867067 -0.12164247 0.008100283 -0.0946556
0000b0 1d 02 af bd be 73 94 bd ea b6 4d 3c 93 6d ed 3d
       -0.08545325 -0.072486386 0.012555817 0.11593165
0000c0 eb 03 67 bd 89 3c 0a be 73 74 c0 3d 91 f8 1f 3e
       -0.05640022 -0.13499655 0.09397211 0.15622164
0000d0 bb 8e c2 3d 4d 08 c4 bc a0 2a 8b bd 4c 5e b1 bd
       0.0949988 -0.02392974 -0.067952394 -0.08660564
0000e0 da 24 27 3d 02 9f 75 3d ba 42 12 3d 07 2c f6 bc
       0.04080663 0.059966095 0.035708167 -0.03005029
0000f0 d2 ac 66 3d c3 a1 eb 3d 17 60 95 bd 66 e6 8a bc
       0.056317158 0.11505463 -0.07293718 -0.016955566
000100 9f d8 88 3d ca 8b 0c 3e 05 c1 c3 bd b0 4b 99 3d
       0.06681942 0.137252 -0.095583 0.07485139
000110 f4 4d a0 3d 40 33 cc 3d dc a6 f9 3d 6c e0 08 3d
       0.078273684 0.09970713 0.12190029 0.03341715
000120 0e 3e 65 bb 49 6c 98 bc 1c 5b cc bd 42 f6 07 bd
       -0.0034979614 -0.018606322 -0.09978315 -0.033193834
000130 ff ed 27 3d 30 e1 4e 3d 19 68 41 bd e8 96 29 bc
       0.040998455 0.050507724 -0.047218416 -0.01035092
000140 ae 73 2b bc 8a d3 0e 3d 82 0e 2c bc 54 d3 53 bc
       -0.010464592 0.034869708 -0.010501506 -0.0129288025
000150 9e a3 b5 3d 73 45 6a 3d 28 8a b4 bd 66 28 db bd
       0.08869098 0.05719514 -0.08815414 -0.10701065
000160 f9 3e 99 bd 49 92 42 3c 87 b4 b5 3d 3b 07 ea bd
       -0.07482714 0.011875697 0.088723235 -0.1142716
000170 27 d8 e1 3d f3 a9 ea bc f9 96 bd 3d dd a9 52 3d
       0.11027556 -0.028645491 0.092573114 0.051431525
000180 9d 14 ff bd f7 be ab 3d 4a 66 b7 3d ba 1d 06 be
       -0.124551035 0.08386033 0.08955057 -0.13097277
000190 c3 25 38 bc f8 c6 d6 bd f6 ba 92 3d 1f fb fd bc
       -0.011239472 -0.10487169 0.07164566 -0.031003533
0001a0 7a c3 bc 3d b2 ff 30 bd 06 74 ee bd e5 ea 83 bd
       0.09216972 -0.0432126 -0.116432235 -0.06441287
0001b0 36 2e 33 bd 60 04 0b bd d9 7c ae 3d c7 f6 30 3d
       -0.043745242 -0.03393972 0.085199066 0.043204095
0001c0 7b 3f 19 bd 8f 9c 1b be 24 e5 e0 bc e3 2b ac 3a
       -0.037414055 -0.15196441 -0.027453013 0.0013135638
0001d0 cb ef 86 3d 6f 4e 70 3d 24 66 13 3d 50 dd 88 3d
       0.06588706 0.05866855 0.03598608 0.06682837
0001e0 85 e4 ff 3d b0 20 80 bd d0 ae da 3d df fb 6c bc
       0.124947585 -0.06256235 0.10677874 -0.014464348
0001f0 a1 4e 10 3c 07 e5 b3 3d a3 f3 2c bc 31 a3 8e bc
       0.008807809 0.08783918 -0.010556134 -0.0174118
000200 79 60 be 3d 97 93 37 3c 10 f8 ab 3c 6d 02 c1 3d
       0.092957444 0.011204622 0.020992309 0.09424291
000210 37 97 9c 3d b9 52 85 3c 84 44 42 3d 0b da bf bd
       0.076460294 0.016274797 0.047428623 -0.0936776
000220 7b 2a b6 3a 45 a5 8b bd 7f a9 10 ba ab 7b 8a bd
       0.0013898158 -0.06818632 -0.0005518421 -0.06761869
000230 65 07 15 bd 57 3a 13 3d a4 16 81 3d 68 c0 d8 3d
       -0.036384005 0.03594431 0.063031465 0.105835736
000240 61 31 a2 bd 1c 06 ba bd 46 9a 1a bc f7 cf ca bc
       -0.079195745 -0.090831965 -0.009436196 -0.024757368
000250 07 15 3f 3d bc 5d 04 bd d5 e4 c9 bd a8 be 02 3e
       0.046650913 -0.032315955 -0.09858099 0.12768042
000260 5e a8 20 3c 23 ca 05 3d 30 7e 86 3d a1 b9 cf bc
       0.009805767 0.032663476 0.06567037 -0.02535707
000270 41 ba cd bc e5 d4 6a 3d 36 f8 53 3d 69 87 9f 3d
       -0.025113227 0.05733194 0.051750384 0.07789499
000280 d1 95 2f 3e f3 89 08 3e d3 3c 47 bd a2 10 22 bb
       0.17146994 0.13333873 -0.04864199 -0.0024729152
000290 18 3a 33 bd 0b 8a 92 3d ba 0b ea bc b1 6f 7b bc
       -0.043756574 0.07155236 -0.028570045 -0.0153464535
0002a0 4a 28 3f 3d cf 06 1b 3d 00 4e 99 bd 4f 5d c2 3d
       0.046669282 0.03784829 -0.074855804 0.094904535
0002b0 87 35 a1 3d 06 d4 34 3d 5a 38 ff 3d e7 d0 13 3e
       0.07871538 0.044147514 0.1246192 0.14435159
0002c0 3e 04 d7 3d af ba 0c 3e 2b 01 c7 bb fc fa ee bd
       0.10498856 0.13743089 -0.0060731373 -0.11668965
0002d0 26 fa c8 3d 9b f9 db bd 3d e0 95 3d 15 14 ee bd
       0.09813337 -0.10740968 0.07318161 -0.11624924
0002e0 af 88 80 3d 49 8c 67 bd e4 8b e9 bc 08 4e 8a 3c
       0.0627607 -0.05653027 -0.028509088 0.016882911
0002f0 d4 fe a1 bd fb ef 00 bc cf 6a 83 bd 86 45 5f 3d
       -0.07909933 -0.007869716 -0.064168565 0.054509662
000300 cc c3 e1 3d b8 55 a9 bd d9 57 63 bd ab 81 36 3d
       0.110236734 -0.08268303 -0.0555037 0.044557255
000310 d6 83 8c bd 13 b5 4a bc 07 06 51 bb 8f 5f 3e 3b
       -0.06861083 -0.012372273 -0.0031894462 0.0029048657
000320 80 e6 fc 3c ed ad 0c 3e 20 c7 5c 3d 5d 24 89 3d
       0.03087163 0.13738222 0.053900838 0.06696389
000330 68 76 a2 bd f0 98 c9 3d 5d 80 bd bd 2d d8 c6 3d
       -0.079327404 0.09843624 -0.09252999 0.09709201
000340 14 4f 1a 3c e8 50 84 bd d5 44 b1 3d 98 5e 25 3d
       0.009418268 -0.06460744 0.08655707 0.040373415
000350 d3 ac de 3d 53 d0 99 bd 59 fe 2f bd 99 d7 a9 bc
       0.10872807 -0.07510438 -0.042967174 -0.020732688
000360 e9 56 38 3d 5d 39 82 bd df f3 51 3d 43 82 39 3d
       0.04500476 -0.063585974 0.051257964 0.045290243
000370 e7 9e c0 bd 1d 38 a6 bd 3e 50 b6 bb b8 24 7a bb
       -0.09405308 -0.081161715 -0.005563765 -0.0038168859
000380 ae 32 c3 3d 21 a6 ab 3d 07 18 30 bb 07 d5 d9 bd
       0.09531151 0.08381296 -0.002686979 -0.10636335
000390 6e ec a8 bd c9 51 f1 3d b1 95 03 bd 53 17 b7 3b
       -0.082482204 0.117831774 -0.03212518 0.0055874973
0003a0 b7 a3 e9 3d c3 ee ce 3d 3e 29 b0 3b 62 42 78 bd
       0.11408179 0.10104134 0.00537601 -0.060610183
0003b0 21 00 78 bd 0b d7 1e 3b ed 6c e4 3d 02 d9 29 3c
       -0.060546998 0.0024237062 0.111535884 0.01036668
0003c0 97 a9 2a 3d c9 35 26 bd a7 a7 71 3d 2f 2e 65 3d
       0.04166564 -0.040578637 0.058997776 0.055952247
0003d0 ef c2 c4 bc 07 22 dd bc 07 b6 38 bd 34 f1 f8 3d
       -0.024018733 -0.026993765 -0.04509547 0.12155381
0003e0 bd 35 73 bc b5 8d 9a bd 7d 5e 41 bd b7 58 c6 3d
       -0.014844355 -0.0754656 -0.04720925 0.0968489
0003f0 96 2c bc 3d 9e e2 ff bc 5a 74 79 3d 72 a9 9d bd
       0.091881916 -0.03123599 0.060901977 -0.07698335

tower.4.seq.5.bias f4 [8]
000000 01 77 2b 3d 59 e0 15 3d 10 f8 44 3c 0c fe d0 3d
       0.041861538 0.036590908 0.012022033 0.102047056
000010 c8 3d ab 3d 49 00 8e 3d 55 57 8b bb 8d 76 cf bd
       0.08361393 0.06933648 -0.004252354 -0.10130034

tower.5.weight f4 [8]
000000 c6 74 80 3f 16 36 73 3f d3 d4 82 3f 0d 99 6f 3f
       1.0035636 0.95004404 1.0221199 0.9359291
000010 58 fa 83 3f da fd 7a 3f dd c5 8a 3f 68 d1 77 3f
       1.0310774 0.98043597 1.0841633 0.96803904

tower.5.bias f4 [8]
000000 d8 3a 46 3d 2e 66 5a 3c ac 9c a3 3d 1d 11 67 bc
       0.04839596 0.013330026 0.07988867 -0.014103201
000010 f6 b7 af 3d 3a 13 84 3c fd 3b 98 3d 0a 8d 94 3c
       0.0858001 0.01612245 0.07433317 0.018133659

tower.5.running_mean f4 [8]
000000 48 47 6a 3f 70 a3 af 3e 32 03 be 3f 76 e4 c7 be
       0.91515017 0.3430438 1.4844725 -0.3904149
000010 ff bb 9a bf 9e f3 be bd 8a 9b a7 bf 2c 35 ae 3b
       -1.2088622 -0.0932381 -1.3094342 0.005316397

tower.5.running_var f4 [8]
000000 ed 9f a8 3f 9b 10 8b 3f 53 20 a3 3f 4c 73 6e 3f
       1.3173805 1.0864443 1.274424 0.9314468
000010 fb 84 df 3f b3 cb 9d 3f 70 3b f1 3f 5a a9 7e 3f
       1.7462457 1.2327789 1.8846264 0.9947716

policy_head.0.1.bias f4 [1, 5, 1, 1]
000000 ac 44 0b 3e 01 ee 0a 3e 4e ac 09 3e 04 a6 09 3e
       0.13600415 0.13567354 0.13444635 0.13442236
000010 5a 9a 09 3e
       0.13437787

policy_head.2.weight f4 [81, 405]
000000 d3 e8 87 bd bb 99 85 bd 28 f3 ea bd cf 1f 04 be
       -0.066362046 -0.065234624 -0.114721596 -0.12902759
000010 59 c4 90 bd 90 ee 18 be 86 8c b8 bd b3 93 38 bd
       -0.070687 -0.14934754 -0.09011178 -0.045062732
000020 f0 6d 07 be 1b e0 51 3c db 7b fe bc 92 42 c3 bd
       -0.13225532 0.012809779 -0.031064918 -0.09534182
000030 4f a7 e4 bd d6 67 95 bd e0 ef c0 bd 5f 3e b9 bd
       -0.11164724 -0.07295196 -0.094207525 -0.090450995
000040 a5 d7 96 bd 44 02 d0 bd 98 17 62 3c 13 81 cf bc
       -0.0736535 -0.10156682 0.0137995705 -0.025330102
000050 19 a0 5d bd c8 34 6e bd bc c9 5a bd 74 7c 93 bc
       -0.05410776 -0.058155805 -0.053415045 -0.01800368
000060 08 26 9d bd 6d af b6 bd b5 1a 02 be 2b 7f 2b bc
       -0.076732695 -0.089201786 -0.127055 -0.010467331
000070 0a 33 b5 bc ca d3 1c bd 29 62 a0 bd 2b 15 8a bd
       -0.022119064 -0.038287915 -0.078312226 -0.06742319
000080 a6 00 95 bd d3 cd 81 bd 69 3f d7 bd e9 b5 24 be
       -0.07275514 -0.06338086 -0.105101414 -0.16085018
000090 e3 ad a1 bd 43 b7 53 bd 7c 76 ac bd 58 9f d5 bd
       -0.078944944 -0.051688444 -0.084210366 -0.10430783
0000a0 08 a6 17 bd e5 65 1d bd 59 74 09 bd b5 ed c1 bb
       -0.037023574 -0.038427252 -0.033558223 -0.0059182295
0000b0 78 7e 73 bd 46 4d 64 3c 4a 4e 3f bd b3 91 cf bd
       -0.059446782 0.013934439 -0.04670552 -0.10135212
0000c0 b8 11 df bd d7 82 07 bd 76 fe e8 bd 31 9f f1 bc
       -0.108920515 -0.033083763 -0.113766596 -0.029494854
0000d0 51 e8 87 bd da af ac bd 90 0e 62 bd a7 50 a9 bd
       -0.06636108 -0.084319785 -0.05518967 -0.08267336
0000e0 36 32 20 bd 92 10 d4 bd 5d 3c 2c bd 16 70 99 bd
       -0.039110385 -0.10354723 -0.042049754 -0.07492082
0000f0 32 39 cd bd d9 90 92 bd 67 85 05 be 45 89 12 bd
       -0.10020675 -0.07156534 -0.1303917 -0.03577544
000100 b8 da b5 bc 07 c1 b8 bc ad 11 c4 bc 32 da ab bc
       -0.02219902 -0.02255298 -0.02393421 -0.020978067
000110 c2 39 9b bd d0 f8 8b bd b1 f2 81 bd a4 4d e2 bd
       -0.07579376 -0.068345666 -0.06345118 -0.11049965
000120 ef 83 97 3b 73 fc 9c bd b8 f8 74 bc b7 f6 3a bd
       0.004623882 -0.07665338 -0.014951877 -0.04564544
000130 ea 2f 5b bb 1f 23 83 bd a2 ec 10 bc 03 d5 67 bc
       -0.0033445307 -0.06403183 -0.00884548 -0.014149907
000140 bb 5f da bc b3 fa bc bd 6e 47 d0 bd 6a 56 e2 bd
       -0.026656976 -0.092275046 -0.10169874 -0.110516384
000150 17 b3 07 be 7a 2a 17 be f2 63 e2 bd 3d 6b 8f bd
       -0.13251911 -0.14762297 -0.11054219 -0.07002876
000160 6e b2 03 be 02 a0 ef bd c1 99 24 bc 94 49 d0 bd
       -0.12861034 -0.11700441 -0.010046423 -0.10170284
000170 b5 fc f2 bd 51 df 04 bd bd 1e 05 bd bf 58 6d bd
       -0.11864606 -0.032439534 -0.032500017 -0.057945963
000180 d8 ea 35 bd 22 11 52 bd 43 c3 ea bd be f3 a1 bd
       -0.044413418 -0.05128587 -0.114630245 -0.07907818
000190 c0 58 2b 3a c7 78 4b bc 23 ab 00 bd cb 7a f4 bc
       0.0006536357 -0.012418932 -0.03141321 -0.029843709
0001a0 85 2d 0b bd 45 01 c6 bd 02 df a5 bd b5 0d 07 be
       -0.033978958 -0.09668211 -0.08099176 -0.13188823
0001b0 f8 9e 18 bd 89 df 4a bd 74 41 dd bd c0 1e aa bd
       -0.03726098 -0.049529586 -0.108035 -0.08306646
0001c0 37 28 b9 bd b7 c9 94 bd bc 9b ce bc 5b 5c 1c bd
       -0.090408735 -0.072650366 -0.025220744 -0.038174015
0001d0 fd 0f 06 be d8 50 06 bd 0b 0b 9c bd 12 29 ed bc
       -0.13092037 -0.032791942 -0.07619294 -0.028950248
0001e0 03 ad 9a bd 70 d4 35 bd 2b 21 8e bd 30 a9 08 bd
       -0.075525306 -0.04439205 -0.0693992 -0.033364475
0001f0 e7 ba 81 bd 24 3c 3e bd 25 78 1c bd 1b 01 cf bd
       -0.06334477 -0.046444073 -0.038200516 -0.10107633
000200 df 34 47 bc 35 5c 30 bd ee 3f c9 bd 9c 51 81 bd
       -0.012158602 -0.043056685 -0.09826647 -0.06314394
000210 61 1e 98 bc 1d 8d be bd a1 8f 62 bd 19 18 b3 bd
       -0.018569173 -0.09304259 -0.055312756 -0.08744831
000220 ed 58 3b bd d2 0f c5 bd a6 b5 14 bd ca be 14 bd
       -0.045739103 -0.09622158 -0.036306046 -0.036314763
000230 6e ca cf bc 02 c6 92 bc cb b4 bc bd cf f3 73 bd
       -0.02536508 -0.017916683 -0.09214171 -0.059558686
000240 da 28 40 bd 26 47 90 bd b3 02 3a bd fe 49 e5 bc
       -0.04691396 -0.070448205 -0.04541273 -0.027989384
000250 8a fe 1b bd 43 a0 2a 3b 52 a7 8a bd 83 fe da bc
       -0.038084544 0.0026035465 -0.06770195 -0.026732689
000260 5b 67 de bd db 95 50 bd 54 0d 82 bd fd 4f 13 bd
       -0.10859557 -0.050924163 -0.063501984 -0.035964955
000270 81 7b 84 bd e7 f2 32 bd b8 61 5c bd 7a e0 64 bd
       -0.06468869 -0.04368868 -0.05380413 -0.05587814
000280 6e 17 45 3b fe d6 d2 bd 9d a7 1b bd 45 b3 83 bd
       0.003007378 -0.10294913 -0.038001645 -0.06430677
000290 ee 6d 9e bd 94 3c 89 bd 04 9a 8d bb 67 20 a2 bc
       -0.07735811 -0.067010075 -0.0043213386 -0.019790841
0002a0 5a fa 21 bd 4d 35 eb bc 1d 20 4c 3c 17 ab e0 bd
       -0.039545394 -0.02871194 0.012458828 -0.10970133
0002b0 c9 2f 20 bd 72 5f a7 bd 8e 9b 89 bc 77 36 f3 bb
       -0.03910807 -0.081725016 -0.016797807 -0.007422264
0002c0 da a3 5a bd ca 06 20 bc 4d 57 31 bd 43 4c 2b bc
       -0.053378917 -0.009767244 -0.043296147 -0.010455194
0002d0 b6 07 e2 bd af 50 f3 bd 01 2a e9 bd c6 b8 de bc
       -0.11036627 -0.118806235 -0.11384965 -0.027187716
0002e0 b3 fd 25 bd 2e 57 45 bd 54 72 b1 bd f8 ff 3f bc
       -0.04052515 -0.048178844 -0.086643845 -0.011718743
0002f0 02 82 5e bd 66 21 d5 bd fd 04 ef bd 31 6f e3 bd
       -0.054323204 -0.10406761 -0.11670873 -0.111051925
000300 cb 03 d2 bd b3 d6 e8 bc b4 3e 4a bd 0e 3d b9 bd
       -0.1025463 -0.028422689 -0.049376205 -0.090448484
000310 54 a2 27 39 ff ad 72 3c 50 9b df bd 21 e9 c2 bd
       0.00015986833 0.014811992 -0.109182954 -0.09517122
000320 0f 0f 80 bd 7e cf 1d bd 30 18 76 bd 5e 8f 75 bc
       -0.06252872 -0.038527958 -0.06008166 -0.014987795
000330 fe 1d 88 bd 4c 56 1e bc 9f 72 32 bd b3 2c df bd
       -0.066463456 -0.0096641295 -0.043566342 -0.108971976
000340 8e a0 eb bd af 64 a8 bd c5 26 83 bd 98 4a b3 bd
       -0.11505233 -0.08222329 -0.06403879 -0.08754462
000350 50 99 c4 bc e3 9c e8 bc 11 3d 01 bd cc 69 a0 bd
       -0.023998886 -0.028395122 -0.031552378 -0.07832679
000360 dd d2 15 be f6 81 ae bd f6 d4 85 bd f5 12 54 bd
       -0.14631219 -0.08520882 -0.0653476 -0.05177589
000370 7a e1 cb bd d9 d9 4b bd 48 56 d8 bc 63 11 3a bd
       -0.099551156 -0.049768303 -0.02640833 -0.045426738
000380 24 ad 94 bd 13 0a e3 bd 28 e2 63 bd 27 5b a1 bd
       -0.072595865 -0.11085906 -0.0556356 -0.07878714
000390 08 06 ec bd 77 26 80 bd ad 5c 92 bd 6d 41 fa bd
       -0.11524588 -0.062573366 -0.07146583 -0.1221951
0003a0 61 c6 69 bd ed 9c da bc 4d 31 21 be e8 b6 1e be
       -0.057073954 -0.026686156 -0.15741463 -0.1549946
0003b0 92 1a 0c be 4b d6 c9 bd 2f bc da bd ae a8 06 be
       -0.13682011 -0.09855326 -0.106804244 -0.13150284
0003c0 f1 ac 80 bd c7 36 f1 bd d9 0d dd bd 6e 68 3c bd
       -0.06282986 -0.11778026 -0.10793657 -0.04599803
0003d0 b3 bd 82 bc b7 36 fb bc 22 cf a2 bd ce 50 85 bd
       -0.015959596 -0.030665739 -0.07949664 -0.06509553
0003e0 b3 17 11 bc f3 d2 c1 bd 5c 6f ac bd cc 85 fa bc
       -0.008855748 -0.094640635 -0.084196776 -0.030581377
0003f0 35 73 62 bd 08 49 c8 bd 32 5d 9c bd 4c 97 b4 bd
       -0.05528565 -0.097795546 -0.07634963 -0.0881792

policy_head.2.bias f4 [81]
000000 12 d7 82 bd 16 38 e2 bd b2 7d 94 bd 60 f6 75 bd
       -0.06388678 -0.11045854 -0.07250537 -0.060049415
000010 a9 72 6a bd b4 1e d3 bd a7 a6 0a be 42 53 b4 bd
       -0.057238255 -0.103085905 -0.13540135 -0.08804943
000020 c8 b9 d6 bd 17 9e 0c be 3e 56 aa bd 7c a9 df bd
       -0.10484654 -0.13732181 -0.08317231 -0.109209985
000030 a0 84 ab bd ce 0b e4 bd fe 8c a5 bd 69 2b 13 be
       -0.083749056 -0.11135064 -0.08083533 -0.14372028
000040 2e 7e 8d bd e2 14 07 be f2 79 a2 bd 83 fb 08 be
       -0.069088325 -0.1319156 -0.079334155 -0.13377194
000050 9b 91 14 be fd fe 00 be 4e 29 f7 bd a6 4d e8 bd
       -0.14508669 -0.1259727 -0.12068425 -0.11342935
000060 ae d3 db bd 1e 3b ef bd 53 a8 4e bd 05 a8 05 be
       -0.10733734 -0.116811976 -0.050453495 -0.13052376
000070 3a 8d 62 bd 31 3a 57 bd 64 04 97 bd f6 7e f6 bd
       -0.055310465 -0.05254573 -0.07373884 -0.120359346
000080 57 e3 15 be b4 4d e9 bd 3a 6f a5 bd 76 c0 c3 bd
       -0.14637505 -0.11391774 -0.080778554 -0.095581934
000090 ea a3 a0 bd 78 ac c9 bd 7c 02 08 be ec 06 65 bd
       -0.07843764 -0.09847349 -0.13282198 -0.055914804
0000a0 5c e8 e8 bd e6 00 a9 bd 75 4f 14 be ca a3 d7 bd
       -0.11372444 -0.082521245 -0.14483435 -0.10529287
0000b0 ec e9 e6 bd 9c f1 ba bd d1 a0 0e be 7b 21 56 bd
       -0.11275086 -0.091281146 -0.13928534 -0.052278023
0000c0 90 b3 b9 bd 3a d6 f4 bd be e6 13 be 8a 69 e2 bd
       -0.09067452 -0.11954923 -0.1444349 -0.11055286
0000d0 51 74 04 be 10 17 19 be 9e 11 9e bd 85 3e 01 be
       -0.12934996 -0.14950204 -0.07718204 -0.12621506
0000e0 3e cb bb bd ce 71 8d bd ba 61 c6 bd 1f 1d 0e be
       -0.09169625 -0.06906472 -0.096866086 -0.13878296
0000f0 5e 44 88 bd 78 4f 95 bd 60 e1 82 bd 42 d2 0b be
       -0.06653665 -0.07290548 -0.06390643 -0.13654426
000100 cc f7 96 bd 04 b4 ff bd 84 77 15 be 54 39 93 bd
       -0.07371482 -0.12485507 -0.14596373 -0.07188669
000110 8e ab 0e be 64 ec ec bd cd 2a 6d bd 4a 03 b2 bd
       -0.1393263 -0.115685254 -0.057902146 -0.086920336
000120 18 78 e7 bd 11 08 56 bd 6a a3 b0 bd ae df 88 bd
       -0.11302203 -0.052253786 -0.08624919 -0.066832885
000130 9f 37 12 be 36 fc 81 bd 48 e5 c0 bd 04 40 ef bd
       -0.1427903 -0.063469335 -0.09418732 -0.11682132
000140 d6 1c f2 bd
       -0.11821906

value_head.0.1.bias f4 [1, 6, 1, 1]
000000 14 98 66 3d e1 e8 79 3d f9 df 7b 3d 19 ca 57 3d
       0.056297377 0.061013106 0.061492894 0.05268297
000010 63 12 60 3d 94 8e 6e 3d
       0.054705035 0.05824144
