rust/cuda-nn-eval/tests/data/simple-sttt-1x64.onnx (onnx, 64928 bytes, 4 tensors)

seq.1.weight f4 [64, 162]
00000000: 635b 98bd d1c1 a1bd 5496 2f3d 1739 853d
00000010: a341 773d bca0 65bd 3873 643d 175d 853d
00000020: 7e55 28bd d295 88bd fc1c 37bd 3632 663d
00000030: f61e 0e3c 0873 893d d96a a7ba c935 b73c
00000040: 436e 33bd efa9 10bc a414 51bb a765 71bd
00000050: de2c ce3b bc97 fcbc 0d86 9cbc 606a 6a3c
00000060: 553e 5a3d ef14 8f3d 1618 d1bb d3f4 583c
00000070: 8812 56ba 6dd5 123c e3b8 3b3d 0b3e b03b
00000080: 8806 373d 86b5 9c3c 5c4c 853d 8e2f 803d
00000090: ae20 193b 62dc 00bd 6add 97bd 1326 7d3d
000000a0: a145 20bd 0a2a 143c 98d7 103d a1ff 7a3d
000000b0: 05d3 dc3c 521a 663c ed9f a23c 1f9a 32bc
000000c0: 4529 8d3d 111d 473d acad 5abc ab9c 1a3c
000000d0: 017a 26bd 17d8 72bc 263e 65bc e46b d13c
000000e0: 2dba 96bd efbb ae3c 6320 b83c df7a 35bd
000000f0: 37d7 9b3c 8edb 65bd 56be 23bd 9bf7 163d
00000100: c23e d53c 1adc 313d 9384 90ba 06d4 c3bc
00000110: 222d 393d bda9 a53b 8469 d23c c9dc 533c
00000120: 7f33 8f3c e581 a9bc 1101 2f3d fbb7 10bd
00000130: d341 03bd 5031 7abd 4d56 843d 8f59 eeb8
00000140: 5448 a93c 66d5 3abd 04c0 573d 5c83 513c
00000150: 6909 32bc 2e40 8fbd 44aa 0a3d 4896 f93b
00000160: cc1a d5bc cca8 81bd 982a 8a3d c6c8 83bb
00000170: e7fb 06bd 659b d0bc eff9 963b bb10 e23b
00000180: ab8d 3b3d eb0f c0bb 4669 523d c3e1 333b
00000190: a867 0a3d d28a 0cbd 18c8 8c3c eda1 bfbc
000001a0: 3b74 c9bc bb09 70bd 876b 1a3d 2bed 61bd
000001b0: 38f9 20bd 3428 1f3b 0187 8c3d 0232 8a3c
000001c0: 3937 1ebc 6591 75bc 35c2 06bd 3908 3fbd
000001d0: 4361 9dbd 76ea 173d 8c45 073d b1bb 17bc
000001e0: 6c91 863c 869f 883d 4de6 6abb e8c8 f33c
000001f0: cede 693d f688 72bc 4680 623c 1fc8 2ebd
00000200: a8d5 503d d6ac 813d b41f 2dbc afc5 18bd
00000210: 3c82 72bd 5d2e 113d d6c9 893b 5946 1cbd
00000220: b63f 813d ac08 57bd 2558 423d e284 2ebd
00000230: 7be5 a23c e4c4 07bd a704 973c c642 b0bd
00000240: 9215 3cbd 933e 1dbc c637 ebbb 5672 10bd
00000250: 2f0e 87bd 174f 10bd 2d47 99bd 9b16 dabc
00000260: 8134 8e3c f13f 6bbd ed5e 13bd 13cf 6fbd
00000270: d46e ffbc 726f a0bc b7eb 42bb 86f9 92ba
00000280: 2f3b 8cbc df91 3d3d 7102 3cbd 295f 9e3d
00000290: 5bc5 b6bd ccf4 513d 8247 44bd da86 35bd
000002a0: 0326 97bd 0584 42bc 6d81 ae3d 016d 9cbd
000002b0: 40a2 773c db5c a7bc e887 febd da58 51bd
000002c0: d6d8 393d 42e6 2e3d 3df0 6b3d 3bf4 833d
000002d0: 6176 833d acce 58bd 8927 903d 2cb3 cf3c
000002e0: 16df 0b3d 55dc adbd 31ba 5e3d 25a1 7b3d
000002f0: 1f32 873d 6058 a13c 671f 913d 7cf8 b13c
00000300: 5e84 77bd 597c b63b 3931 80bc b717 fb3c
00000310: 910a 093d 3306 bb3d edaa edbc e7bb ff3c
00000320: e511 aa3d c647 833d 0360 463d 5d84 413d
00000330: 5b75 6dbd 9a3e 0abd 2f9a c2bb 973d 033d
00000340: bd47 92bd 9f8f 11bd 6dab 613c 4940 8d3c
00000350: 8d32 47bd 736f d13c 8221 9d3c a7e3 4dbd
00000360: 2912 86bd 6ebb cf3d f5c7 1dbd 56de 3fbd
00000370: 08b7 3a3d e0e7 523d fe63 3b3d 9f8e d83d
00000380: c232 53bd b6b2 b7bd f45c 9d3d aeb9 303d
00000390: e88a 8c3d ff09 4ebc 7b25 2bbd 8d77 b1bd
000003a0: 83ba c13c 1a72 3bbd 5acd 853c 72f4 93bb
000003b0: e2af de3d e190 e1bc 6b2c abbd e545 843d
000003c0: 4ac9 fdbc f299 c4bd 00c2 33bd 1771 893d
000003d0: fa74 8a3d dfce 88bd ba5d 073d 5e15 0bbc
000003e0: 87eb 3c3d 7f88 a73c e65d b6bc edb3 06bd
000003f0: 1c9d 963d 6e62 cfbc 4d58 4f3d a70e 02bd
-0.07439306 -0.07898296 0.042867973 0.0650503 0.06036533 -0.05606149 0.055773944 0.06511896
-0.041097157 -0.06669201 -0.044705376 0.05620023 0.008674374 0.067113936 -0.0012772932 0.022364514
-0.043806326 -0.008829578 -0.0031903172 -0.058934834 0.0062919697 -0.030834071 -0.01910689 0.014307588
0.0532821 0.06986415 -0.006381045 0.013241964 -0.00081662135 0.0089620175 0.04583062 0.00537849
0.044683963 0.019129526 0.06508705 0.0625907 0.0023365426 -0.031460173 -0.07415278 0.06180389
-0.039128903 0.009043226 0.035361856 0.061278943 0.02695609 0.014044361 0.01985165 -0.010901003
0.06892637 0.048611704 -0.013347071 0.009436767 -0.040643696 -0.014822028 -0.013991868 0.025564142
-0.07359729 0.021329848 0.02247638 -0.044306632 0.01902352 -0.056117587 -0.03997644 0.03685723
0.026030902 0.043422796 -0.0011025838 -0.023904812 0.045209058 0.005055635 0.02568508 0.012931057
0.01748061 -0.020691821 0.042725626 -0.035331707 -0.032045197 -0.061082184 0.06461773 -0.00011365406
0.020664372 -0.04561367 0.052673355 0.012787666 -0.010866501 -0.06994663 0.033853784 0.007616792
-0.026013754 -0.063310236 0.06746405 -0.004021737 -0.032955077 -0.025464723 0.004607431 0.006898967
0.045789402 -0.0058612726 0.051369928 0.0027447797 0.03379026 -0.034312077 0.017185256 -0.023392642
-0.024591556 -0.05860303 0.037700202 -0.05515782 -0.039300174 0.0024285438 0.068616875 0.016869549
-0.009656721 -0.014988278 -0.032900054 -0.0466387 -0.07684567 0.037088834 0.03302531 -0.009261058
0.016426764 0.06671052 -0.0035842836 0.029758886 0.05709725 -0.014803162 0.013824528 -0.04267132
0.05098501 0.06331794 -0.010566641 -0.0372979 -0.059206232 0.035444606 0.004204969 -0.038153026
0.0631098 -0.052498505 0.047447342 -0.042607196 0.019884815 -0.033146754 0.018434836 -0.08606486
-0.04591901 -0.009597438 -0.0071782796 -0.03526529 -0.06594502 -0.035231676 -0.07484279 -0.026622107
0.01735902 -0.057434026 -0.0359792 -0.05854709 -0.031180777 -0.019584391 -0.0029742548 -0.001121328
-0.017118065 0.04628169 -0.045900766 0.07732994 -0.08924361 0.051258847 -0.047919758 -0.044318058
-0.07380297 -0.011872296 0.0852078 -0.07637978 0.015114367 -0.02043002 -0.12428266 -0.051110126
0.045372806 0.04270006 0.057602156 0.06443068 0.06419063 -0.052931473 0.07038791 0.02535399
0.0341483 -0.084892906 0.054376785 0.061432976 0.06601357 0.01969546 0.07086068 0.021724932
-0.06042897 0.0055690226 -0.015648471 0.030650957 0.033457343 0.09132042 -0.029012168 0.031217529
0.08304194 0.06410174 0.048431408 0.047245372 -0.057973247 -0.033751108 -0.0059387903 0.03204116
-0.07142589 -0.03553736 0.013773781 0.017242568 -0.048632193 0.025565838 0.019181017 -0.050265934
-0.065464325 0.10143171 -0.038520772 -0.046842895 0.04558471 0.051490664 0.045749657 0.10574078
-0.05156208 -0.08969633 0.07683745 0.043145828 0.06862432 -0.012575625 -0.04178379 -0.086653806
0.023648506 -0.045763113 0.01633327 -0.004515224 0.10873391 -0.027534904 -0.083580814 0.06458644
-0.030979771 -0.09599675 -0.043886185 0.06711023 0.06760593 -0.066800825 0.03304837 -0.008488981
0.046123054 0.020450829 -0.022261571 -0.032886434 0.07354185 -0.02531549 0.05062132 -0.031752255

seq.1.bias f4 [64]
00000000: ebff 123d ebf7 223e c9eb a23d 3465 f93d
00000010: d82e 1a3e 8d6d a0bd 7508 f23b 015b 683d
00000020: f6ba 863c 685b 67bd 3440 163e e4c2 b7bc
00000030: ef35 2e3e 51b2 49bd f7c5 ae3d 3b7d 193d
00000040: d617 d33d a63c 8b3d ae89 403c c14b 89bc
00000050: 1ff4 a03d 4b8a c93c fdfe b9bd 688c 6a3d
00000060: 8ea8 78ba 0459 1b3d 5134 0c3d b6fe c53d
00000070: d65d 483d 8c65 8f3d eb9b 173e 8bd0 413d
00000080: 241f 963d 20dd cd3c 3f26 b93b 580b b73c
00000090: afdc a83d a15c afbc 9c86 9c3c ef60 653d
000000a0: 12c7 e73d ab09 063d 550e a43d b99e b43d
000000b0: 54f8 ee3d 14b1 a9bd ebc3 133e 7716 0c3c
000000c0: 6d7f 9a3d f751 e93d c786 14bd 62a8 843d
000000d0: 694d 163d 0d76 243e 624f 123e 1cd0 353e
000000e0: 0086 9e3d 0e62 a5bd 4146 e13d 3124 ff3d
000000f0: 7283 0f3e 6e3b f63d a1c2 283e ec8b 9f3d
0.035888594 0.15914886 0.07955129 0.12177506 0.15056932 -0.07833395 0.007386262 0.056727413
0.016446572 -0.056483656 0.14672929 -0.022431798 0.17012762 -0.04924232 0.085338525 0.037472945
0.10307281 0.06798677 0.011751575 -0.016759755 0.078590624 0.024602076 -0.09081838 0.057262808
-0.0009485566 0.03792669 0.03422958 0.09667723 0.048917614 0.070017904 0.14805572 0.047318023
0.07330158 0.025129855 0.0056503112 0.022344276 0.08245217 -0.021406474 0.019107156 0.056000646
0.113172665 0.032724064 0.08010546 0.088193364 0.116684586 -0.08285728 0.14430206 0.008550278
0.07543836 0.11392587 -0.036261346 0.06477429 0.036694918 0.16060658 0.14288095 0.17755169
0.07740402 -0.08075343 0.10999728 0.12458075 0.14014986 0.12023054 0.16480495 0.0779036

seq.3.weight f4 [85, 64]
00000000: dbac de3c d4e6 93bd 4c34 13be e1e6 91bd
00000010: 6399 42bd c4c4 0a3d c875 22bd 58a1 aabd
00000020: a077 91bd 4a55 6e3d 13c1 36be bdf6 393d
00000030: e7fe e6bd 90f9 2abd 0023 1bbc a297 34be
00000040: f788 25be 6a86 a9bc 8fb4 82bd 57cb 42bd
00000050: c014 8abd 6ee7 563d 250b 0d3c 0ab8 14bc
00000060: babb 883c c4b8 0d3d 698e 8abd 6ccc bebd
00000070: 70fb 233d aeaa a7bc 87db 19be 725e 1bbe
00000080: 934c e6bd 39ba 92bd 97ae be3c 097a 0cbd
00000090: 7119 4cbe 67c7 d23c e80d 1ebd 9dc8 febd
000000a0: f71c 0cbd d713 1fbe 3788 44be 2c0e 96bc
000000b0: 6322 bcbb 8569 123d 29b4 b9bd 77a2 473d
000000c0: 028e eabd 2f70 86bd 8163 1e3d 874c fdbd
000000d0: e116 43bc e264 ddbd f828 ea3c 9007 efbd
000000e0: a09f 19bd b2ad 803c 3a18 13bd 9ebe ecbd
000000f0: 0d5f 4ebe 0160 2cbe fa16 8ebd 8a83 1cbd
00000100: 5af8 0dbe 7643 e0bd e116 ecbd c86d 50bd
00000110: ae1b 8bbd ca2e aebd a284 52bc cc95 d1bd
00000120: cddd 013b 970f afbd fb75 13be 613f 90bd
00000130: d097 e2b9 ebc4 94bd e1f1 2abe 3afc 41be
00000140: 872b 23be bd1a 703d 3943 36be c216 853a
00000150: 7c92 f6bd 3415 8b3c a445 a4bd 6f33 0cbd
00000160: 7572 573d c98d a1bd 6dbc fabd 76bd 94bd
00000170: 25c2 e0bd dcb4 25be b13f ffbd 7996 5bbc
00000180: 3ec2 b73c 1471 06be cbf1 103d 278c 15be
00000190: 0f30 da3c fc86 173d 7d01 5ebd f139 9cbd
000001a0: 96ea ccbd d1f3 25be 0102 41be a07a 67bd
000001b0: 157a bfbd 6741 68bd e1c1 3ebe d77a 7fbd
000001c0: 14c4 41be 0e96 5d3d 380c 9cbd 857f 06be
000001d0: 984e bbbd 3cc7 a6bd d3e4 3fbe 8413 20be
000001e0: d5cb fdbd bafa a53c 7f4f b6bd 7c40 bcbc
000001f0: 962d b9bd a48a 053d ffb8 27be 5823 c23c
00000200: 1ca5 fabc 3b62 1ebe e3b3 f1bd b1d8 5dbd
00000210: d04b 81bd af55 a3bd 9c52 abbd ccb2 f4bd
00000220: 6128 11bd 9dd2 a8bb d1ad 00bd 09d6 27be
00000230: d026 aa3c b57b 143d db73 15be 102d 20be
00000240: 5fad a4bb 63a8 55bd 2e44 b7bd 53a1 0e3d
00000250: 07a0 dc3c 746d 39be b985 3fbd e7a6 82bd
00000260: a6b1 c1bc 1f63 1cbe 65a0 d8bd 8d3a 04be
00000270: f2ca 3ebd 57b6 73bd f62c 223c c805 70bd
00000280: cffc 343d ea29 7bbd f069 a5bd a5eb 9fbd
00000290: 4d92 723c 7f13 18be e2e4 2abb 8f37 75bd
000002a0: 0144 b63c 5355 20be 4f92 3fbe 4aab a43b
000002b0: 6de5 423d 9b55 033d 355a f93a f3ce 513d
000002c0: 885c acbd 6988 aabd c117 a6bd 4cb0 bebd
000002d0: 6778 33be d42a babc fa6e 17bd 7aea 30be
000002e0: 24f1 d03c e0ba 08bd 8b41 b6bc 9d15 36be
000002f0: 6651 3b3d 778a 22bd 58ca 47be b311 41be
00000300: ef8f 833c d072 cabd e0ff 32be dc08 50bd
00000310: 3af3 ecbd e227 5b3d 87ef 98bd 9639 f9bd
00000320: af03 02be ce9f fc3c 6f61 61bd fdc1 0ebe
00000330: 2acf d3bd d905 2e3c 5df3 abbd 7171 80bd
00000340: 10a5 7b3c 7b1f 7dbd ef7f 22be aeff ac3c
00000350: 8996 e2bd 2098 ebbd 4fe3 383d 57e3 1bbe
00000360: 9d17 75bc 9d13 05be e75d 7fbd e79b 9cba
00000370: 2b11 c9bd 6380 05be 8b5a 80bd b756 b3bd
00000380: a7f5 163c 3564 f23c f127 043c bade 103d
00000390: 2991 03be de3d e4bd c7f1 5fbd e26d edbd
000003a0: ca02 e2bd 36ac a7bd 2989 02be 17c4 0dbe
000003b0: 16b2 3abe 9f23 7cbd 7e6f c1bd c1e5 383d
000003c0: 8377 adbd 1eb6 85bd a06a 62bc 6604 9cbc
000003d0: f206 543d f8ed 0e3d e98b 10be 6a52 f6bd
000003e0: c0ae 99bd 2fff d9bc b724 b6bd b4d4 b1bc
000003f0: a869 0c3c 9dde 00be 23ab c1bd 71ab ccbd
0.027182033 -0.07221761 -0.14375418 -0.07124115 -0.047509562 0.033879057 -0.039663106 -0.08331555
-0.07102895 0.058186807 -0.1784709 0.045401324 -0.112790875 -0.041741908 -0.009468794 -0.17635968
-0.16165529 -0.020693976 -0.06382095 -0.0475572 -0.06742239 0.052466802 0.008608614 -0.009077081
0.016691078 0.034600034 -0.06765444 -0.09316334 0.04003471 -0.020467129 -0.1502515 -0.15172747
-0.11245074 -0.071644254 0.02327661 -0.03429607 -0.1993158 0.025729848 -0.03858748 -0.12440608
-0.03420731 -0.15534912 -0.19192587 -0.018317305 -0.005741404 0.035745163 -0.09067566 0.048738923
-0.11452867 -0.06564366 0.038669113 -0.12368112 -0.01190731 -0.108102575 0.028583989 -0.11671364
-0.037505746 0.015707824 -0.035911776 -0.11559795 -0.20153446 -0.16833498 -0.06937976 -0.038211383
-0.1386427 -0.10950367 -0.11527801 -0.050885946 -0.06792389 -0.08505018 -0.012849005 -0.102336496
0.0019816041 -0.085478954 -0.14400475 -0.070433386 -0.00043219188 -0.072641216 -0.16693832 -0.18943873
-0.15934573 0.05861925 -0.17799081 0.0010153877 -0.120396584 0.016977884 -0.080210954 -0.03422874
0.05259939 -0.078883715 -0.122429706 -0.07262699 -0.1097453 -0.16182274 -0.1246332 -0.013402575
0.02243149 -0.13129073 0.03538684 -0.14604245 0.026634244 0.036993966 -0.054200638 -0.07628239
-0.10005681 -0.1620629 -0.1884842 -0.05651343 -0.09349457 -0.056702998 -0.18628646 -0.06237301
-0.18922454 0.05409818 -0.07619518 -0.13134582 -0.0914585 -0.0814347 -0.18739633 -0.15632445
-0.123923935 0.020261157 -0.089018814 -0.022979967 -0.09041898 0.03260292 -0.16379164 0.023698494
-0.030596308 -0.1546716 -0.11801889 -0.05416173 -0.06313288 -0.07975327 -0.08365366 -0.11948165
-0.0354389 -0.00515206 -0.031415764 -0.16390242 0.02077046 0.03625079 -0.14594977 -0.1564219
-0.0050255503 -0.05216254 -0.08948551 0.03482182 0.026931776 -0.1810816 -0.046758387 -0.0637949
-0.02364428 -0.15272187 -0.10577468 -0.1291296 -0.046580262 -0.059500065 0.009898415 -0.058599263
0.04418641 -0.06131927 -0.080768466 -0.078086175 0.014805389 -0.14851187 -0.0026076366 -0.059867438
0.022249224 -0.15657549 -0.18708156 0.005025302 0.04758208 0.03206406 0.0019024076 0.051222753
-0.084160864 -0.083267994 -0.081099994 -0.0931097 -0.17526399 -0.0227255 -0.03697107 -0.17276946
0.02550561 -0.033381343 -0.02224805 -0.17781682 0.045731924 -0.03968283 -0.19510782 -0.18854408
0.016059844 -0.0988518 -0.17480421 -0.0507897 -0.11569829 0.053504832 -0.07467561 -0.12169187
-0.12696718 0.03083792 -0.05502456 -0.13941188 -0.10342248 0.010621511 -0.08396027 -0.06271637
0.015359178 -0.0617976 -0.15869115 0.021118011 -0.110638686 -0.11503625 0.045138653 -0.15223442
-0.014959243 -0.12995763 -0.06234541 -0.0011948318 -0.09817728 -0.13037257 -0.0626727 -0.08756774
0.0092138415 0.029588798 0.008066163 0.03536866 -0.12848343 -0.11144613 -0.054673936 -0.11593224
-0.11035688 -0.081871435 -0.12747635 -0.13844334 -0.18231997 -0.06155741 -0.094450936 0.045140985
-0.08470061 -0.06528877 -0.013819367 -0.019045066 0.051764436 0.034894913 -0.14115871 -0.12027438
-0.07504034 -0.026610939 -0.088937216 -0.02170787 0.008570112 -0.1258492 -0.0945647 -0.09993637

seq.3.bias f4 [85]
00000000: 8b9b 67bd d303 12be 199a 03be b571 42be
00000010: 9e58 f3bd 1ae7 13be 1892 9dbd f4d4 bfbc
00000020: 6544 7fbd f425 85bd db6e 55be a0c2 ddbd
00000030: cf87 24be 04f4 44bd 94d1 54be d662 54be
00000040: 9817 843b edbd 59bd dc7f 51be 70ef 19bb
00000050: 7882 00be 9806 34be 2c7c c9bd 4c67 23bd
00000060: 6779 0dbe b413 1dbe 00a5 03ba 5240 f7bd
00000070: a0ef 1bbe f1d4 14bd 76e4 c33c 7a20 21be
00000080: a47f 873c 7d8c 72bd a2b9 b0bd 7431 6a3c
00000090: 3564 74bd c001 ea3b 0028 12bc be8c 99bd
000000a0: 2e6c 31be ac3b 2bbe 508d 41be 16f6 33be
000000b0: fa42 aebd ce88 92bd f8b2 56be 0e08 aabd
000000c0: ca3e 21be f01e a8bc eecf 93bd d438 c5bd
000000d0: 14aa 47be 3a32 80bc b02c 39bd fc69 a7bd
000000e0: 361d 48be 6f3b 4ebe 0ee9 82bd fd55 7bbd
000000f0: 6524 62bd 9879 5abe a036 cd3a 8283 3cbe
00000100: ad40 15be b916 11be 0e55 0cbe 8894 55be
00000110: 25cc 14bd e155 66be 9cc2 03be aa79 09be
00000120: 20c8 39be 4432 18bd 6450 9fbd 6e4a 31be
00000130: d877 cdbd 8bac 24be 651d 5fbe 7d1b 24be
00000140: b826 90bd 5760 1abe e659 8abd 1000 cfbd
00000150: 08b2 87bc
-0.05654482 -0.14259271 -0.12851752 -0.18988688 -0.11882137 -0.14443627 -0.07693881 -0.023416974
-0.062321085 -0.065013796 -0.2084307 -0.108281374 -0.16067432 -0.048084274 -0.20783073 -0.20740828
0.004031133 -0.053159643 -0.2045893 -0.0023488663 -0.1254977 -0.1758064 -0.09838137 -0.039893433
-0.13815843 -0.15339547 -0.00050218403 -0.12072815 -0.15228128 -0.03633589 0.02391265 -0.15735045
0.016540356 -0.05921601 -0.08629157 0.014294017 -0.059665877 0.007141322 -0.00892067 -0.074975476
-0.17326424 -0.16721982 -0.18901563 -0.17574343 -0.085088685 -0.07155 -0.20966709 -0.083023176
-0.15746608 -0.020522565 -0.07217394 -0.0962998 -0.19498473 -0.01564895 -0.045208633 -0.08174512
-0.19542393 -0.2013986 -0.06392108 -0.0613613 -0.05521049 -0.21335447 0.0015656538 -0.18409541
-0.14575453 -0.14168824 -0.13704321 -0.20857441 -0.0363275 -0.22493698 -0.12867206 -0.13425317
-0.18142748 -0.037157312 -0.07779005 -0.17313549 -0.10032624 -0.16081445 -0.21788557 -0.16026111
-0.07038635 -0.15075813 -0.06755428 -0.10107434 -0.016564384
