rust/cuda-nn-eval/tests/data/simple-sttt-1x64.onnx (onnx, 64928 bytes, 4 tensors)

seq.1.weight f4 [64, 162]
0	0xbdc6ead6	-0.0971276
1	0x3cf19974	0.029492117
2	0x3d741d7a	0.059598424
3	0xbda03f4b	-0.07824572
4	0xba4d6ace	-0.00078360445
5	0xbd75e0b2	-0.06002874
6	0x3b90ed54	0.004422823
7	0x3d9b5668	0.0758484
8	0x3ceb48e8	0.028721288
9	0xbd0391cf	-0.032121476
10	0x3da62c3a	0.08113904
11	0x3c6c137a	0.01440894
12	0x3bbc5bac	0.005748233
13	0xbd8c8cc1	-0.06862784
14	0x3c92dab5	0.017926553
15	0x3d9388b2	0.07203807
16	0x3d93cf93	0.07217326
17	0x3d68b8c3	0.056816828
18	0x3d888bf7	0.06667321
19	0xbd883ef9	-0.06652636
20	0x3cf93bed	0.030424083
21	0x3d269709	0.040671382
22	0x3c6c2335	0.014412691
23	0x3cc1dec1	0.023665788
24	0xbdb2dee9	-0.08733923
25	0x3ce9fd93	0.028563296
26	0xbd95e28e	-0.073186025
27	0xbc8ff026	-0.017570566
28	0xbd4d28b4	-0.050087646
29	0x3d924c88	0.071435034
30	0x3ca5f3bd	0.020257825
31	0xbce5cfff	-0.028053282
32	0xbd9fc01a	-0.07800312
33	0xbc2d29b4	-0.010569025
34	0xbd97050b	-0.07374009
35	0x3d312b9a	0.043254472
36	0xbcf2dcf6	-0.029646378
37	0x3d82f48d	0.063943006
38	0xbcecda2c	-0.028912626
39	0x3d99f79c	0.07517931
40	0xbcac1d38	-0.021010026
41	0xbd3b4b8b	-0.04572634
42	0x3bae3645	0.005316528
43	0xbdd92873	-0.10603418
44	0x3d58d2e3	0.052935492
45	0xbda07cfd	-0.078363396
46	0x3d78133a	0.06056521
47	0x3d065cf8	0.032803506
48	0x3c75cd0a	0.015002498
49	0xbda2df99	-0.07952804
50	0xbd947da2	-0.07250525
51	0x3cf498a0	0.029857934
52	0x3c6a726e	0.014309509
53	0xbc711efa	-0.014716858
54	0xbd5de391	-0.054172102
55	0xbd859847	-0.06523185
56	0xbd05041b	-0.03247462
57	0xbd9deed7	-0.07711571
58	0xbd2ba783	-0.0419078
59	0xbc316996	-0.010828396
60	0x3d83b0d4	0.06430212
61	0x3ccb2327	0.024797035
62	0x3d4a5477	0.04939696
63	0x3d9dc937	0.07704394
64	0x3d4b69ae	0.04966133
65	0xbcd706c6	-0.026248347
66	0xbccf3e08	-0.025298133
67	0x3cbb8192	0.022888932
68	0xbd19c46d	-0.03754084
69	0xbca039d9	-0.019558834
70	0xbcee2946	-0.029072415
71	0xbd8d1efd	-0.06890676
72	0x3d495bde	0.049159877
73	0xbd9019cb	-0.070361696
74	0x3c9127b3	0.017719125
75	0xbd4428fa	-0.04789064
76	0x3cf27a0d	0.029599214
77	0x3d2b959b	0.04189072
78	0x3d617256	0.05504068
79	0x3d3a6150	0.04550296
80	0x3dad7785	0.08470062
81	0x3be9adfa	0.0071313353
82	0xbcad4f5a	-0.021156002
83	0xbc60c151	-0.013717965
84	0x3d3430ee	0.043991975
85	0xbd1d37b3	-0.038383197
86	0x3c51bae5	0.012800907
87	0x3d130f76	0.035903417
88	0x3d99d2fd	0.07510946
89	0xbd974184	-0.07385543
90	0xbd4437df	-0.047904845
91	0x3dafb4ba	0.08579393
92	0xbc81dbb3	-0.015851831
93	0xbd136611	-0.03598601
94	0xbc3815b3	-0.011235642
95	0xbbec80b6	-0.007217492
96	0x3b6d0728	0.0036167596
97	0xbcdf6a91	-0.027272495
98	0x3d129e69	0.035795603
99	0x3d942d61	0.07235218
100	0xbda7a60d	-0.081859685
101	0xbd36ef93	-0.04466207
102	0x3d835138	0.064119756
103	0x3cbfc4d7	0.02340929
104	0x3d02e713	0.03195865
105	0xbd9fdea7	-0.078061394
106	0xbd90e503	-0.070749305
107	0xbbe205ce	-0.0068976646
108	0x3d7dc773	0.061957788
109	0xbd8a2d11	-0.06746877
110	0xbd1dd64b	-0.038534444
111	0x3d59a61b	0.053136926
112	0x3d11253e	0.035435908
113	0xbd8fd7d5	-0.070235886
114	0xba049bee	-0.0005058636
115	0x3d9acf5c	0.07559082
116	0x3d6ef5d8	0.058339924
117	0xbd6f7f44	-0.05847098
118	0xbd92a783	-0.071608566
119	0xbda04205	-0.07825092
120	0xbd552f53	-0.052047085
121	0xbd3d3017	-0.04618844
122	0xbb9d8b11	-0.004807838
123	0x3d51da61	0.051233653
124	0x3c4c3cd8	0.012465678
125	0xbd6bcd64	-0.057568923
126	0x3cc4737c	0.023980848
127	0x3d197eef	0.03747457
128	0xbd0d42ef	-0.03448766
129	0x3cabdc7c	0.020979159
130	0xbd2ea233	-0.042635154
131	0x3d756207	0.05990794
132	0x3ce0f3f1	0.02746007
133	0x3c928a10	0.017888099
134	0x3d66fcd8	0.056393474
135	0xbd49a274	-0.049227193
136	0x3cc2ffb2	0.023803566
137	0x3bce79af	0.006301127
138	0x3da5d059	0.0809638
139	0x3d7e2b17	0.062052812
140	0xba73da1e	-0.00093022163
141	0x3c1bafe0	0.009502381
142	0xbd1ac77d	-0.037787903
143	0xbd2dad9a	-0.042401887
144	0x3ceeaf21	0.029136242
145	0xbd201d1f	-0.039090272
146	0xbd478dbe	-0.04871916
147	0x3d911d78	0.07085699
148	0xbd813bc2	-0.06310226
149	0xbd8ac922	-0.06776644
150	0x3d592d7c	0.053021893
151	0x3d46c530	0.048527896
152	0x3d5f8aee	0.054575853
153	0x3d5bbf9e	0.053649537
154	0xbd6ee950	-0.058327973
155	0xbd115fa6	-0.035491608
156	0xbd2295ec	-0.039693758
157	0xbd8e567a	-0.06950088
158	0x3a18ae3a	0.00058243016
159	0x3dd48aa4	0.10378006
160	0xbd26092c	-0.04053609
161	0xbd036342	-0.03207708
162	0x3d7b9175	0.061418016
163	0x3c61b4a0	0.0137759745
164	0x3d2e8e83	0.04261638
165	0xbdca12d5	-0.09866873
166	0x3d656d59	0.056012485
167	0x3c1c6650	0.009545878
168	0x3caccd50	0.021093994
169	0x3d8c5a72	0.068531886
170	0xbd382115	-0.044953424
171	0xbd29e7b3	-0.04148073
172	0xbd34538d	-0.044024993
173	0x3c2f2ab1	0.010691331
174	0xbd959bd8	-0.073051155
175	0x3dab1c64	0.083550245
176	0x3da63460	0.081154585
177	0x3d502c8e	0.05082374
178	0xbd87861a	-0.06617375
179	0x3d62ec6b	0.055401247
180	0x3d89a3e9	0.067207165
181	0x3d3c1f10	0.04592806
182	0xbdd5eb3e	-0.104452595
183	0xbd804df2	-0.06264867
184	0x3d851512	0.064981595
185	0x3be6c437	0.0070424336
186	0xbd01fade	-0.031733386
187	0x3d8405f2	0.064464465
188	0x3b72c87c	0.0037045768
189	0xbd6fc8ff	-0.058541294
190	0x3d7dbfc5	0.061950464
191	0x3d105c33	0.035244178
192	0xbd019276	-0.031633817
193	0x3d2ae3f7	0.04172131
194	0xbcace51a	-0.021105338
195	0xbd5e2def	-0.054243024
196	0xbcc49570	-0.023997039
197	0xbd9ae56d	-0.07563291
198	0xbd160c42	-0.036632784
199	0x3c118ec3	0.008884135
200	0x3dacf46c	0.08445057
201	0x3daa6640	0.08320284
202	0xbdc3c3eb	-0.09558853
203	0x3d783994	0.060601786
204	0xbdf3919c	-0.11893007
205	0x3d89b824	0.06724575
206	0x3d8deff7	0.06930535
207	0x3cab1fa6	0.020889115
208	0x3d2a11a4	0.04152073
209	0xbc898243	-0.016785746
210	0xbd700c8a	-0.05860571
211	0xbd452f11	-0.04814059
212	0xbbbe290c	-0.005803233
213	0x3d32efa2	0.043685563
214	0x3cfe9122	0.031075064
215	0x3c1582fa	0.0091254655
216	0x3cf1db04	0.02952338
217	0xbd9006ef	-0.070325725
218	0xbd69b4cb	-0.057057183
219	0xbb1f607c	-0.0024318984
220	0xbd9e0d2e	-0.077173576
221	0x3d56011f	0.052247163
222	0xbdbf06d5	-0.09327475
223	0x3d11d234	0.035600856
224	0xbc014c44	-0.007891718
225	0x3dd01edc	0.10162136
226	0xbd6f54f0	-0.058430612
227	0x3d9fb44d	0.077980615
228	0x3d0f6449	0.03500775
229	0xbd1e6495	-0.03867014
230	0x3db9881c	0.09059164
231	0xbd9eecc4	-0.07760003
232	0xbdafe34c	-0.08588275
233	0x3cabbd72	0.020964358
234	0xbd9809f2	-0.07423772
235	0x3c335696	0.010945937
236	0x3d30464f	0.0430358
237	0xbdd456ea	-0.1036814
238	0x3d8a50a8	0.06753665
239	0x3da7e4c4	0.081979305
240	0x3c9724a3	0.018450087
241	0x3d1ea769	0.038733874
242	0x3c0400a0	0.00805679
243	0x3d4c546c	0.0498852
244	0x3c492b92	0.012278454
245	0xbd7c74bf	-0.061634775
246	0xbdd15572	-0.102213755
247	0xbd0dc48b	-0.034611266
248	0xbda4b2bb	-0.08041903
249	0xbd8f6177	-0.07001012
250	0xbd62283a	-0.055214144
251	0x3cdd372f	0.027003853
252	0xbd3f7d5a	-0.046750404
253	0x3d6223cf	0.05520993
254	0xbd4d95bb	-0.050191622
255	0xbb3ffae3	-0.0029293827

seq.1.bias f4 [64]
0	0x3d252b43	0.04032446
1	0x3dae7318	0.08518046
2	0xbd4fde02	-0.050748833
3	0x3d1d657f	0.038426872
4	0x3d83ca63	0.064350866
5	0x3df16dfa	0.117885545
6	0x3dbf0633	0.09327354
7	0x3da426a8	0.080151856
8	0x3d42e3ec	0.047580644
9	0x3e13e0c7	0.14441215
10	0x3da635f8	0.081157625
11	0x3cdc74a6	0.026911091
12	0x3d942e95	0.07235447
13	0x3e2e375a	0.17013302
14	0x3e0f07dc	0.13967842
15	0x3d044352	0.032290764
16	0x3dc5b865	0.09654311
17	0x3e06eebf	0.13177012
18	0xbc81042e	-0.015749063
19	0x3dc7bde9	0.09753019
20	0xbd842030	-0.06451452
21	0xbba77ff6	-0.0051116897
22	0x3e0c6c0d	0.13713093
23	0x3dd1d35e	0.10245393
24	0x3e1d31bc	0.15351003
25	0xbd01ea4c	-0.031717584
26	0x3dfec3b2	0.1243967
27	0x3e14699c	0.14493412
28	0x3c368939	0.011141115
29	0x3d8c9096	0.06863515
30	0x3d058c32	0.032604404
31	0x3d1a1676	0.037619077
32	0x3dff18aa	0.12455876
33	0x3ddbdf3a	0.107359365
34	0x3df78dd8	0.120876014
35	0x3d90f462	0.07077862
36	0x3d85447c	0.06507203
37	0x3de782ef	0.113042705
38	0xbd670e18	-0.056409925
39	0x3dba5b6a	0.09099467
40	0x3db3c26c	0.087773174
41	0x3e2c8f0e	0.16851446
42	0x3d9d1257	0.07669514
43	0xbd0a2a1e	-0.033731572
44	0xbbc463e1	-0.005993352
45	0xbd6051d4	-0.054765537
46	0x3d21a5de	0.039464824
47	0x3dfe95d6	0.12430923
48	0x3d456a28	0.04819694
49	0x3d914900	0.07094002
50	0x3dde74c5	0.10862116
51	0xbd5141ad	-0.051088024
52	0x3d74362d	0.05962198
53	0x3e01ae50	0.12664151
54	0xbd2792e6	-0.040911578
55	0x3e35e4d5	0.17763074
56	0x3d025215	0.03181656
57	0x3d6273f3	0.05528636
58	0x3d7aaeba	0.06120179
59	0xbd63c686	-0.05560925
60	0x3deb2e3d	0.114834286
61	0x3e2348a2	0.15945676
62	0x3e21642c	0.15760869
63	0xbda591d3	-0.080844544

seq.3.weight f4 [85, 64]
0	0xbe342882	-0.17593578
1	0xbdf177fd	-0.11790464
2	0xbd04690d	-0.032326747
3	0x3c9e6bba	0.019338477
4	0xbd1afbbc	-0.03783773
5	0xbb6ed10c	-0.003644052
6	0xbdc262f6	-0.094915316
7	0xbdfa5498	-0.12223166
8	0xbdae17c5	-0.085006274
9	0xbdb4c133	-0.08825912
10	0xbe098005	-0.13427742
11	0xbc2ca22a	-0.01053671
12	0xbe1405dc	-0.1445536
13	0xbdde7797	-0.10862654
14	0xbdbbc452	-0.091683045
15	0xbd111e32	-0.035429187
16	0xbe0454cf	-0.12922977
17	0xbe3278a0	-0.17428827
18	0x3d013944	0.031548753
19	0xbe4081f3	-0.18799572
20	0xbd5316a2	-0.051535256
21	0x3c80b503	0.015711313
22	0xbe13df96	-0.1444076
23	0xbc92a661	-0.017901601
24	0xbdb24bcd	-0.08705864
25	0x3d6f4ce7	0.05842295
26	0xbddbd4ee	-0.107339725
27	0xbe1b5044	-0.15167338
28	0x3d02eed0	0.03196603
29	0xbe1e9efa	-0.15490332
30	0xbe281a46	-0.16416273
31	0x3b8b6328	0.0042537637
32	0xbe122d36	-0.14275059
33	0xbe2e3e80	-0.1701603
34	0xbe07942b	-0.13240115
35	0xbd92e7a5	-0.07173089
36	0xbdb35b1f	-0.08757614
37	0xbdd5cf32	-0.1043991
38	0xbca04dd1	-0.019568356
39	0xbdf0aa24	-0.11751202
40	0xbd684295	-0.056704123
41	0xbe1cc62d	-0.15309973
42	0xbdb16d4a	-0.08663423
43	0x3d6c0f53	0.0576318
44	0xbd5948b0	-0.053047836
45	0xbbacba40	-0.005271226
46	0xbd6226ea	-0.055212893
47	0xbc4114ef	-0.011784776
48	0xbe1c6c10	-0.15275598
49	0xbe383c62	-0.17991784
50	0xbcd81f60	-0.026382148
51	0x3c95cd58	0.018286392
52	0xbd5391e8	-0.05165282
53	0x3c289b2c	0.010290902
54	0x3c408d4a	0.011752436
55	0xbde4564a	-0.11149271
56	0xbdfdc945	-0.12391905
57	0xbe127512	-0.14302471
58	0xbd718ffa	-0.058975197
59	0x3d647c46	0.05578258
60	0xbe2c4c08	-0.16825879
61	0xbded450f	-0.115854375
62	0xbe4e0b78	-0.20121562
63	0x3adacfc0	0.0016693994
64	0x3d0ad45d	0.03389393
65	0x3d1e95fb	0.03871725
66	0xbd3f4ada	-0.046702243
67	0xbde699c7	-0.112597995
68	0xbd74d54b	-0.059773725
69	0xbd11c4c9	-0.03558806
70	0xbd5b2f0e	-0.05351167
71	0x3c90cb86	0.017675173
72	0xbd80dfd5	-0.062926926
73	0xbdee6239	-0.11639828
74	0xbd8b7086	-0.068085715
75	0x3d40e595	0.047093946
76	0xbcd5bbb2	-0.026090477
77	0xbd9391ad	-0.0720552
78	0xbd84b1a2	-0.06479193
79	0xbd099c70	-0.033596456
80	0xbd18da47	-0.03731754
81	0xbc08a379	-0.008339756
82	0xbd989e4a	-0.07452066
83	0xbe39a7e6	-0.18130454
84	0x3d3a25c1	0.04544616
85	0xbdf88fa2	-0.12136771
86	0xbde08ffa	-0.10964961
87	0xbd6a7676	-0.05724188
88	0xbdce2326	-0.10065298
89	0xbdd042bc	-0.101689786
90	0xbe124c78	-0.14286983
91	0xbe3f0706	-0.18655023
92	0xbe3a8695	-0.18215401
93	0x3d5ce929	0.053933296
94	0x3cdb6383	0.02678085
95	0xbd8ecb19	-0.069723316
96	0xbbbbe6be	-0.0057342937
97	0xbd3454ae	-0.04402607
98	0xbdef1059	-0.1167304
99	0x3d5b9f62	0.053618796
100	0xbe42c35b	-0.19019835
101	0xbe028fde	-0.12750193
102	0xbcd523fe	-0.026018139
103	0x3d0eede6	0.034894846
104	0xbcee5848	-0.02909483
105	0xbd5d3cbe	-0.054013006
106	0x3d45d960	0.048303008
107	0xbdefb095	-0.11703602
108	0xbd7e275c	-0.062049255
109	0xbc4bc1f3	-0.012436378
110	0xbd3e73cf	-0.046497162
111	0xbe3b3ee6	-0.18285713
112	0xbd7384a1	-0.059452657
113	0x3d034287	0.032045867
114	0xbe4364eb	-0.19081466
115	0xbd38aeac	-0.045088455
116	0xbd9f884f	-0.07789671
117	0xbded8647	-0.11597877
118	0xbd66786d	-0.05626719
119	0x3cf47a43	0.029843455
120	0xbdb762c2	-0.089543834
121	0xbe46b638	-0.19405448
122	0x3c578780	0.013154864
123	0xbd60acd8	-0.054852337
124	0xbdea12ad	-0.114293434
125	0x3c9cec62	0.019155685
126	0x3cd9b86a	0.026577193
127	0x3d966f28	0.0734542
128	0x3bd7d60b	0.006586795
129	0xbd6e7bd9	-0.05822358
130	0xbd63bcb8	-0.055599898
131	0xbc5b9a88	-0.013403542
132	0xbe2e8142	-0.17041495
133	0xbdec4fa3	-0.11538627
134	0xbe3ceff8	-0.18450916
135	0xbd746b80	-0.059672832
136	0xbd7a4e1f	-0.06110966
137	0xbe3b1df7	-0.1827315
138	0x3c9065f4	0.01762674
139	0xbb5f8122	-0.0034104069
140	0xbca9d93f	-0.020733474
141	0xbdec12dd	-0.115270354
142	0xbe10fbb5	-0.14158519
143	0xbdfc5746	-0.123213336
144	0xbe1a3443	-0.15058999
145	0xbe328584	-0.17433745
146	0xbe22e48b	-0.15907495
147	0xbd620fd3	-0.055190872
148	0xbdd07866	-0.10179214
149	0xbd7750a6	-0.060379647
150	0xbd4d0415	-0.05005272
151	0xbe202037	-0.15637289
152	0xbd9d4d8b	-0.07680806
153	0x3d67ce17	0.056593027
154	0x3b52731b	0.0032112065
155	0x3d0a1f2a	0.033721127
156	0xbcae7d09	-0.021299856
157	0x3d36d41e	0.044635884
158	0x3c5b8e91	0.01340069
159	0xbe12a105	-0.14319237
160	0xbc882905	-0.016621122
161	0xbc754f42	-0.01497251
162	0xbe542cb3	-0.20720176
163	0xbc19f10c	-0.009395849
164	0xbdb3f7dd	-0.087875105
165	0xbdcc3cf3	-0.09972563
166	0xbde0d0e9	-0.109773465
167	0xbd00d633	-0.031454276
168	0xbdf30d33	-0.11867752
169	0xbe3420ed	-0.17590685
170	0xbda7198c	-0.081591696
171	0xbdf30793	-0.11866679
172	0xbcdb66a8	-0.026782349
173	0x3d4c9f68	0.04995671
174	0xbcc5ea3c	-0.024159543
175	0xbd58f2c8	-0.05296591
176	0xbc1bbaaa	-0.009504953
177	0xbdcce23f	-0.100040905
178	0xbd265ee4	-0.04061784
179	0xbb1e19e3	-0.0024124316
180	0xbdd367b0	-0.10322511
181	0xbe4ed235	-0.20197375
182	0xbda9b199	-0.08285827
183	0xbd0e7878	-0.034782857
184	0xbdaef981	-0.08543683
185	0xbda9904c	-0.082794756
186	0xbddc7163	-0.10763814
187	0xbd475878	-0.048668355
188	0xbded5987	-0.115893416
189	0xbe0e0c44	-0.13871866
190	0xbe1ff2b4	-0.15619928
191	0x3d893bc4	0.067008525
192	0xbe1c02c2	-0.15235427
193	0xbdea486e	-0.11439596
194	0x3d4fe181	0.050752167
195	0xbd7da94a	-0.061929025
196	0xbe22477a	-0.15847579
197	0xbe208955	-0.15677388
198	0x3d3561ba	0.044282652
199	0xbd255105	-0.04036047
200	0x3cd96e62	0.026541892
201	0xbd0de0ea	-0.034638323
202	0xb9cb9ae2	-0.00038834574
203	0xbd68fa93	-0.05687959
204	0xbcc336e2	-0.023829881
205	0xbe3b9ab4	-0.18320733
206	0xbdbe7148	-0.092989504
207	0xbe404ec5	-0.18780048
208	0xbb942d40	-0.004521996
209	0xbc4d5e8a	-0.012534747
210	0xbaa5b6ce	-0.0012642981
211	0xbcdf6c9f	-0.027273474
212	0x3d090bb0	0.03345841
213	0xbe2a5533	-0.16634063
214	0xbe1abb3a	-0.15110484
215	0x3c975529	0.018473225
216	0xbd6abac3	-0.057307016
217	0xbbdaa187	-0.0066720876
218	0xbd49fdd8	-0.04931435
219	0xbd08952b	-0.033345383
220	0xbdac13ef	-0.084022395
221	0x3d5ca759	0.053870533
222	0xbde0f1c1	-0.10983611
223	0x3d2d3dd3	0.04229529
224	0xbdca208f	-0.09869491
225	0xbdd6eb5e	-0.104941115
226	0xbe29dd77	-0.16588388
227	0xbd8a54b6	-0.067544386
228	0xbe410f51	-0.18853499
229	0xbe24e5da	-0.16103306
230	0x3d59d4d3	0.05318148
231	0x3b5f8e46	0.0034111901
232	0xbe19e489	-0.15028585
233	0xbdff03af	-0.124518745
234	0xba1cba1b	-0.00059786596
235	0x3c2e230f	0.010628476
236	0x3cae481e	0.021274623
237	0x3cdaeca3	0.026724165
238	0xbe192423	-0.14955191
239	0xbd384a87	-0.04499295
240	0xbd47a4e3	-0.048741233
241	0xbe04d04a	-0.12970081
242	0x3cfdaaf9	0.030965315
243	0xbd885958	-0.06657666
244	0x3d162fbd	0.03666662
245	0xbe546195	-0.2074035
246	0xbd81ba99	-0.06334419
247	0xbe1b9e76	-0.15197167
248	0xbe391705	-0.18075188
249	0xbd05e097	-0.03268489
250	0xbe03c6c3	-0.1286879
251	0xbd54d484	-0.051960483
252	0xbd9089a4	-0.07057503
253	0xbe4d71d0	-0.20062947
254	0xbe1492a3	-0.14509062
255	0x3cc1bf66	0.023650836

seq.3.bias f4 [85]
0	0xbc1cc6f4	-0.0095689185
1	0xba49b40a	-0.00076943694
2	0xbd566325	-0.052340645
3	0xbe5fc5c1	-0.21852781
4	0xbda8fe52	-0.08251633
5	0xbe1ef08e	-0.15521452
6	0xbddf56c4	-0.10905221
7	0xbd041821	-0.032249574
8	0xbd98143c	-0.074257344
9	0xbdd91ac4	-0.10600808
10	0xbe02c2c3	-0.12769608
11	0xbe42e215	-0.19031556
12	0xbd9636c0	-0.073346615
13	0xb89f0200	-7.582083e-05
14	0xbce9a320	-0.028520167
15	0xbe563eb1	-0.20922352
16	0xbe443267	-0.19159852
17	0xbcf52a06	-0.029927265
18	0xbe14226a	-0.14466253
19	0x3c58da88	0.013235696
20	0xbd16c9b1	-0.03681344
21	0x3c2ec860	0.01066789
22	0xbdead458	-0.114662826
23	0xbe48075b	-0.19534056
24	0xbe643fb2	-0.22289923
25	0xbcc43372	-0.023950312
26	0xbca8ba00	-0.020596504
27	0xbdc752ba	-0.09732576
28	0xbca86cb8	-0.020559654
29	0xbe21d4dd	-0.15803857
30	0xbdaaf71e	-0.08347915
31	0xbe28f3c6	-0.16499242
32	0xbda3c670	-0.07996833
33	0xbd450550	-0.04810077
34	0xbe00b129	-0.12567581
35	0xbd2537ad	-0.0403363
36	0xbe5a8450	-0.21339536
37	0xbe5f69bd	-0.2181768
38	0xbccfd970	-0.025372237
39	0xbdf1ec4a	-0.11812647
40	0xbe365c7e	-0.1780872
41	0xbc123c50	-0.008925512
42	0xbd243a68	-0.040094763
43	0x3c91ddaa	0.017805893
44	0xbe228dd1	-0.15874411
45	0xbd5690c9	-0.05238417
46	0xbdf10f26	-0.117704675
47	0xbdd23e54	-0.102657944
48	0xbd39919c	-0.04530488
49	0xbe4f1277	-0.20221888
50	0xbe374d6c	-0.17900628
51	0xbd4dd481	-0.050251488
52	0xbc0d5be0	-0.008627862
53	0x3c133058	0.008983694
54	0xbe0ab148	-0.1354419
55	0xbb53b560	-0.0032304153
56	0xbe47875f	-0.19485234
57	0xbbaf2ea0	-0.0053461343
58	0xbe521b46	-0.20518216
59	0xbe28e1df	-0.16492413
60	0xbce94a9a	-0.028477956
61	0xbdcc89f0	-0.09987247
62	0xbe2492a7	-0.16071568
63	0xbccfc128	-0.025360659
64	0xbe599357	-0.21247612
65	0xbcf96946	-0.030445706
66	0xbd40b2dd	-0.047045577
67	0xbdac8f20	-0.084257364
68	0xbe4f0c64	-0.2021957
69	0x3bba8aa8	0.0056927986
70	0xbe17547b	-0.1477832
71	0xbd11db55	-0.035609562
72	0xbe0fe2e9	-0.14051403
73	0xbdba885e	-0.09108041
74	0xbde59c88	-0.112114966
75	0xbdc99c80	-0.09844303
76	0xbd9d4dc6	-0.0768085
77	0xbe3fbe3f	-0.18724917
78	0xbdaf3316	-0.08554666
79	0xbe3054a0	-0.17219782
80	0x3c3a57a0	0.0113734305
81	0xbe352bd8	-0.17692506
82	0x3a7e8680	0.0009709373
83	0x3c841b5e	0.016126331
84	0xbe016bfb	-0.12638848
