rust/cuda-nn-eval/tests/data/simple-bn-sttt-1x64.onnx (onnx, 66348 bytes, 8 tensors)

seq.1.weight f4 [64, 162]
-0.032278117 0.020671597 -0.07805765 0.025266558 0.032981146 -0.040883057 -0.037918177 -0.034343857
0.06794516 0.005526474 0.057793297 -0.01776765 -0.026547158 -0.01922977 0.082043804 -0.030291354
-0.024583211 -0.016078915 0.028073167 -0.043306235 0.047937203 -0.08140959 0.016530933 -0.031525802
-0.06198769 0.001966043 0.06329797 -0.01860609 0.010004999 0.054838482 0.020990038 0.0786691
0.07377036 0.06454342 -0.08029626 -0.0054394547 0.022878936 -0.07390271 0.0036397206 0.057827793
0.079043254 0.054372784 0.020765876 -0.048286125 -0.0063799038 -0.0014558748 0.053290304 0.028258042
-0.074795775 0.033404194 -0.014317361 -0.04677957 -0.025729254 0.024648793 -0.038845364 0.082900986
0.008894162 -0.073110186 -0.079043254 0.06984888 -0.017719584 -0.05210857 -0.06114866 -0.0077875913
-0.059566535 -0.0643514 0.007632693 0.037595294 -0.0420009 -0.0010772118 0.05663085 0.057034366
-0.08371596 0.052124146 -0.048013043 -0.07216685 0.014380608 -0.077084415 -0.032710794 -0.039622184
0.024051214 -0.056035202 -0.040970076 0.0011619228 0.07181013 0.017928772 -0.039736185 0.083463535
0.039807234 -0.031212702 -0.053741626 0.058355182 -0.01669997 -0.022727633 -0.00020327486 0.003213745
0.0030581753 -0.028323647 0.009276157 -0.0012574028 -0.02043305 -0.039781682 -0.0734521 0.0017133355
0.0721265 0.019555658 -0.0685311 0.06683733 0.005578281 -0.04824046 -0.06678324 -0.005646154
-0.076407775 0.03502862 -0.028364832 -0.010653043 0.06429456 -0.024323935 0.01860918 0.049111992
0.05276212 -0.029069327 0.06963722 0.04420158 0.044485375 0.059277106 -0.06783172 0.00046201167
-0.023823028 -0.013342665 -0.060547788 0.050932024 -0.0041819927 -0.02671312 -0.06557463 0.02387571
0.009489185 -0.03268128 -0.036482982 0.04198895 0.051174063 0.056772012 -0.071680434 -0.05899099
-0.064954 0.04654388 -0.0048784963 0.041064665 0.019468112 -0.01891047 -0.05278131 0.029473633
-0.08194583 0.060820926 0.00069473096 0.009017441 0.0090772845 0.015432346 -0.06886431 -0.044545766
0.04515038 -0.011200279 -0.08665562 0.069963254 0.07061235 -0.03326795 0.06294049 0.06374235
-0.0025194248 0.005576627 0.056723528 -0.057775002 0.028410843 -0.05886146 -0.031106004 -0.010686198
0.009281323 0.0125125265 0.055506036 -0.061323866 -0.03740159 -0.038038965 0.058425188 -0.046629954
0.07766905 -0.049713533 0.04997325 0.068174176 -0.022519227 -0.059187 -0.07050913 0.034116272
-0.042592146 0.048054207 0.023662843 -0.06491599 0.062394187 -0.061614502 0.055162627 0.034775697
-0.07091372 -0.03277346 -0.05654685 -0.083374575 0.08653328 -0.0033034186 -0.057116646 0.0039672195
-0.036634136 -0.04610694 0.013888895 0.09643422 0.00398996 -0.067211874 -0.051957592 0.038283423
0.012148004 -0.037032135 -0.0073287436 -0.067456886 -0.033864625 0.049945883 -0.03294147 0.051602855
-0.07051595 0.021273077 0.028770281 -0.038230177 -0.04586632 0.061618313 -0.0012017654 -0.033355746
-0.0005329151 0.019841261 -0.035827998 0.071816854 -0.07040993 -0.085113704 0.087296866 0.02282615
0.004075728 0.046662033 -0.024290707 -0.061627083 0.06717947 0.006250475 -0.037045684 0.015480301
-0.05677189 -0.05985792 0.055683594 0.054780655 0.049689636 -0.011353941 -0.084754266 0.0142574245
00000000: 0f36 04bd 7b57 a93c b0dc 9fbd d0fb ce3c
00000010: 3d17 073d fe74 27bd 1750 1bbd 25ac 0cbd
00000020: d526 8b3d 6d17 b53b aab8 6c3d 768d 91bc
00000030: 6d79 d9bc c087 9dbc 9506 a83d 9325 f8bc
00000040: bb62 c9bc eeb7 83bc b3f9 e53c e161 31bd
00000050: cd59 443d 12ba a6bd e16b 873c 3321 01bd
00000060: cee6 7dbd bad8 003b 5ea2 813d cd6b 98bc
00000070: 02ec 233c 519e 603d 4df3 ab3c 441d a13d
00000080: ea14 973d 572f 843d 5e72 a4bd 743d b2bb
00000090: 9b6c bb3c 4e5a 97bd 6188 6e3b d6dc 6c3d
000000a0: 6ee1 a13d ffb5 5e3d 331d aa3c acc7 45bd
000000b0: 830e d1bb 0dd3 beba ef46 5a3d 697d e73c
000000c0: 872e 99bd d6d2 083d 5d93 6abc ef9b 3fbd
000000d0: 28c6 d2bc 44ec c93c 511c 1fbd fec7 a93d
000000e0: d2b8 113c cbba 95bd 6ee1 a1bd ee0c 8f3d
000000f0: a928 91bc cc6f 55bd 0477 7abd 0d2f ffbb
00000100: 0afc 73bd abca 83bd ab1b fa3b 86fd 193d
00000110: 2309 2cbd 3b31 8dba c0f5 673d de9c 693d
00000120: 4673 abbd 2180 553d 53a9 44bd 37cc 93bd
00000130: a49c 6b3c 6fde 9dbd c1fb 05bd df4a 22bd
00000140: 0d07 c53c 2b85 65bd 3dd0 27bd a94b 983a
00000150: 3011 933d 5cdf 923c 69c2 22bd eeee aa3d
00000160: e90c 233d c8b1 ffbc 2e20 5cbd d805 6f3d
00000170: 60ce 88bc 4d2f babc 2e26 55b9 b29d 523b
00000180: ab6b 483b fe06 e8bc 06fb 173c 70cf a4ba
00000190: 3663 a7bc 1ef2 22bd 0e6e 96bd 0092 e03a
000001a0: 0fb7 933d 3033 a03c 095a 8cbd 03e2 883d
000001b0: 03ca b63b ca97 45bd a7c5 88bd 5f03 b9bb
000001c0: ae7b 9cbd 2c7a 0f3d 5d5d e8bc 1a8a 2ebc
000001d0: deac 833d fd42 c7bc 4772 983c a829 493d
000001e0: 181d 583d cc22 eebc f59d 8e3d b70c 353d
000001f0: 4c36 363d 8dcc 723d 5beb 8abd 283a f239
00000200: 8328 c3bc 319b 5abc f500 78bd 199e 503d
00000210: 1909 89bb 79d5 dabc fe4b 86bd fe96 c33c
00000220: 8778 1b3c cedc 05bd 2e6f 15bd 9bfc 2b3d
00000230: e59b 513d c589 683d 31cd 92bd 89a0 71bd
00000240: 9a06 85bd cca4 3e3d cbdb 9fbb 6c33 283d
00000250: 977b 9f3c 21ea 9abc 3731 58bd b072 f13c
00000260: 37d3 a7bd 5d1f 793d 9b1e 363a e4bd 133c
00000270: e4b8 143c f3d7 7c3c bb08 8dbd 9f75 36bd
00000280: 9bef 383d 6081 37bc 8078 b1bd e548 8f3d
00000290: 359d 903d f943 08bd f2e6 803d 598b 823d
000002a0: ef1c 25bb 23bc b63b ee56 683d 7ba5 6cbd
000002b0: dbbd e83c b718 71bd 05d2 febc 2a15 2fbc
000002c0: b110 183c 5701 4d3c 4c5a 633d bc2e 7bbd
000002d0: 6932 19bd bfce 1bbd 404f 6f3d 0dff 3ebd
000002e0: f310 9f3d 6ba0 4bbd c0b0 4c3d e79e 8b3d
000002f0: 3e7a b8bc 116e 72bd 1767 90bd 81bd 0b3d
00000300: 1a75 2ebd 7dd4 443d 94d8 c13c adf2 84bd
00000310: 0c91 7f3d 7d5f 7cbd 35f2 613d f670 0e3d
00000320: 363b 91bd 773d 06bd ab9d 67bd 4ac0 aabd
00000330: 5c38 b13d 2b7e 58bb 25f3 69bd 73ff 813b
00000340: ad0d 16bd a1da 3cbd 3f8e 633c 4e7f c53d
00000350: 36be 823b 61a6 89bd 7cd1 54bd 14cf 1c3d
00000360: 6c08 473c 02af 17bd f525 f0bb d626 8abd
00000370: a2b5 0abd 0e94 4c3d a3ed 06bd 845d 533d
00000380: ab6a 90bd e044 ae3c a7af eb3c 3f97 1cbd
00000390: 53de 3bbd 7c63 7c3d 8e84 9dba 09a0 08bd
000003a0: 54b3 0bba 248a a23c 61c0 12bd b714 933d
000003b0: 1533 90bd 1850 aebd b3c8 b23d e8fd ba3c
000003c0: af8d 853b b020 3f3d 4efd c6bc ae6c 7cbd
000003d0: 6495 893d c9d0 cc3b 37bd 17bd 17a1 7d3c
000003e0: a489 68bd 942d 75bd 7b14 643d ae61 603d
000003f0: 5c87 4b3d e105 3abc a593 adbd f997 693c

seq.1.bias f4 [64]
0.043832924 -0.010327163 0.013857424 -0.04526079 0.045005564 0.0817326 -0.047252085 -0.012691887
0.009437738 0.027556904 0.07331296 0.08629001 0.055321638 0.035051435 0.034873217 -0.010357666
-0.005733342 -0.070670985 0.010505634 -0.011692159 0.056298133 0.05699581 0.049838655 0.062099766
0.0826158 0.007412952 -0.013224338 0.014368779 -0.013282162 -0.010776048 -0.087787114 0.017769057
0.0215915 -0.023359088 0.014739854 -0.076193355 0.015073754 0.048624337 0.041612327 -0.010697237
0.053549584 0.06859393 0.07480373 0.05789434 -0.007906413 -0.009992098 -0.060572963 -0.048726253
-0.0023174556 0.021692468 -0.025253983 -0.07404704 -0.07760219 -0.014427924 -0.034291256 0.056723766
-0.031924088 0.0023388183 0.02010228 0.034272686 -0.021243665 0.0014308586 0.051224336 -0.06476393
00000000: 278a 333d 4333 29bc 400a 633c 6163 39bd
00000010: c157 383d 6c63 a73d 678b 41bd a2f1 4fbc
00000020: bea0 1a3c 04bf e13c 1b25 963d d1b8 b03d
00000030: f198 623d 1892 0f3d 38d7 0e3d 33b3 29bc
00000040: c2de bbbb f3bb 90bd d31f 2c3c 7890 3fbc
00000050: df98 663d 7074 693d 9e23 4c3d 535c 7e3d
00000060: 7932 a93d 59e8 f23b e5aa 58bc 076b 6b3c
00000070: 6d9d 59bc 058e 30bc bbc9 b3bd 6a90 913c
00000080: a8e0 b03c 8f5b bfbc 6e7f 713c 430b 9cbd
00000090: e8f7 763c 502a 473d b071 2a3d 7743 2fbc
000000a0: cf56 5b3d f97a 8c3d b332 993d 9e22 6d3d
000000b0: e689 01bc e6b5 23bc 5b1b 78bd 2e95 47bd
000000c0: 74e0 17bb 67b4 b13c 71e1 cebc f9a5 97bd
000000d0: e6ed 9ebd 1963 6cbc fd74 0cbd 2e57 683d
000000e0: d5c2 02bd dc46 193b 89ad a43c 8461 0c3d
000000f0: 3207 aebc a68b bb3a 9cd0 513d f4a2 84bd

seq.2.weight f4 [64]
1.0817327 1.125283 1.1316179 1.1175187 1.1090643 1.1272491 1.1307495 1.1201323
1.0045244 1.0875486 1.1187396 1.1282432 1.1345819 1.1204872 1.1214957 0.9866367
1.122223 1.0349022 1.1293578 1.1177337 1.1120068 1.1240529 1.0410384 1.028053
1.1225495 0.9942276 1.1296133 1.1301444 1.125392 1.1209692 1.1185493 1.0912374
1.1252162 1.11607 1.0256491 1.1312556 1.0970377 1.0761393 0.9695328 1.1321394
1.1149566 1.1052496 1.055463 1.12059 1.1301922 1.1200417 1.119084 1.1327252
1.1217239 1.1268767 1.1241628 1.0122398 1.0190543 1.1127399 1.1244217 1.1303748
1.1305753 1.1059505 1.122943 1.0028019 1.1274111 1.1263719 1.0737314 1.0219179
00000000: 3876 8a3f 4609 903f dbd8 903f da0a 8f3f
00000010: d2f5 8d3f b349 903f 66bc 903f 7f60 8f3f
00000020: 4194 803f cb34 8b3f dc32 8f3f 466a 903f
00000030: fb39 913f 206c 8f3f 2c8d 8f3f 3994 7c3f
00000040: 01a5 8f3f ad77 843f cc8e 903f e611 8f3f
00000050: 3d56 8e3f f7e0 8f3f bf40 853f 3e97 833f
00000060: b4af 8f3f b385 7e3f 2b97 903f 92a8 903f
00000070: d80c 903f eb7b 8f3f a02c 8f3f abad 8b3f
00000080: 1607 903f 62db 8e3f 7848 833f fccc 903f
00000090: bb6b 8c3f efbe 893f 4d33 783f f2e9 903f
000000a0: e6b6 8e3f d278 8d3f 6919 873f 7e6f 8f3f
000000b0: 23aa 903f 875d 8f3f 253e 8f3f 24fd 903f
000000c0: a694 8f3f 7f3d 903f 91e4 8f3f 1391 813f
000000d0: 5f70 823f 436e 8e3f 0ded 8f3f 1fb0 903f
000000e0: b1b6 903f c98f 8d3f 99bc 8f3f d05b 803f
000000f0: 024f 903f f42c 903f 0870 893f 35ce 823f

seq.2.bias f4 [64]
0.08185855 0.12542464 0.13186204 0.11815436 0.10970759 0.12755 0.13103463 0.12012998
0.004929129 0.08769436 0.119192064 0.12900949 0.13472408 0.12049232 0.121503115 -0.013803949
0.12350499 0.035571504 0.12935501 0.11774173 0.11200131 0.124114 0.041045263 0.028054943
0.12251032 -0.0055279518 0.12988326 0.13032335 0.12588857 0.12085404 0.11862809 0.09142576
0.12520684 0.11656966 0.02567918 0.1312639 0.097012736 0.07620776 -0.030673672 0.13258645
0.115676895 0.10588334 0.055426463 0.120679036 0.13109921 0.120030046 0.11928969 0.1327467
0.12176028 0.12737246 0.12435002 0.012699687 0.01921504 0.11279127 0.12472977 0.13037133
0.13078873 0.105966315 0.12303491 0.0030346536 0.12759715 0.126491 0.073835716 0.022136644
00000000: 75a5 a73d 516f 003e d806 073e eafa f13d
00000010: 5fae e03d 789c 023e f12d 063e b506 f63d
00000020: 8884 a13b 1a99 b33d f81a f43d 101b 043e
00000030: 1cf5 093e adc4 f63d a0d6 f83d f529 62bc
00000040: 2ff0 fc3d 6db3 113d a475 043e 9322 f13d
00000050: f160 e53d 7b2f fe3d 141f 283d 7bd3 e53c
00000060: b1e6 fa3d d223 b5bb 1e00 053e 7c73 053e
00000070: efe8 003e 5382 f73d 49f3 f23d 6e3d bb3d
00000080: 3936 003e 13bc ee3d 255d d23c 0b6a 063e
00000090: 9dae c63d d012 9c3d 5a47 fbbc bec4 073e
000000a0: 02e8 ec3d 5dd9 d83d dc06 633d 9226 f73d
000000b0: df3e 063e 50d2 f53d 274e f43d c0ee 073e
000000c0: 745d f93d ed6d 023e 39ab fe3d 5912 503c
000000d0: dc68 9d3c 1cff e63d 5272 ff3d 1080 053e
000000e0: 7bed 053e de04 d93d baf9 fb3d 0ae1 463b
000000f0: d4a8 023e db86 013e 2e37 973d e857 b53c

seq.2.running_mean f4 [64]
-0.105297476 -0.10142253 -0.02221011 -0.055538267 -0.08371555 0.16267774 -0.045119252 0.099983096
0.036326088 0.022479378 0.18095656 0.123111464 -0.083127975 0.030945377 0.035694506 -0.097696796
0.027646288 -0.16969532 0.12029841 0.084459 0.002666017 0.026403503 -0.070280395 0.27575997
0.039530966 0.09593362 -0.032504402 0.13882841 0.08158269 0.03320046 -0.1638356 0.07458827
-0.039222725 0.100528486 0.1458374 0.09063687 0.002965548 0.10689097 0.018984303 -0.051507846
0.14186294 0.095792584 0.07661626 -0.08014256 -0.1001272 0.18027753 0.03676358 -0.04796308
-0.02170454 0.031949412 0.0375616 -0.09357715 -0.10831102 -0.042499278 -0.124933004 0.102003306
0.01852489 -0.05946291 -0.15412964 -0.082423635 -0.07847902 0.04714751 0.15980059 -0.02865031
00000000: 34a6 d7bd 9eb6 cfbd faf1 b5bc 187c 63bd
00000010: 0f73 abbd fe94 263e f7ce 38bd f0c3 cc3d
00000020: aaca 143d ac26 b83c ad4c 393e dd21 fc3d
00000030: 003f aabd 2981 fd3c 6734 123d 4215 c8bd
00000040: 787a e23c 9cc4 2dbe 035f f63d d7f8 ac3d
00000050: 58b8 2e3b 294c d83c 2bef 8fbd 6930 8d3e
00000060: 39eb 213d d978 c43d 5623 05bd 0929 0e3e
00000070: d314 a73d 35fd 073d 85c4 27be bcc1 983d
00000080: 02a8 20bd e1e1 cd3d 6656 153e d39f b93d
00000090: a459 423b a7e9 da3d f884 9b3c e4f9 52bd
000000a0: 8544 113e e72e c43d fce8 9c3d c821 a4bd
000000b0: 7d0f cdbd ac9a 383e 6895 163d ef74 44bd
000000c0: b8cd b1bc 63dd 023d 31da 193d 60a5 bfbd
000000d0: 2bd2 ddbd b913 2ebd e0dc ffbd 1ce7 d03d
000000e0: 83c1 973c 618f 73bd 29d4 1dbe b9cd a8bd
000000f0: 9cb9 a0bd bf1d 413d c4a2 233e 0eb4 eabc

seq.2.running_var f4 [64]
0.34168312 0.42941132 0.20754728 0.38902226 0.38822496 0.32019565 0.621269 0.330968
0.28218246 0.38602626 0.27242666 0.37238544 0.33002374 0.5434519 0.40472767 0.23109189
0.26371416 0.23952311 0.31604448 0.4530929 0.35129267 0.3165977 0.336366 0.2646416
0.4238771 0.28762218 0.23305567 0.4319547 0.22788458 0.32332954 0.28286678 0.47089133
0.40765566 0.25844076 0.18613516 0.26833844 0.42322767 0.35942736 0.24645014 0.44967934
0.22970521 0.43211836 0.33057564 0.17302391 0.25563818 0.16152887 0.37168765 0.32357156
0.3093893 0.3632699 0.4734167 0.3258446 0.20418522 0.4214205 0.53843224 0.18934302
0.2755959 0.28641266 0.37631568 0.2988198 0.5012523 0.27059302 0.5620792 0.17430529
00000000: 17f1 ae3e cddb db3e 4687 543e ed2d c73e
00000010: 6cc5 c63e aff0 a33e 7c0b 1f3f a374 a93e
00000020: 387a 903e 3ca5 c53e 827b 8b3e 4ea9 be3e
00000030: dff8 a83e aa1f 0b3f 7738 cf3e 5aa3 6c3e
00000040: 8b05 873e 8c45 753e 95d0 a13e cbfb e73e
00000050: a2dc b33e 1819 a23e 2a38 ac3e 1b7f 873e
00000060: 6b06 d93e 3743 933e 25a6 6e3e 2b29 dd3e
00000070: 935a 693e 738b a53e ead3 903e ab18 f13e
00000080: 3eb8 d03e 5952 843e 379a 3e3e a863 893e
00000090: 4cb1 d83e dd06 b83e 6d5d 7c3e 5f3c e63e
000000a0: d837 6b3e 9e3e dd3e 3641 a93e 2e2d 313e
000000b0: 02e3 823e d367 253e d84d be3e 2cab a53e
000000c0: 4668 9e3e 83fe b93e ac63 f23e 1ad5 a63e
000000d0: ee15 513e 6ec4 d73e b2d6 093f 23e3 413e
000000e0: e81a 8d3e aea4 923e 73ac c03e e9fe 983e
000000f0: 1252 003f 2b8b 8a3e 6ce4 0f3f 167d 323e

seq.4.weight f4 [85, 64]
-0.093376085 -0.116744615 -0.06688663 -0.20409101 -0.09375655 -0.091372736 -0.16562071 -0.20073159
0.009997281 -0.027326567 -0.21398668 -0.10121479 -0.12544435 -0.19822581 -0.20784363 -0.0018294251
-0.17404473 -0.003753181 -0.04408092 -0.15149386 -0.07084644 -0.16361499 0.005464142 -0.04069478
-0.19228293 0.0038879092 -0.15214117 -0.11828883 -0.1343166 -0.18580927 -0.19320132 -0.07175607
-0.20957518 -0.2264256 -0.015332924 -0.1728515 -0.0593652 0.01943386 -0.018039105 -0.0019322294
-0.20852458 -0.05087693 -0.021657363 -0.0067919553 -0.07425858 -0.16116375 -0.14531718 -0.119844146
-0.018093575 -0.20515752 -0.15398486 -0.017135186 -0.049363196 -0.066593185 -0.12588927 -0.15798904
-0.104622595 -0.08554783 -0.16767827 -0.020592034 -0.19650343 -0.1646782 -0.08307495 0.007020375
0.020461416 -0.11505933 -0.1970152 -0.079848625 0.017329542 -0.21978906 -0.16459092 -0.097475894
-0.11629432 -0.20147307 -0.18162532 -0.05144331 -0.021016618 -0.12163325 -0.17732164 -0.06297729
0.016539743 -0.07662562 -0.22351626 -0.21118364 -0.12224367 -0.13653536 -0.15374921 0.02494225
-0.20727392 0.017547457 -0.059685025 -0.08130626 -0.16808306 -0.05421781 -0.19346921 -0.12288251
-0.07861401 -0.19836053 -0.040031616 -0.1837781 -0.07053529 -0.18556423 0.009941026 -0.22702423
-0.17018978 -0.11755119 -0.18847135 -0.17419632 -0.19337602 -0.21969095 -0.18760689 -0.079780355
-0.20618697 -0.06578755 -0.15542153 0.016626533 0.00017018756 -0.13410914 -0.055215977 -0.03844942
-0.08561935 -0.04098935 -0.11325265 0.0076224324 -0.024732847 -0.11919963 -0.019801673 -0.07645223
-0.08916811 -0.170201 -0.11809503 -0.21868071 -0.19058877 -0.18394828 -0.0432054 -0.14040397
-0.044823434 -0.11761237 -0.023991419 -0.20874695 -0.20090415 -0.08788771 -0.21034229 -0.07946111
-0.19817068 -0.22184815 -0.20605089 -0.18915433 -0.05041496 0.012124394 -0.008169252 -0.19190519
-0.04456927 -0.18621467 -0.16171502 -0.085754424 -0.1994489 -0.19517946 -0.1298959 -0.012485027
0.007444695 -0.21674803 0.011555574 -0.013124457 -0.063185185 -0.08990522 0.00013485795 -0.19897231
-0.16546525 -0.19277954 -0.06663555 -0.21460614 -0.15787591 -0.09130537 -0.20311473 -0.10900301
-0.1395143 -0.0644751 -0.20842457 -0.025866158 -0.048791863 -0.17234887 -0.21619749 -0.04674712
-0.15888698 -0.19681773 -0.1833064 0.022001266 -0.049752954 0.0030251518 -0.051918287 -0.18539129
-0.13512568 -0.16132064 -0.1533335 -0.13301288 -0.112900205 -0.09656788 -0.028524103 -0.088047385
-0.11639293 -0.034222055 -0.1792103 -0.15477921 -0.022533488 -0.17252426 -0.009021891 -0.01066476
-0.16032746 -0.00037473347 -0.17617369 -0.22040662 -0.1633373 -0.22179364 -0.18445492 -0.002243301
-0.039141275 0.008869709 -0.062116843 -0.17151645 0.007784793 -0.15962376 -0.10123741 -0.12859607
-0.11857223 -0.09344776 -0.2216426 0.015462729 -0.21283041 -0.18092676 -0.022057066 -0.19507873
-0.22047023 -0.09863581 -0.00018341863 -0.19274606 -0.13666223 -0.15194508 -0.20878528 -0.09284534
-0.19831207 -0.030985817 -0.015062402 -0.18343017 -0.020716377 -0.03382846 -0.1779251 -0.16162387
-0.076320216 -0.07150739 -0.061109915 -0.12829515 -0.1392364 -0.20007 -0.09320363 0.013683895
00000000: f63b bfbd cd17 efbd dcfb 88bd 3cfd 50be
00000010: 6f03 c0bd a121 bbbd 7a98 29be 958c 4dbe
00000020: a3cb 233c f7db dfbc 531f 5bbe b349 cfbd
00000030: 7c74 00be b5fb 4abe f6d4 54be 52c9 efba
00000040: c838 32be eef7 75bb 328e 34bd 3521 1bbe
00000050: f017 91bd b08a 27be 8c0c b33b 92af 26bd
00000060: d1e5 44be 4bcc 7e3b e5ca 1bbe 6a41 f2bd
00000070: 4a8a 09be c944 3ebe 91d6 45be d9f4 92bd
00000080: e09a 56be 1ddc 67be f236 7bbc fcff 30be
00000090: ed28 73bd c233 9f3c bfc6 93bc dc42 fdba
000000a0: 7887 55be 5464 50bd c86a b1bc 0d8f debb
000000b0: e214 98bd 1c08 25be 07ce 14be d970 f5bd
000000c0: fa38 94bc d014 52be 35ae 1dbe 175f 8cbc
000000d0: 1031 4abd 0262 88bd 1ee9 00be e1c7 21be
000000e0: 5f44 d6bd b333 afbd dab3 2bbe a0b0 a8bc
000000f0: 3238 49be 67a1 28be 3323 aabd 2d0b e63b
00000100: b39e a73c 3aa4 ebbd 5abe 49be ad87 a3bd
00000110: aff6 8d3c 6210 61be 868a 28be 71a1 c7bd
00000120: b72b eebd f54e 4ebe fdfb 39be 38b6 52bd
00000130: 0b2b acbc da1a f9bd ce93 35be 3dfa 80bd
00000140: 5b7e 873c e5ed 9cbd 72e1 64be 8640 58be
00000150: e45a fabd edcf 0bbe 6f70 1dbe b153 cc3c
00000160: 9d3f 54be afbf 8f3c 4978 74bd e583 a6bd
00000170: f71d 2cbe 7f13 5ebd cb1c 46be d3a9 fbbd
00000180: 6200 a1bd 061f 4bbe 31f8 23bd 5430 3cbe
00000190: ce74 90bd 8d04 3ebe afdf 223c 0a79 68be
000001a0: 3b46 2ebe aebe f0bd a2fe 40be 8560 32be
000001b0: 5d04 46be aaf6 60be 051c 40be e263 a3bd
000001c0: ad22 53be 9fbb 86bd d226 1fbe 5e34 883c
000001d0: 6074 3239 e853 09be 262a 62bd 247d 1dbd
000001e0: 3359 afbd 73e4 27bd 01f1 e7bd 99c5 f93b
000001f0: 8a9c cabc f01e f4bd 1e37 a2bc fd92 9cbd
00000200: c59d b6bd 2c49 2ebe cfdb f1bd d6ed 5fbe
00000210: b429 43be f05c 3cbe 25f8 30bd 0fc6 0fbe
00000220: c798 37bd c1de f0bd a789 c4bc c3c1 55be
00000230: d1b9 4dbe 79fe b3bd f863 57be 82bc a2bd
00000240: 41ed 4abe 292c 63be 01ff 52be acb1 41be
00000250: eb7f 4ebd 65a5 463c 54d8 05bc cb82 44be
00000260: 448e 36bd 0faf 3ebe 9f98 25be 04a0 afbd
00000270: 553c 4cbe 20dd 47be 6e03 05be 008e 4cbc
00000280: a1f2 f33b 32f3 5dbe 9753 3d3c f607 57bc
00000290: 3c67 81bd 3a20 b8bd a868 0d39 66bf 4bbe
000002a0: b96f 29be 0068 45be 3878 88bd b6c1 5bbe
000002b0: 39aa 21be 4ffe babd 4ffd 4fbe f83c dfbd
000002c0: d6dc 0ebe 850b 84bd 406d 55be 44e5 d3bc
000002d0: fad9 47bd 397c 30be e062 5dbe e879 3fbd
000002e0: 45b3 22be 968a 49be acb4 3bbe 003c b43c
000002f0: c1c9 4bbd a041 463b 45a8 54bd 37d7 3dbe
00000300: 635e 0abe 3d31 25be 7503 1dbe 8734 08be
00000310: 3938 e7bd 61c5 c5bd 61ab e9bc 3052 b4bd
00000320: 6b5f eebd 6d2c 0cbd e882 37be 717e 1ebe
00000330: 2698 b8bc 33aa 30be 8ed0 13bc 3fbb 2ebc
00000340: e22c 24be e077 c4b9 e066 34be 46b2 61be
00000350: e541 27be df1d 63be c0e1 3cbe 5804 13bb
00000360: 9a52 20bd 4252 113c 3b6e 7ebd 02a2 2fbe
00000370: 9417 ff3b 6974 23be 8f55 cfbd b0ae 03be
00000380: ffd5 f2bd 8a61 bfbd 47f6 62be 6357 7d3c
00000390: 37f0 59be dd44 39be 05b1 b4bc b8c2 47be
000003a0: f3c2 61be 9201 cabd 1054 40b9 395f 45be
000003b0: 2ff1 0bbe 7e97 1bbe cfcb 55be b325 bebd
000003c0: 5212 4bbe f8d5 fdbc 4bc8 76bc 1ed5 3bbe
000003d0: 64b5 a9bc b68f 0abd ff31 36be ba80 25be
000003e0: c64d 9cbd 7772 92bd 644e 7abd ce5f 03be
000003f0: fd93 0ebe 26df 4cbe 8be1 bebd 6a32 603c

seq.4.bias f4 [85]
-0.14301844 -0.13750647 -0.15501447 -0.006384686 -0.11118685 -0.03968616 -0.19524443 -0.20884854
-0.029179454 -0.22453526 -0.09001531 0.009781215 -0.20854998 -0.1088884 -0.094038606 -0.13654926
-0.10396932 -0.07982044 -0.04916418 -0.1947401 -0.06584285 -0.19869125 -0.07918687 -0.15585051
-0.11012791 -0.022369962 -0.039613724 -0.13174663 -0.1905522 -0.016641006 -0.10261522 -0.09210239
-0.20503923 0.006783083 -0.031518776 -0.11920217 -0.039777517 -0.121208444 0.01026376 -0.15669975
0.01115495 -0.10339934 -0.0065171644 -0.0023227297 -0.022283342 -0.06577988 0.0023572035 -0.18860884
-0.023602683 -0.17184642 -0.040941823 -0.060470182 -0.032190014 -0.08875069 0.01693336 -0.19183081
-0.18068175 -0.06816433 -0.16252117 -0.17106879 -0.22008926 -0.027429022 -0.08354321 -0.009581413
-0.072936 -0.12264897 -0.0615491 -0.18094668 -0.0074014887 -0.110298336 -0.19815756 -0.16383496
-0.15898617 -0.19641732 -0.0017136746 -0.092533946 -0.018427368 -0.013683062 -0.032110382 -0.11893363
0.0059620924 -0.1861368 -0.021384 -0.19759668 -0.20446646
00000000: 6d73 12be 7fce 0cbe 1dbc 1ebe a136 d1bb
00000010: eeb5 e3bd f48d 22bd 28ee 47be 64dc 55be
00000020: c009 efbc 92ec 65be f259 b8bd 6441 203c
00000030: 208e 55be e200 dfbd 5097 c0bd 92d3 0bbe
00000040: deed d4bd e678 a3bd 6160 49bd f369 47be
00000050: 9ed8 86bd b875 4bbe ba2c a2bd 4797 1fbe
00000060: be8a e1bd 3641 b7bc 0042 22bd 97e8 06be
00000070: 1e20 43be b852 88bc ee27 d2bd 2ea0 bcbd
00000080: cef5 51be a044 de3b d519 01bd 4420 f4bd
00000090: c0ed 22bd 223c f8bd 5429 283c e675 20be
000000a0: 40c3 363c 08c3 d3bd f08d d5bb f038 18bb
000000b0: 8e8b b6bc 9ab7 86bd 507b 1a3b ad22 41be
000000c0: 6a5a c1bc 82f8 2fbe 9db2 27bd 95af 77bd
000000d0: add9 03bd ecc2 b5bd d4b7 8a3c 4c6f 44be
000000e0: a304 39be be99 8bbd f36b 26be a82c 2fbe
000000f0: 145f 61be d4b2 e0bc b418 abbd 5cfb 1cbc
00000100: 785f 95bd 622f fbbd e91a 7cbd 164a 39be
00000110: 3088 f2bb 18e4 e1bd d1e9 4abe 5ac4 27be
00000120: 45cd 22be 9f21 49be 619d e0ba 7082 bdbd
00000130: fef4 96bc ec2e 60bc 2d86 03bd 7a93 f3bd
00000140: a85d c33b a59a 3ebe 802d afbc c956 4abe
00000150: a85f 51be
