kn-cuda-eval/tests/data/att-tiny.onnx (onnx, 99638 bytes, 25 tensors)

common.embedding f4 [1, 32, 8, 8]
-0.3948326 -0.6235399 0.2976825 -1.0009267 -1.1661758 -1.8998513 0.5501737 0.36177096
0.15352018 -0.8231881 -0.86293864 -0.31509644 0.0671528 -1.8731704 -0.07238809 -1.3406231
-0.4809253 -1.7620214 0.46281803 0.29393956 -0.4852102 -1.0188379 -1.0340977 0.20045781
-0.45593038 0.2292402 -0.42078725 -0.4987079 -0.0359449 0.881358 0.98245364 0.6966045
0.005793685 0.050222754 0.1353561 0.6674919 1.0149242 0.43921316 1.1901677 -0.011435295
-0.3468745 0.7036742 2.0216649 1.4519463 1.1090206 0.36513498 -1.0384938 -1.2487173
-0.6960173 0.12652864 -0.74366957 0.3550058 -0.04827264 -0.8585026 -0.3653293 0.1311491
-0.18176101 -0.8193052 -0.013938055 -0.42450812 -0.7080087 -1.5206633 -0.6669828 0.39297363
-1.6675018 -1.1510831 1.0415213 -0.42344454 -1.351086 -1.9286652 2.4772556 -1.0716045
1.0967062 -0.12622237 -0.49149957 0.07402811 -0.09131029 2.0486276 0.927313 -1.2371066
0.4323494 0.49025607 0.32554686 1.0616482 0.2814442 -0.7320696 0.47964218 2.0115335
0.17034407 -0.056950502 -0.22711948 -1.0887715 1.2601609 0.7778646 -0.74064004 0.42725858
-1.1190013 0.5612742 0.16933861 1.1455208 1.1652167 -0.4419052 -0.60018224 -1.3604853
-1.4689524 -0.37213373 -0.57751125 0.40308052 -0.5703368 -0.32998383 -1.5579655 -0.2145449
1.1895207 0.45794043 -0.4048374 -0.81261116 0.029648906 -1.8441617 0.7686777 -0.34610724
0.055197146 -0.35393834 0.41592255 0.31484285 0.36170086 -1.0513618 -1.1668669 -0.6923733
1.4202636 0.3047733 -1.1807125 0.055893533 1.2577057 0.2741425 -1.256053 0.44361418
-0.07330702 -0.6474202 -1.0235573 0.3659668 -0.829107 -0.08217092 -0.642046 0.47939774
2.2225187 -0.7376738 -1.0426356 -1.0401474 -0.55605686 -1.6879909 0.4063629 1.3024579
1.4595853 -0.96209544 0.7812752 -2.1186998 -1.889544 -0.9043276 0.62343484 0.12358047
-0.49215585 0.07251339 0.39202306 0.20197526 -0.8248012 -0.22374447 -0.7806494 0.22414635
0.7898552 -0.9088784 -0.18477713 0.8841435 -0.57954305 0.5418769 -1.4946376 1.0523026
-0.041941132 0.9225017 -0.8698087 0.9492738 -0.41153353 2.8092878 1.3537842 -0.6037997
0.4364745 -0.39363346 -0.61746424 -0.888916 0.65936095 -0.0707281 0.083757214 0.5488474
-0.94846725 -0.5380185 -1.2207587 -0.37370142 1.2202445 1.6272358 -0.63707817 1.0979064
-1.1960347 -0.21770746 1.1990632 0.60035324 1.4608529 0.6801295 0.07322941 -1.0061069
1.3502734 -0.67451507 0.85206187 0.31281748 -1.1842009 1.3591033 0.26213697 1.4294086
-1.117096 -1.2528094 -2.0356743 0.6083532 0.30051735 -0.4205594 -0.55723697 1.3286326
-0.002563701 0.53037626 -0.78818804 0.113005854 0.24972796 1.9217904 2.1820848 1.498522
-0.24704984 0.049180638 -0.11498967 -1.2986856 -1.9539065 0.42988288 1.3720435 0.5411047
0.4370542 1.1134974 1.3812602 -0.44730097 -1.0309899 -1.8287133 0.0012450329 -0.45939094
0.4000324 0.41299477 0.116060376 -0.47347662 0.18148683 -1.0335171 1.0309424 -1.2730379
00000000: 8027 cabe 50a0 1fbf d769 983e 5e1e 80bf
00000010: 4045 95bf 542e f3bf 2fd8 0c3f 0b3a b93e
00000020: 6534 1d3e 75bc 52bf 8ce9 5cbf 5254 a1be
00000030: 6887 893d 0cc4 efbf 3540 94bd 8a99 abbf
00000040: d73b f6be eb89 e1bf 7cf6 ec3e 3f7f 963e
00000050: 796d f8be 4869 82bf 505d 84bf d044 4d3e
00000060: b56f e9be f1bd 6a3e 6d71 d7be a456 ffbe
00000070: f63a 13bd aea0 613f 1582 7b3f ac54 323f
00000080: f4d8 bd3b 60b6 4d3d ca9a 0a3e c0e0 2a3f
00000090: 09e9 813f 8ce0 e03e 6a57 983f 1b5b 3bbc
000000a0: 8999 b1be fe23 343f f562 0140 60d9 b93f
000000b0: 63f4 8d3f f9f2 ba3e 5ded 84bf f8d5 9fbf
000000c0: 312e 32bf b990 013e 2161 3ebf 52c3 b53e
000000d0: 88b9 45bd d4c6 5bbf 710c bbbe f34b 063e
000000e0: 8f1f 3abe fcbd 51bf 715c 64bc 2159 d9be
000000f0: 0f40 35bf 18a5 c2bf 63bf 2abf d733 c93e
00000100: b370 d5bf b156 93bf 9250 853f b9cd d8be
00000110: 63f0 acbf 80de f6bf 5b8b 1e40 562a 89bf
00000120: de60 8c3f 7040 01be d5a5 fbbe 0d9c 973d
00000130: e400 bbbd b71c 0340 6364 6d3f 8259 9ebf
00000140: e75c dd3e d802 fb3e 14ae a63e 17e4 873f
00000150: 7419 903e ea68 3bbf a993 f53e f7bc 0040
00000160: ad6e 2e3e ee44 69bd 0292 68be dd5c 8bbf
00000170: f44c a13f 2222 473f 969a 3dbf a3c1 da3e
00000180: 6f3b 8fbf aaaf 0f3f 1a67 2d3e 6da0 923f
00000190: d225 953f 6641 e2be 8ba5 19bf 6224 aebf
000001a0: a206 bcbf 5088 bebe c7d7 13bf 9260 ce3e
000001b0: 9801 12bf a4f3 a8be 6a6b c7bf a9b1 5bbe
000001c0: 3742 983f 2b77 ea3e d946 cfbe 4907 50bf
000001d0: 43e2 f23c 7e0d ecbf 10c8 443f f834 b1be
000001e0: 6716 623d 6837 b5be cdf3 d43e 1533 a13e
000001f0: db30 b93e 0693 86bf e55b 95bf 603f 31bf
00000200: 33cb b53f 3f0b 9c3e 9621 97bf 9ef0 643d
00000210: 80fc a03f 685c 8c3e 58c6 a0bf 6621 e33e
00000220: fe21 96bd 55bd 25bf ed03 83bf 0060 bb3e
00000230: 5b40 54bf 3a49 a8bd 205d 24bf 9f73 f53e
00000240: bf3d 0e40 31d8 3cbf 1575 85bf 8d23 85bf
00000250: be59 0ebf 1610 d8bf cc0e d03e f1b6 a63f
00000260: b1d3 ba3f e34b 76bf a701 483f c798 07c0
00000270: 94dc f1bf 0382 67bf 6d99 1f3f c217 fd3d
00000280: dafb fbbe e681 943d 3fb7 c83e 9ad2 4e3e
00000290: 2c26 53bf 451d 65be a4d8 47bf 9f86 653e
000002a0: f333 4a3f 41ac 68bf 3736 3dbe 3a57 623f
000002b0: ef5c 14bf 72b8 0a3f 4950 bfbf dab1 863f
000002c0: 77ca 2bbd 1229 6c3f c8ab 5ebf 9c03 733f
000002d0: 86b4 d2be 5fcb 3340 cd48 ad3f 9e92 1abf
000002e0: 9679 df3e 538a c9be 2312 1ebf 0090 63bf
000002f0: e1cb 283f e5d9 90bd e788 ab3d 4381 0c3f
00000300: c0ce 72bf 95bb 09bf d241 9cbf cb55 bfbe
00000310: f930 9c3f 4349 d03f 8e17 23bf 3288 8c3f
00000320: aa17 99bf b4ee 5ebe e77a 993f c0b0 193f
00000330: 3afd ba3f f81c 2e3f 4df9 953d 1cc8 80bf
00000340: c2d5 ac3f 05ad 2cbf ba20 5a3f 9d29 a03e
00000350: e593 97bf 19f7 ad3f d136 863e dcf6 b63f
00000360: 00fd 8ebf 0f5c a0bf 7d48 02c0 09bd 1b3f
00000370: 69dd 993e 9053 d7be 15a7 0ebf a210 aa3f
00000380: c403 28bb bdc6 073f b1c6 49bf 9d6f e73d
00000390: b0b8 7f3e 3afd f53f 47a7 0b40 92cf bf3f
000003a0: a2fa 7cbe a371 493d b47f ebbd 543b a6bf
000003b0: 9c19 fabf 9c19 dc3e 1f9f af3f d685 0a3f
000003c0: 91c5 df3e 1587 8e3f 22cd b03f a204 e5be
000003d0: 7af7 83bf 4713 eabf 5f30 a33a 4a35 ebbe
000003e0: 0cd1 cc3e 0d74 d33e 10b1 ed3d 876b f2be
000003f0: afd7 393e 4a4a 84bf ecf5 833f e8f2 a2bf

common.expand.weight f4 [32, 21, 1, 1]
-0.10491256 0.046678226 0.060283408 0.0618415 -0.06640122 0.052616026 0.17454875 0.03004141
0.327468 0.15598918 -0.3108871 -0.36962435 -0.016925521 -0.31506446 0.05898559 0.02945485
0.059001137 -0.14262162 0.27968204 -0.27096176 0.042324934 -0.052243885 0.09202099 -0.04888261
-0.12704217 -0.012198532 -0.06287349 -0.13240458 0.033177074 -0.14975144 0.27655798 0.484343
-0.09550413 0.09921434 -0.25339153 0.29890987 0.63339925 0.39603865 0.45154628 0.45852807
0.51879483 -0.15321092 0.029854985 -0.018043369 0.0872381 0.032602 -0.026085248 0.058816265
0.02448479 0.0121528525 0.20940982 -0.10315656 -0.6535834 0.06450257 -0.06451734 0.35502025
0.20350829 -0.18923558 -0.18601342 0.3187121 0.5316424 -0.1316664 0.20274861 -0.015724886
0.09243574 0.16357987 0.08861616 -0.107889265 -0.09055575 0.19773309 0.053470843 -0.37831753
-0.13685834 0.16445312 0.60050064 0.41003886 -0.31222862 0.17521513 0.40181318 0.4753633
0.6835421 0.9204097 0.42165744 -0.10886785 -0.07088006 -0.10674196 0.22369272 0.10239923
-0.115442105 0.1119014 -0.06215756 -0.08285711 -0.15560474 -0.37980685 -0.38352147 -0.092080325
-0.044164903 0.024312671 0.44447592 0.1673081 0.35923457 0.6414194 0.8850365 0.066232786
0.0013246397 0.28753197 0.2497515 -0.15823685 0.040938888 0.07666832 -0.11325626 0.2394793
-0.07641879 -0.43742412 0.21141885 0.37514046 -0.08966576 0.14412802 0.66648614 0.008479936
-0.1684488 -0.4215249 -0.5636817 -0.81007797 -0.12303545 0.04291529 -0.1583197 -0.0406073
-0.177367 -0.1777118 -0.032587804 -0.08673013 -0.097828485 0.17554353 -0.45677003 -0.1482327
-0.20310536 0.24822208 0.10625218 0.16827719 -0.43213668 0.08396782 0.15239383 0.11844518
0.34894025 0.27108663 0.1451036 0.18516496 -0.13853772 -0.24647102 -0.29199642 -0.23090379
-0.05118641 0.30853412 0.17733033 -0.53033745 -0.2939365 0.09122041 0.5776371 0.48066682
0.09177467 -0.35674912 -0.37140253 -0.31490692 0.13559029 -0.352769 -0.7845803 0.008047439
-0.23275432 -0.09021653 -0.00077357696 0.19051088 0.2934873 0.2617763 -0.38144487 -0.11143316
-0.022230493 -0.23322752 0.14577557 -0.026255744 -0.27497843 -0.025578922 0.07688617 -0.05173985
-0.070613824 0.24988939 0.42065948 0.038590424 0.04990681 -0.14490809 0.022176879 0.20308945
-0.10037076 0.01807852 0.061064083 0.20343655 0.09446058 0.12427399 -0.21395567 -0.2526298
0.052037634 -0.1354173 -0.4191097 0.23112652 0.5535342 0.6136796 0.42456225 1.0672271
0.49467316 -0.25961733 0.19101095 0.1858803 0.07756473 0.066167615 0.13321058 0.0050981417
0.001154401 0.063052945 0.09394698 0.35995832 0.30566713 0.28723085 -0.13320567 0.21848002
-0.42451987 -0.36848804 -0.6055432 -0.76823086 -0.76730084 -0.62225366 0.26701117 -0.01953856
-0.08473022 0.13702855 0.1106563 0.1056294 0.083334066 0.04933183 -0.11717681 -0.19319509
-0.010775577 0.28588718 -0.045245115 0.17610341 0.08680253 0.3441612 0.506391 0.5699087
0.2998215 0.418523 0.48635462 -0.014864595 0.17226984 0.25823084 -0.18329902 -0.07400335
00000000: 65dc d6bd ab31 3f3d bceb 763d 834d 7d3d
00000010: 5dfd 87bd e783 573d e8bc 323e 6719 f63c
00000020: e3a9 a73e a1bb 1f3e 982c 9fbe 673f bdbe
00000030: 64a7 8abc 2150 a1be e09a 713d 4c4b f13c
00000040: 2dab 713d 670b 12be 7c32 8f3e 80bb 8abe
00000050: e95c 2d3d affd 55bd 8075 bc3d 2239 48bd
00000060: 5817 02be 5adc 47bc d1c3 80bd 1195 07be
00000070: afe4 073d 7158 19be 0299 8d3e cefb f73e
00000080: ab97 c3bd e330 cb3d 89bc 81be b70a 993e
00000090: 7426 223f 94c5 ca3e 1331 e73e 31c4 ea3e
000000a0: bdcf 043f 53e3 1cbe 7192 f43c b0cf 93bc
000000b0: e4a9 b23d ad89 053d bbb0 d5bc 53e9 703d
000000c0: 5494 c83c c21c 473c 876f 563e bf43 d3bd
000000d0: 3e51 27bf ec19 843d ab21 84bd 37c5 b53e
000000e0: 7a64 503e f9c6 41be 4d7a 3ebe 3b2e a33e
000000f0: b719 083f 8fd3 06be 559d 4f3e 7ad1 80bc
00000100: f34e bd3d 7b81 273e 647c b53d 0cf5 dcbd
00000110: 4b75 b9bd 8b7a 4a3e 3e04 5b3d d6b2 c1be
00000120: 9824 0cbe 6666 283e 69ba 193f 9df0 d13e
00000130: 6edc 9fbe 986b 333e 75ba cd3e d262 f33e
00000140: 9dfc 2e3f f89f 6b3f 7ce3 d73e 1bf6 debd
00000150: 9129 91bd 879b dabd b40f 653e b0b6 d13d
00000160: e96c ecbd 902c e53d ed98 7ebd fdb0 a9bd
00000170: d956 1fbe 0b76 c2be ed5c c4be 9c94 bcbd
00000180: 42e6 34bd 5e2b c73c 5992 e33e d152 2b3e
00000190: 98ed b73e 1034 243f c191 623f 0ea5 873d
000001a0: 889f ad3a 6437 933e dbbe 7f3e d708 22be
000001b0: 89af 273d 4804 9d3d e6f2 e7bd 103a 753e
000001c0: 7481 9cbd 0ef6 dfbe 2f7e 583e 6912 c03e
000001d0: afa2 b7bd 4c96 133e d69e 2a3f 6eef 0a3c
000001e0: d87d 2cbe 1dd2 d7be 724d 10bf 4561 4fbf
000001f0: 03fa fbbd f1c7 2f3d 8f1e 22be d753 26bd
00000200: b29f 35be 15fa 35be ca7a 05bd 919f b1bd
00000210: 4d5a c8bd afc1 333e c3dd e9be 50ca 17be
00000220: dafa 4fbe ee2d 7e3e be9a d93d db50 2c3e
00000230: 0541 ddbe 52f7 ab3d 210d 1c3e 6393 f23d
00000240: 4ca8 b23e decb 8a3e 0a96 143e e29b 3d3e
00000250: d5dc 0dbe e662 7cbe 8e80 95be 0b72 6cbe
00000260: d7a8 51bd 2ff8 9d3e 1596 353e 32c4 07bf
00000270: d87e 96be c4d1 ba3d 06e0 133f f619 f63e
00000280: 5cf4 bb3d d2a7 b6be 7928 bebe 7b3b a1be
00000290: 2ed8 0a3e 239e b4be 41da 48bf 68d9 033c
000002a0: 2657 6ebe 72c3 b8bd dfc9 4aba 4915 433e
000002b0: f843 963e 8b07 863e be4c c3be 1237 e4bd
000002c0: b91c b6bc 32d3 6ebe 3146 153e 4916 d7bc
000002d0: f9c9 8cbe e38a d1bc 7f76 9d3d 2aed 53bd
000002e0: fb9d 90bd 01e3 7f3e ae60 d73e fe10 1e3d
000002f0: 156b 4c3d c962 14be 49ac b53c aef6 4f3e
00000300: 2f8f cdbd 6819 943c 551e 7a3d ac51 503e
00000310: 8c74 c13d 5d83 fe3d 3217 5bbe b158 81be
00000320: 6a25 553d d5aa 0abe 8c95 d6be 6eac 6c3e
00000330: 6bb4 0d3f 1b1a 1d3f 3960 d93e e69a 883f
00000340: cd45 fd3e 90ec 84be 6098 433e 6857 3e3e
00000350: 42da 9e3d e382 873d 5b68 083e 500e a73b
00000360: 454f 973a e721 813d 4667 c03d 754c b83e
00000370: 6780 9c3e ec0f 933e 1167 08be 3ab9 5f3e
00000380: ab5a d9be 77aa bcbe e104 1bbf c7aa 44bf
00000390: d46d 44bf 044c 1fbf b0b5 883e 550f a0bc
000003a0: 0a87 adbd 3651 0c3e c59f e23d 3a54 d83d
000003b0: 0dab aa3d 2c10 4a3d 65fa efbd efd4 45be
000003c0: 0c8c 30bc ce5f 923e f152 39bd 7454 343e
000003d0: 86c5 b13d e635 b03e d7a2 013f 89e5 113f
000003e0: 3482 993e a648 d63e 7903 f93e a18a 73bc
000003f0: 8167 303e d536 843e bdb2 3bbe 128f 97bd

common.expand.bias f4 [32]
0.16479062 0.2614901 -0.054591607 -0.115145475 0.095897354 0.18195087 0.052196667 0.22120577
-0.0017613035 0.13100368 -0.0006593515 -0.19260323 0.1995883 0.09438525 0.15832534 0.13137053
-0.20834559 -0.110448234 0.02531873 0.20899676 -0.09607887 -0.0734886 0.053564396 -0.20812413
-0.07937473 0.12141089 0.20173961 0.13662727 -0.0820111 -0.1440798 0.013457549 0.038077958
00000000: dfbe 283e 08e2 853e 739b 5fbd 64d1 ebbd
00000010: d565 c43d 5451 3a3e 2ccc 553d c483 623e
00000020: 8adb e6ba d425 063e 55d8 2cba c839 45be
00000030: e060 4c3e 0e4d c13d 0a20 223e ff85 063e
00000040: 8c58 55be af32 e2bd 3a69 cf3c 3f03 563e
00000050: 00c5 c4bd 3181 96bd 5766 5b3d 7e1e 55be
00000060: 388f a2bd 46a6 f83d d494 4e3e 05e8 0b3e
00000070: 70f5 a7bd a889 13be 0d7d 5c3c a2f7 1b3d

common.encoders.0.project_qkv.weight f4 [96, 32, 1]
-0.030120743 0.19170077 -0.037434503 -0.1737576 0.5703015 0.059692245 -0.014756547 -0.054493044
-0.18470941 0.109984785 -0.24009797 0.101611726 -0.101721786 0.12223999 -0.45064154 -0.32692754
-0.34179747 0.1634784 0.3664596 0.15161149 -0.07884274 -0.10631815 0.044245183 -0.14244199
-0.26450604 -0.034657385 0.29146487 -0.20067206 -0.05878362 -0.13576992 0.14414017 -0.38409388
-0.11499978 -0.16285154 0.07421415 0.037089776 0.3242619 -0.0013089009 -0.08298949 0.27536094
0.124143325 0.031692646 -0.25252014 -0.13060507 -0.17196874 0.23716573 -0.05028192 -0.36896768
-0.0024102773 0.07875664 -0.1036732 -0.18428816 -0.038272843 0.16333015 0.15133984 0.14835657
-0.32889566 0.06315093 0.027104061 -0.14951874 0.061491627 -0.21043268 -0.17509037 -0.03317947
0.037392624 -0.03087884 -0.07730674 0.24699515 0.1520718 0.028275188 0.07416488 -0.28306136
0.23564698 -0.12498586 -0.08136282 -0.10461631 0.049117792 0.21261476 -0.2160846 0.039961435
0.15301768 -0.10437601 -0.07459385 0.19402157 0.22547191 0.17874283 -0.2233828 -0.054791875
0.27284038 -0.16874215 -0.01964135 -0.1646167 0.27270815 0.19097446 -0.10749837 -0.026242815
-0.1697657 0.08828253 -0.15463674 -0.36105388 -0.10718824 0.11264091 0.0608588 0.41275752
0.12208788 -0.2837834 -0.24609609 -0.1159438 0.13916549 0.4457854 0.2231533 -0.058876723
-0.46555525 0.08222478 -0.0038444595 -0.20226236 0.2817922 -0.27908987 0.09307611 0.28264204
0.11861276 0.022458956 -0.19020945 0.13842657 0.08235673 -0.053483404 0.06088948 0.0047195153
-0.22307058 -0.03195551 0.35068938 0.15407445 0.021513399 -0.08708699 0.36636794 -0.29140744
0.67412436 0.3460851 0.31397706 -0.46618184 0.19540374 -0.19243488 -0.2567358 0.22523853
-0.25434226 0.3265137 -0.11326425 -0.1961601 -0.1342744 -0.20134434 0.0750272 0.31248173
0.1349198 0.056615245 -0.35210553 0.039710958 0.41977295 0.31345397 -0.061793882 0.24763362
0.27571753 -0.10614781 -0.25626665 -0.076092884 -0.16641863 0.026008569 0.064233206 -0.18886138
-0.13921021 -0.31256112 0.3113771 -0.074873686 -0.23676166 0.19254245 -0.056124303 0.090541124
-0.45242634 -0.21225017 -0.050242666 0.03813986 0.2537948 0.16354835 0.04990689 0.21092948
0.033445455 0.08198367 0.06441346 0.2998163 0.23901297 0.48041 0.2137878 -0.31030264
0.08017916 0.032666866 -0.22182484 -0.0809656 -0.23665026 0.028238427 -0.121420495 -0.19682913
0.17674813 -0.47212034 0.023750443 -0.29083773 -0.050002296 0.17777409 -0.30755994 0.1819857
0.20310338 0.23533747 0.327179 0.3756007 -0.04476772 -0.0055810753 -0.037196394 -0.056512877
0.08509368 -0.27904275 -0.050719175 0.29006433 -0.06762209 0.21902637 0.01329993 -0.05687702
0.058485813 -0.057567418 -0.030422505 -0.13562334 -0.033091765 0.04066675 0.23315886 -0.07245699
0.19153555 -0.30246124 0.0718536 0.010166735 -0.07756152 0.15089504 -0.2570386 0.16906726
-0.45183402 -0.058908395 0.023015399 -0.07312901 -0.3049145 -0.295526 -0.21237579 -0.052318323
-0.45322445 -0.3044572 -0.06650462 -0.24175969 -0.047356386 0.25907356 -0.14828143 0.21561892
00000000: c7bf f6bc 354d 443e ec54 19bd 83ed 31be
00000010: 47ff 113f db7f 743d 72c5 71bc 1934 5fbd
00000020: 7724 3dbe b43f e13d 3edc 75be cf19 d03d
00000030: 8353 d0bd f658 fa3d 7dba e6be 0c63 a7be
00000040: 1400 afbe e266 273e 98a0 bb3e 0b40 1b3e
00000050: 4d78 a1bd 55bd d9bd 703a 353d 50dc 11be
00000060: 566d 87be e7f4 0dbd e23a 953e fa7c 4dbe
00000070: 18c7 70bd 4507 0bbe 7b99 133e f4a7 c4be
00000080: 0185 ebbd 8ec2 26be 97fd 973d 73eb 173d
00000090: a805 a63e 6d8f abba 65f6 a9bd 1cfc 8c3e
000000a0: db3e fe3d 26d0 013d 524a 81be 56bd 05be
000000b0: 9318 30be 93db 723e 6af4 4dbd 55e9 bcbe
000000c0: bef5 1dbb 294b a13d 9d52 d4bd 09b6 3cbe
000000d0: fcc3 1cbd 0540 273e d5f8 1a3e c9ea 173e
000000e0: 0365 a8be 4655 813d 5609 de3c 711b 19be
000000f0: a5de 7b3d aa7b 57be e44a 33be 32e7 07bd
00000100: 0229 193d 9ff5 fcbc ff52 9ebd 4cec 7c3e
00000110: b6b8 1b3e 5ea1 e73c c2e3 973d 6bed 90be
00000120: 714d 713e 96f8 ffbd 8da1 a6bd 1341 d6bd
00000130: bd2f 493d afb7 593e 4845 5dbe 9aae 233d
00000140: abb0 1c3e 17c3 d5bd a9c4 98bd 97ad 463e
00000150: 1ce2 663e 5c08 373e 76be 64be 726d 60bd
00000160: bcb1 8b3e beca 2cbe e5e6 a0bc 4891 28be
00000170: 67a0 8b3e cf8e 433e 1b28 dcbd 2cfb d6bc
00000180: 0fd7 2dbe 79cd b43d 1859 1ebe 0edc b8be
00000190: 8285 dbbd 47b0 e63d 1447 793d f454 d33e
000001a0: 3609 fa3d 0f4c 91be 9d00 7cbe f173 edbd
000001b0: 6681 0e3e fc3d e43e 4c82 643e b828 71bd
000001c0: 425d eebe 7765 a83d 54f3 7bbb dd1d 4fbe
000001d0: 1147 903e dee4 8ebe b09e be3d 75b6 903e
000001e0: 3feb f23d d8fb b73c 44c6 42be b2bf 0d3e
000001f0: a5aa a83d 6a11 5bbd 3f67 793d 2aa6 9a3b
00000200: 9d6c 64be c8e3 02bd 8f8d b33e b1c5 1d3e
00000210: de3c b03c aa5a b2bd 9494 bb3e 5b33 95be
00000220: 6a93 2c3f 1132 b13e 9ac1 a03e 63af eebe
00000230: eb17 483e a60d 45be e072 83be eea4 663e
00000240: 2639 82be ce2c a73e 16f7 e7bd 31de 48be
00000250: 3a7f 09be 362d 4ebe dca7 993d 9bfd 9f3e
00000260: 6b28 0a3e 63e5 673d 2d47 b4be f5a7 223d
00000270: 7bec d63e 0a7d a03e 951b 7dbd ab93 7d3e
00000280: d92a 8d3e 0664 d9bd 6235 83be 96d6 9bbd
00000290: a569 2abe ec0f d53c b38c 833d e164 41be
000002a0: 1f8d 0ebe 0308 a0be d26c 9f3e 6057 99bd
000002b0: a671 72be d929 453e 99e2 65bd a06d b93d
000002c0: 6da4 e7be 1c58 59be 41cb 4dbd 8b38 1c3d
000002d0: 64f1 813e 3879 273e 2b6b 4c3d e6fd 573e
000002e0: 1afe 083d 0ee7 a73d 34eb 833d 8681 993e
000002f0: d1bf 743e 4df8 f53e 30eb 5a3e fddf 9ebe
00000300: f934 a43d b1cd 053d 0d26 63be 4bd1 a5bd
00000310: 7254 72be 4654 e73c 4fab f8bd 938d 49be
00000320: 76fd 343e c2b9 f1be 4a90 c23c afe8 94be
00000330: 35cf 4cbd 690a 363e 7f78 9dbe 765a 3a3e
00000340: 55fa 4f3e 4efc 703e 0284 a73e bc4e c03e
00000350: 5b5e 37bd 74e1 b6bb 3f5b 18bd 0c7a 67bd
00000360: 9845 ae3d b1de 8ebe e9be 4fbd 5083 943e
00000370: 737d 8abd 7348 603e f3e7 593c e1f7 68bd
00000380: d28e 6f3d d0cb 6bbd 9e38 f9bc d8e0 0abe
00000390: 3b8b 07bd 2e92 263d 32c1 6e3e 5564 94bd
000003a0: e521 443e 33dc 9abe fb27 933d 6192 263c
000003b0: 93d8 9ebd 3b84 1a3e 909a 83be f81f 2d3e
000003c0: ca56 e7be ee49 71bd ca8a bc3c aac4 95bd
000003d0: c11d 9cbe 2f4f 97be 0a79 59be bd4b 56bd
000003e0: 090d e8be d0e1 9bbe 9333 88bd da8f 77be
000003f0: c5f8 41bd 4aa5 843e 16d7 17be 35cb 5c3e

common.encoders.0.project_qkv.bias f4 [96]
-0.1308053 0.040893454 -0.063796565 0.039737348 0.1768263 0.18526645 0.0032270409 -0.169389
-0.11471688 -0.059741523 -0.11263626 0.11407519 -0.17726414 0.110419765 0.08066832 0.05110614
-0.07709306 -0.14173661 0.038681947 0.21191017 0.04575672 0.18761009 -0.07506582 0.079568945
0.17988789 -0.06978104 0.17463149 -0.119461395 0.040295158 0.05862801 -0.087739386 0.14397757
0.03309481 -0.119448856 0.112639144 0.020385154 0.10476196 -0.08116089 0.007786451 0.045636903
-0.05226627 0.12661353 -0.008920715 -0.08964075 -0.013701307 -0.11546741 -0.07647247 -0.00082858116
-0.14287837 0.08237543 -0.023835067 0.16094114 0.00080549775 -0.06491297 -0.14599536 0.13717686
-0.022173693 -0.043749895 0.16163678 0.049413197 -0.04011281 0.08674488 0.099666625 0.07378387
-0.052239776 -0.022818416 -0.1584304 -0.035309136 0.11456463 -0.118677475 0.02817808 0.0246029
-0.07626865 0.020708185 -0.16103669 0.070798196 0.099413835 -0.10960469 0.07690317 -0.088155486
0.13709173 -0.13448744 -0.08694935 0.019706648 0.097694926 0.107987665 0.040923793 0.12652601
-0.12554008 -0.19605894 -0.083038345 0.21803801 -0.044952765 0.18982023 -0.14280887 0.013945427
00000000: d3f1 05be e57f 273d c6a7 82bd a1c3 223d
00000010: f411 353e 7db6 3d3e c37c 533b 4f74 2dbe
00000020: aff0 eabd 87b3 74bd d7ad e6bd 41a0 e93d
00000030: bb84 35be c223 e23d 6f35 a53d ac54 513d
00000040: f7e2 9dbd 6723 11be f670 1e3d fbfe 583e
00000050: 666b 3b3d dc1c 403e 1cbc 99bd 0bf5 a23d
00000060: 8834 383e 5de9 8ebd 99d2 323e 2da8 f4bd
00000070: 890c 253d ed23 703d b5b0 b3bd db6e 133e
00000080: 6c8e 073d 9aa1 f4bd 5aaf e63d c4fe a63c
00000090: 708d d63d ae37 a6bd 7c25 ff3b c3ed 3a3d
000000a0: 2815 56bd faa6 013e 3128 12bc 9295 b7bd
000000b0: 727b 60bc 2d7a ecbd 999d 9cbd 2435 59ba
000000c0: b54e 12be 73b4 a83d c241 c3bc c1cd 243e
000000d0: 0a28 533a 17f1 84bd cf7f 15be 1778 0c3e
000000e0: 9ba5 b5bc 1733 33bd 1d84 253e 7e65 4a3d
000000f0: 544d 24bd 4da7 b13d 041e cc3d ff1b 973d
00000100: 60f9 55bd b0ed babc 943b 22be 50a0 10bd
00000110: dca0 ea3d 2d0d f3bd b8d5 e63c 058c c93c
00000120: bd32 9cbd 36a4 a93c cde6 24be a5fe 903d
00000130: 7b99 cb3d 6c78 e0bd 697f 9d3d dd8a b4bd
00000140: c661 0c3e 13b7 09be 8012 b2bd d66f a13c
00000150: 4714 c83d a328 dd3d b59f 273d 0990 013e
00000160: 948d 00be adc3 48be 0210 aabd 5b45 5f3e
00000170: 6420 38bd 3c60 423e 7d3c 12be 5c7b 643c

common.encoders.0.project_out.weight f4 [32, 32, 1]
0.23044251 -0.085595526 -0.017399646 -0.037058696 -0.16462214 -0.11602498 0.15004791 0.2299677
0.005098446 0.06379166 -0.15923731 0.00032353026 0.18765928 -0.051045556 -0.239019 0.06509847
0.060315706 0.2059591 -0.23824269 0.22519544 -0.017722078 0.040002927 0.13169438 0.033038974
0.10526593 -0.042192638 -0.03420911 0.12504877 0.010338249 -0.16685417 0.0054579475 0.0470142
-0.084766135 0.14792922 -0.04743807 0.060239468 0.035668436 -0.1643713 0.25061628 0.07743208
0.055631675 0.0887495 0.042798113 0.029815823 -0.032217402 -0.16177797 0.25908628 -0.05962113
0.16060069 0.1843106 0.09899078 0.009415054 -0.065213755 -0.07090385 0.07860785 -0.013391568
-0.17920177 -0.20638509 -0.04337123 0.009993032 0.008963707 -0.09651482 0.08829788 0.18394981
-0.018644633 -0.035257727 0.06839108 -0.26591626 0.16699252 -0.06571272 -0.06639807 0.09016496
-0.1581111 0.186347 0.04045135 -0.124590576 0.14473683 0.054721545 -0.23965217 -0.09815341
0.1304469 0.15528128 0.058112066 0.15410402 0.09707245 -0.18463308 -0.0707465 0.04612563
-0.034247313 -0.07188322 -0.10272405 -0.12240558 0.059951745 -0.09994634 0.021594144 -0.049148563
-0.00879576 -0.011193825 0.06817541 -0.023865798 -0.15089604 0.05993413 0.07484587 -0.04422456
-0.16680701 0.028977018 -0.033063717 0.097783305 0.10767128 -0.0944329 -0.03846424 -0.013795894
0.019944334 0.09884666 -0.040808138 -0.012140011 -0.010358761 0.035279028 0.11128738 -0.1078785
0.018470783 0.21466368 -0.23012485 -0.13855785 0.22076434 0.035098996 -0.038648866 0.24656989
0.21281606 -0.09780579 0.24495174 -0.1698067 0.099063806 0.15566845 -0.06237753 0.13075902
-0.034752797 0.061426405 0.09042204 -0.19610682 0.012357685 0.013964856 -0.25968057 0.0822878
0.03125742 0.095726684 0.35588533 -0.25407407 0.08593823 -0.23365605 -0.047256596 0.14970282
0.11051815 0.086492665 0.025890598 -0.15311469 0.023124782 -0.17715098 0.14440188 0.05963052
-0.02360262 -0.05045383 -0.029433293 0.066583 0.1681502 -0.124685794 -0.3002519 -0.12608713
0.08053514 0.04870802 -0.08687437 0.21960154 -0.18246269 -0.17585373 0.052006718 -0.14765424
0.02144297 -0.20487902 0.008493486 0.019922828 0.06692097 0.0026309274 -0.013635889 0.1835264
0.021482496 -0.08458273 0.16790257 0.39273474 -0.0726008 0.0841367 0.048761334 0.06003518
0.020642368 -0.057237573 -0.081901506 0.062972024 0.035009388 -0.07494814 0.05558278 -0.05655151
-0.13973786 0.073161304 -0.11822122 -0.1492835 0.11550055 -0.41785678 0.14744793 -0.09769412
-0.14318222 -0.08814593 -0.1949694 -0.11347235 -0.23434182 -0.07043409 0.26041728 0.0905264
-0.060929183 -0.21980406 0.11895751 0.021796865 -0.09147478 0.28615382 -0.025864933 -0.033494983
-0.11258831 -0.04231464 -0.06668767 -0.16241977 0.14620253 0.071195535 -0.015182632 -0.11513984
-0.13141444 -0.028426718 -0.07119715 0.12041961 0.1060016 -0.0044432874 0.14554116 -0.09775718
0.016934803 -0.16976935 -0.17891677 0.28945318 -0.04752294 0.034461766 0.39449942 0.11759504
0.058607817 0.020239329 -0.09293501 0.2541377 0.14946014 0.13830158 0.10983455 0.27458355
00000000: 1ff9 6b3e b54c afbd b489 8ebc dcca 17bd
00000010: b592 28be 819e edbd 29a6 193e a77c 6b3e
00000020: dd10 a73b 34a5 823d 1b0f 23be 7f9f a939
00000030: c129 403e 2515 51bd 66c1 74be 5952 853d
00000040: 9a0d 773d f1e6 523e e4f5 73be a299 663e
00000050: e42d 91bc 1cda 233d e4da 063e e053 073d
00000060: aa95 d73d 30d2 2cbd da1e 0cbd c90c 003e
00000070: c261 293c d2db 2abe 95d8 b23b f691 403d
00000080: de99 adbd c27a 173e 6c4e 42bd a9bd 763d
00000090: 1119 123d f350 28be c750 803e b694 9e3d
000000a0: 0ade 633d 4cc2 b53d 134d 2f3d 5040 f43c
000000b0: 65f6 03bd 20a9 25be f5a6 843e 4935 74bd
000000c0: 8274 243e ebbb 3c3e aebb ca3d 9941 1a3c
000000d0: ca8e 85bd 0a36 91bd 27fd a03d 4f68 5bbc
000000e0: ab80 37be 9d56 53be 08a6 31bd d0b9 233c
000000f0: 83dc 123c 90a9 c5bd 85d5 b43d 575d 3c3e
00000100: a1bc 98bc 686a 10bd 9f10 8c3d 2d26 88be
00000110: 1600 2b3e 6494 86bd b6fb 87bd 68a8 b83d
00000120: e0e7 21be bfd1 3e3e 51b0 253d 5829 ffbd
00000130: e435 143e b323 603d 6167 75be a804 c9bd
00000140: df93 053e 0e02 1f3e eb06 6e3d 72cd 1d3e
00000150: eccd c63d 7410 3dbe 8ae3 90bd 3bee 3c3d
00000160: e946 0cbd 8237 93bd fd60 d2bd c7af fabd
00000170: f68f 753d abb0 ccbd 34e6 b03c 0150 49bd
00000180: 171c 10bc 4e66 37bc 8d9f 8b3d 3582 c3bc
00000190: 7e84 1abe 7e7d 753d cb48 993d d024 35bd
000001a0: 75cf 2abe 3661 ed3c d26d 07bd 9d42 c83d
000001b0: c382 dc3d 0966 c1bd ae8c 1dbd 2c08 62bc
000001c0: 4d62 a33c 1e70 ca3d 6f26 27bd e6e6 46bc
000001d0: cbb7 29bc be80 103d a3ea e33d 67ef dcbd
000001e0: 0a50 973c ccd0 5b3e d9a5 6bbe 1ce2 0dbe
000001f0: 0c10 623e f7c3 0f3d 464e 1ebd d17c 7c3e
00000200: 74ec 593e 674e c8bd a1d4 7a3e cfe1 2dbe
00000210: f7e1 ca3d 8d67 1f3e 957f 7fbd b1e5 053e
00000220: f358 0ebd 419a 7b3d 312f b93d 3ad0 48be
00000230: e377 4a3c dacc 643c daf4 84be 8286 a83d
00000240: c807 003d 5a0c c43d 9a36 b63e ff15 82be
00000250: 6200 b03d 8843 6fbe 2290 41bd b24b 193e
00000260: 5757 e23d 1123 b13d 8518 d43c 19ca 1cbe
00000270: 2f70 bd3c 1167 35be 16de 133e 223f 743d
00000280: 485a c1bc ada8 4ebd 171e f1bc ab5c 883d
00000290: 912f 2c3e 445b ffbd 9eba 99be fc1c 01be
000002a0: 9cef a43d 1082 473d 31eb b1bd 3adf 603e
000002b0: 80d7 3abe 0013 34be ff04 553d ac32 17be
000002c0: 2ba9 af3c cecb 51be 4328 0b3c 3335 a33c
000002d0: dd0d 893d a36b 2c3b 1069 5fbc 58ee 3b3e
000002e0: 0ffc af3c b639 adbd a7ee 2b3e 8714 c93e
000002f0: baaf 94bd dd4f ac3d f7b9 473d 73e7 753d
00000300: 2f1a a93c f271 6abd fabb a7bd 7af7 803d
00000310: 0166 0f3d 697e 99bd c5aa 633d 8ea2 67bd
00000320: 7117 0fbe 98d5 953d f81d f2bd c6dd 18be
00000330: 8d8b ec3d 53f1 d5be 97fc 163e db13 c8bd
00000340: 5c9e 12be da85 b4bd 0fa6 47be 3164 e8bd
00000350: 4df7 6fbe c03f 90bd 6a55 853e e865 b93d
00000360: e190 79bd 5114 61be ff9f f33d 578f b23c
00000370: 2157 bbbd c182 923e b2e2 d3bc 0932 09bd
00000380: b394 e6bd 1e52 2dbd 8c93 88bd 5e51 26be
00000390: 1eb6 153e f7ce 913d 93c0 78bc 70ce ebbd
000003a0: 8291 06be 26df e8bc d0cf 91bd 8e9e f63d
000003b0: 5e17 d93d ff98 91bb be08 153e eb34 c8bd
000003c0: dbba 8a3c 04d8 2dbe f535 37be 3533 943e
000003d0: 6aa7 42bd c827 0d3d d4fb c93e abd5 f03d
000003e0: c00e 703d f3cc a53c b654 bebd 561e 823e
000003f0: 140c 193e ee9e 0d3e f0f0 e03d 3796 8c3e

common.encoders.0.project_out.bias f4 [32]
-0.13248159 0.019511411 -0.088352725 -0.0030228111 -0.06442009 0.05831478 -0.098559 -0.11997178
0.038795494 -0.008882711 0.11975678 0.07767378 0.03454382 -0.07339049 -0.064417586 -0.055732347
0.080559306 -0.03135501 -0.08649174 0.1179983 0.033983577 0.13518229 -0.10285401 -0.17708777
-0.16944279 -0.1197155 -0.09758937 -0.07249484 0.047607116 0.038305994 -0.1429721 0.08407404
00000000: 41a9 07be 65d6 9f3c 46f2 b4bd 5b1a 46bb
00000010: aeee 83bd 7bdb 6e3d 4dd9 c9bd c4b3 f5bd
00000020: 06e8 1e3d ca88 11bc 0b43 f53d 6e13 9f3d
00000030: d27d 0d3d c14d 96bd 5eed 83bd 9a47 64bd
00000040: 47fc a43d 1c6e 00bd 9522 b1bd 18a9 f13d
00000050: 5d32 0b3d 3a6d 0a3e 20a5 d2bd 7f56 35be
00000060: 6982 2dbe 662d f5bd f0dc c7bd 2d78 94bd
00000070: aeff 423d bfe6 1c3d 4767 12be 032f ac3d

common.encoders.0.ff.0.weight f4 [32, 32, 1]
0.06590546 0.024185304 0.05315355 -0.110358395 -0.07859807 -0.05138072 0.10274372 -0.061250698
0.04891622 0.017227678 0.1382008 -0.113482565 -0.1111792 0.118530184 0.025867099 0.060706392
-0.023932157 0.07471679 -0.3091541 0.17087813 -0.038531736 -0.22651747 -0.057983704 0.0992183
0.00021707562 0.11958139 0.0035229803 -0.027369674 0.17974178 0.18077844 0.047957134 -0.068551004
-0.03687246 0.04088209 -0.050534897 0.3606151 -0.008160094 -0.09146698 0.06853332 0.13655093
0.007016346 -0.30720398 0.32233357 -0.011005494 -0.018404474 -0.17283112 -0.038676314 0.119535334
-0.03783138 0.3173745 0.020182734 0.15230745 0.0060875295 -0.054324277 -0.0044038873 -0.116733156
-0.17328496 -0.07359711 -0.020221237 0.08904612 -0.019494032 0.14950673 -0.17246033 0.13233729
0.0589618 -0.11982009 0.15983856 0.1871113 0.08570563 -0.12706792 -0.17051892 -0.064721964
0.06544571 0.037881523 0.28522187 0.051895406 -0.16330594 0.100483604 0.05378282 -0.13052364
0.14251912 -0.1444475 0.060709696 -0.07395567 -0.11693098 0.08105406 -0.06684913 -0.14680894
0.09797273 -0.04741303 0.045881312 -0.14916092 0.14732683 0.025841052 0.049729887 0.13761145
0.046565436 -0.14800045 -0.10669681 0.0945821 0.25146848 0.05774342 0.07784518 -0.13882835
0.29272676 -0.11719314 0.0023857686 -0.11689948 -0.15189189 -0.22298482 -0.09640363 -0.09220865
0.10213476 0.08388113 -0.057894163 -0.03236281 0.15145805 0.03126814 -0.028606795 0.060888015
-0.01542825 -0.39491975 -0.05092514 0.0249494 0.25883022 0.04961549 -0.021508262 -0.18606335
-0.1324788 0.09019425 0.04330078 0.00094126107 0.08527954 -0.20754835 -0.05782421 -0.18948686
-0.04965104 0.21769553 0.01267037 -0.22249916 0.15051664 -0.1778563 -0.009166434 -0.028452449
-0.014550199 -0.17135596 0.029692812 0.10570504 0.009357029 -0.069169804 0.0031806412 0.08624873
0.14068477 0.00039477073 0.11561775 0.13509445 -0.12106432 0.122198634 -0.0855749 0.017368343
-0.17608799 0.19972128 0.037877165 0.08413756 -0.0772465 0.0032646218 0.05579164 0.046602637
-0.049088825 -0.07351765 -0.2063951 -0.075167015 0.04267626 0.118738696 -0.026919737 0.116401106
-0.18219213 0.29275164 -0.093182236 -0.0890147 -0.06565514 -0.07608022 0.082616374 0.17704733
0.14475203 0.03407424 0.21441065 0.077874444 -0.20032683 0.09225652 -0.09937456 0.19878623
0.092609964 -0.011374152 -0.18906473 0.23501825 0.278989 -0.08718039 0.20283687 0.12801626
0.0024227712 0.08004288 -0.09388149 0.011569473 -0.13688852 0.027618872 -0.05699195 -0.1940831
-0.08472175 0.034479853 0.01420011 -0.0024311705 -0.21392882 0.0027743245 0.13996619 0.23923427
0.04145929 -0.3676405 -0.007815141 -0.21274689 -0.1339486 0.10544809 0.16848487 -0.14808357
0.059891965 -0.009096059 0.07725949 -0.03626435 0.10483983 -0.18909004 -0.13028872 -0.1692372
0.11378683 -0.06612244 0.04957267 -0.121854395 0.017071305 -0.0013748285 0.19944136 0.17655478
-0.012463182 0.20843762 -0.013771886 -0.19990824 -0.16617964 -0.034000095 -0.04376818 -0.2950442
-0.0029999767 0.06605657 0.24234411 0.070027515 0.17103238 -0.11938733 -0.06684879 0.31616503
00000000: 71f9 863d 4220 c63c 89b7 593d 9503 e2bd
00000010: 06f8 a0bd 9774 52bd 4d6b d23d 03e2 7abd
00000020: 605c 483d 0f21 8d3c 8384 0d3e 8c69 e8bd
00000030: ecb1 e3bd f4bf f23d 3de7 d33c 44a7 783d
00000040: 5f0d c4bc 1e05 993d 7249 9ebe adfa 2e3e
00000050: 74d3 1dbd 32f4 67be 5280 6dbd f732 cb3d
00000060: cb9e 6339 16e7 f43d cde1 663b 5e36 e0bc
00000070: 3b0e 383e fc1d 393e b36e 443d 7864 8cbd
00000080: 9407 17bd fa73 273d aefd 4ebd 8ba2 b83e
00000090: eab1 05bc 0a53 bbbd 335b 8c3d 02d4 0b3e
000000a0: 60e9 e53b d749 9dbe e808 a53e 6350 34bc
000000b0: fbc4 96bc a4fa 30be 0e6b 1ebd f1ce f43d
000000c0: 14f5 1abd e97e a23e 4356 a53c 7cf6 1b3e
000000d0: e679 c73b 2283 5ebd 7c4e 90bb cb11 efbd
000000e0: 9d71 31be 15ba 96bd 02a7 a5bc d05d b63d
000000f0: f3b1 9fbc 4b18 193e 7199 30be 6d83 073e
00000100: ee81 713d 3c64 f5bd b8ac 233e 1b9a 3f3e
00000110: 6f86 af3d 181e 02be 839c 2ebe f38c 84bd
00000120: 6708 863d a829 1b3d 9a08 923e 4790 543d
00000130: ac39 27be 59ca cd3d 604b 5c3d fda7 05be
00000140: 88f0 113e 0cea 13be bbaa 783d 1276 97bd
00000150: 8279 efbd acff a53d 32e8 88bd 1555 16be
00000160: eda5 c83d 2a34 42bd 0bee 3b3d a4bd 18be
00000170: d8dc 163e 9db0 d33c 91b1 4b3d 04ea 0c3e
00000180: 66bb 3e3d 6e8d 17be db83 dabd 43b4 c13d
00000190: 7ac0 803e 5d84 6c3d 4b6d 9f3d 0529 0ebe
000001a0: 48e0 953e f502 f0bd 8e5a 1c3b ff68 efbd
000001b0: 8c89 1bbe 2256 64be 446f c5bd e4d7 bcbd
000001c0: 072c d13d dfc9 ab3d 6e22 6dbd de8e 04bd
000001d0: d217 1b3e 0513 003d cc58 eabc b665 793d
000001e0: c5c6 7cbc ec32 cabe e196 50bd af62 cc3c
000001f0: 6585 843e 9d39 4b3d 1832 b0bc 6487 3ebe
00000200: 86a8 07be c3b7 b83d 295c 313d f6be 763a
00000210: 0aa7 ae3d 8e87 54be 14d9 6cbd d808 42be
00000220: e45e 4bbd 94eb 5e3e 6297 4f3c d2d6 63be
00000230: 0921 1a3e f61f 36be d02e 16bc 1c15 e9bc
00000240: f563 6ebc f077 2fbe 573e f33c e27b d83d
00000250: 394e 193c e6a8 8dbd 4e72 503b 2da3 b03d
00000260: ab0f 103e 3bf9 ce39 00c9 ec3d 3356 0a3e
00000270: 92f0 f7bd 4743 fa3d e541 afbd 0e48 8e3c
00000280: 6950 34be bc83 4c3e 1625 1b3d 5050 ac3d
00000290: 6a33 9ebd 44f3 553b c685 643d 68e2 3e3d
000002a0: 5d11 49bd 6c90 96bd 3d59 53be 2af1 99bd
000002b0: 4dcd 2e3d 462d f33d c886 dcbc b463 ee3d
000002c0: 9390 3abe 8be3 953e 54d6 bebd 574d b6bd
000002d0: 3476 86bd f2cf 9bbd c632 a93d e54b 353e
000002e0: e039 143e 6e91 0b3d 778e 5b3e a37c 9f3d
000002f0: 7a22 4dbe fdf0 bc3d e484 cbbd 9e8e 4b3e
00000300: 4baa bd3d a75a 3abc 2f9a 41be a0a8 703e
00000310: a5d7 8e3e a28b b2bd 78b4 4f3e b216 033e
00000320: 5bc7 1e3b 85ed a33d f044 c0bd e38d 3d3c
00000330: 812c 0cbe f940 e23c 6470 69bd b8bd 46be
00000340: 9982 adbd bf3a 0d3d 94a7 683c 4654 1fbb
00000350: 2810 5bbe 71d1 353b 4c53 0f3e d4f9 743e
00000360: 37d1 293d 603b bcbe 140b 00bc 52da 59be
00000370: d229 09be 2bf5 d73d 4c87 2c3e 38a3 17be
00000380: 4751 753d a307 15bc 393a 9e3d ed89 14bd
00000390: 44b6 d63d d2a0 41be 686a 05be 844c 2dbe
000003a0: 1209 e93d 346b 87bd b60c 4b3d cc8e f9bd
000003b0: 1fd9 8b3c 9733 b4ba 5b3a 4c3e c7ca 343e
000003c0: 6032 4cbc ac70 553e 7aa3 61bc bfb4 4cbe
000003d0: ff2a 2abe af43 0bbd 4346 33bd 0910 97be
000003e0: 429b 44bb ab48 873d 0e29 783e 966a 8f3d
000003f0: 1d23 2f3e 5881 f4bd 05e8 88bd 62e0 a13e

common.encoders.0.ff.0.bias f4 [32]
-0.027429609 0.08816447 -0.14295849 -0.046892438 0.10550907 0.17092927 -0.103652045 -0.08696251
0.06395272 -0.074451886 -0.061458804 -0.08017384 0.1784138 0.10330758 -0.004116064 0.1528244
-0.026294606 -0.12804198 0.0919107 0.005041592 0.03979837 0.13007642 -0.030190988 -0.015972015
0.16958497 -0.043431696 -0.055401523 -0.11107733 -0.014838106 -0.09070358 -0.1597981 0.22221576
00000000: 0fb4 e0bc 938f b43d b663 12be 4912 40bd
00000010: 2415 d83d 1508 2f3e 8647 d4bd 6719 b2bd
00000020: a5f9 823d 3b7a 98bd 3abc 7bbd 2f32 a4bd
00000030: 1bb2 363e ed92 d33d 0ce0 86bb 007e 1c3e
00000040: c967 d7bc 701d 03be ad3b bc3d f033 a53b
00000050: 9e03 233d c132 053e 1753 f7bc bed7 82bc
00000060: afa7 2d3e 6fe5 31bd b5ec 62bd 837c e3bd
00000070: 871b 73bc ccc2 b9bd 1da2 23be 878c 633e

common.encoders.0.ff.2.weight f4 [32, 32, 1]
-0.1264982 0.14523198 0.06021986 -0.07966476 -0.03754987 -0.023387302 -0.16080026 -0.11393442
0.14149565 0.13555437 -0.21561356 0.10404766 -0.068548135 0.0158712 -0.23263653 -0.14519213
0.0054761446 -9.8920915e-05 -0.04704554 0.04691712 -0.043885216 -0.03812704 0.05610253 0.03022106
-0.025576312 0.08465085 -0.012152292 0.19164743 -0.18977185 0.078376666 0.20321076 0.014623178
-0.04312495 0.22844301 -0.01262366 0.08697711 0.11623794 -0.014427849 0.078540824 0.22388424
-0.07007531 -0.07626408 0.04845571 -0.016679803 -0.10235869 -0.059906412 0.3479806 0.35939828
0.1512742 -0.035955984 0.06913727 -0.15856227 0.028290555 0.05867548 -0.07487508 0.078877434
-0.06591739 0.15175341 -0.16676752 0.15403017 0.030034186 0.022822043 -0.11806513 0.14283796
-0.01130701 0.039254207 0.16799264 0.14631963 0.24171694 -0.064203836 0.17491584 -0.019059343
0.06421748 0.082702495 -0.14529768 -0.07197766 -0.12408181 -0.31036174 -0.11972866 0.1295898
0.1294105 0.14404508 -0.09922533 -0.28076664 -0.044412684 0.0041920193 -0.06494174 -0.30737165
0.017908093 -0.24124356 -0.012344273 -0.14864212 -0.45528233 0.0469254 -0.021730091 -0.013568149
-0.17682385 -0.06495925 -0.0724655 0.08202781 0.09175893 0.026455304 0.01022227 0.03684706
-0.13039862 0.11411912 0.21203963 -0.096244454 0.020109905 -0.11158421 0.102335446 -0.2225644
-0.08982513 0.10352199 -0.11254267 -0.18744089 0.15849893 0.0011403266 -0.048950233 0.008726504
-0.11597091 0.061405983 0.02841553 0.085174315 0.09662833 0.04519968 0.09716284 0.27642962
0.36013648 -0.10791925 0.07910376 -0.1981758 -0.0042739087 -0.034706578 0.036653936 -0.15746152
0.08204969 -0.103926465 0.07022157 -0.0021745025 -0.0071541388 -0.2109712 -0.15168072 -0.13981676
-0.0333243 -0.14708304 0.122025594 0.07884913 -0.14217082 0.08996637 0.109734684 -0.15323147
-0.2847311 -0.17366189 -0.19012946 0.19680877 0.08854073 -0.041932885 -0.2728622 0.01567118
0.08246857 -0.028054146 0.16232239 0.02189787 0.07880238 0.25344583 0.009453283 -0.10105993
0.22408132 -0.142506 0.06065132 0.111692 0.10001921 -0.028845562 0.13037212 -0.37052304
-0.101582654 0.06473026 0.059558384 0.2975488 0.097450934 0.057726853 -0.16148996 0.03309208
0.018639395 0.00083507726 0.0561895 -0.014972653 0.06316931 -0.028682137 -0.0062638856 0.03324076
0.08193345 -0.038329456 -0.07030009 -0.015276459 0.00043905436 0.005208676 -0.18601823 0.011972864
0.23241165 -0.19771595 -0.04582728 0.04187188 -0.13383813 -0.043183673 0.22435166 -0.062161572
-0.00861001 0.18832213 0.123799056 -0.064725645 0.13324927 0.047077626 0.08859042 0.13255742
-0.12067438 -0.052631952 0.053268097 0.13063884 -0.024214834 0.13515757 -0.13739546 0.10323158
0.07982457 0.10042276 -0.025604002 0.10876927 0.057168543 -0.18685132 -0.083818555 0.19616047
0.115943804 0.02824302 0.17550321 0.061187662 -0.1812742 0.038413268 -0.0018218413 0.009870146
0.21224214 0.2266178 -0.19138503 -0.16730224 -0.040847067 0.134639 0.32685202 -0.07201849
-0.08260718 -0.07809609 -0.12092604 -0.025606493 0.04765064 0.17655317 0.16901451 0.086634174
00000000: bf88 01be b1b7 143e 1aa9 763d 4727 a3bd
00000010: e4cd 19bd ba96 bfbc d3a8 24be 7356 e9bd
00000020: 3ce4 103e c4ce 0a3e cdc9 5cbe f116 d53d
00000030: f762 8cbd 5204 823c 4538 6ebe 3fad 14be
00000040: 3b71 b33b c373 cfb8 d3b2 40bd 2b2c 403d
00000050: fcc0 33bd 192b 1cbd c4cb 653d 2892 f73c
00000060: 6a85 d1bc 6d5d ad3d 681a 47bc 393f 443e
00000070: 8d53 42be f283 a03d 7b16 503e 0e96 6f3c
00000080: caa3 30bd f7ec 693e 78d3 4ebc 0e21 b23d
00000090: 280e ee3d c962 6cbc 03da a03d e941 653e
000000a0: a583 8fbd 5830 9cbd 7f79 463d 15a4 88bc
000000b0: 6fa1 d1bd 6d60 75bd 832a b23e 0d03 b83e
000000c0: a0e7 1a3e 9546 13bd d797 8d3d 265e 22be
000000d0: 98c1 e73c b355 703d 1b58 99bd 7e8a a13d
000000e0: b2ff 86bd 3f65 1b3e 1bc5 2abe 16ba 1d3e
000000f0: 410a f63c 4bf5 ba3c 22cc f1bd 1d44 123e
00000100: 0a41 39bc 05c9 203d 4306 2c3e d0d4 153e
00000110: a584 773e 4d7d 83bd 231d 333e 5722 9cbc
00000120: 7484 833d ed5f a93d eac8 14be 0669 93bd
00000130: 9b1e febd bce7 9ebe 4d34 f5bd 30b3 043e
00000140: 3084 043e 8e80 133e a636 cbbd a5c0 8fbe
00000150: 13ea 35bd 355d 893b 2d00 85bd d15f 9dbe
00000160: feb3 923c 8d08 77be a23f 4abc a435 18be
00000170: c41a e9be d934 403d 4e03 b2bc f14c 5ebc
00000180: 5011 35be 5b09 85bd cb68 94bd 32fe a73d
00000190: 1bec bb3d cbb8 d83c 4f7b 273c f1ec 163d
000001a0: 3787 05be 49b7 e93d eb20 593e d01b c5bd
000001b0: 87bd a43c 4386 e4bd 3f95 d13d ece7 63be
000001c0: 3df6 b7bd 5603 d43d c57c e6bd 81f0 3fbe
000001d0: 8b4d 223e 0377 953a 0a80 48bd 9cf9 0e3c
000001e0: 2882 edbd d784 7b3d b0c7 e83c df6f ae3d
000001f0: 13e5 c53d 4d23 393d 50fd c63d 2f88 8d3e
00000200: cf63 b83e c504 ddbd 2701 a23d 99ee 4abe
00000210: 250c 8cbb 7c28 0ebd 7022 163d 983d 21be
00000220: ab09 a83d 66d7 d4bd 54d0 8f3d 1982 0ebb
00000230: 446d eabb d608 58be 3152 1bbe 202c 0fbe
00000240: 107f 08bd f09c 16be 8ee8 f93d a77b a13d
00000250: 3a95 11be 4a40 b83d 94bc e03d b6e8 1cbe
00000260: 46c8 91be 6cd4 31be 4cb1 42be 3d88 493e
00000270: d854 b53d d1c1 2bbd 98b4 8bbe d960 803c
00000280: 48e5 a83d cfd1 e5bc d737 263e 2963 b33c
00000290: 2463 a13d a7c3 813e f1e1 1a3c 82f8 cebd
000002a0: 9375 653e 18ed 11be 856d 783d c6be e43d
000002b0: dfd6 cc3d 874d ecbc 4580 053e 32b5 bdbe
000002c0: 910a d0bd 4c91 843d 7ef3 733d 5158 983e
000002d0: 5b94 c73d fe72 6c3d a05d 25be 908b 073d
000002e0: a5b1 983c 16e9 5a3a f626 663d dc4f 75bc
000002f0: e95e 813d cdf6 eabc 4841 cdbb 7727 083d
00000300: bacc a73d 59ff 1cbd 7ef9 8fbd 1d4a 7abc
00000310: e130 e639 8bad aa3b 907b 3ebe d529 443c
00000320: 52fd 6d3e 0d76 4abe 63b5 3bbd d981 2b3d
00000330: dd0c 09be 5de1 30bd 71bc 653e 229d 7ebd
00000340: 0011 0dbc 84d7 403e 5c8a fd3d e18e 84bd
00000350: 7f72 083e 78d4 403d e56e b53d 22bd 073e
00000360: 2124 f7bd 9a94 57bd a62f 5a3d 30c6 053e
00000370: 305e c6bc bf66 0a3e 65b1 0cbe 146b d33d
00000380: 107b a33d 73aa cd3d 7cbf d1bc 6cc2 de3d
00000390: 9029 6a3d f455 3fbe 10a9 abbd 4ade 483e
000003a0: f273 ed3d e85d e73c 1db7 333e ea9f 7a3d
000003b0: f29f 39be 3b57 1d3d daca eeba 65b6 213c
000003c0: 0156 593e 7f0e 683e 70fa 43be 4751 2bbe
000003d0: 414f 27bd cede 093e 2659 a73e 6e7e 93bd
000003e0: f42d a9bd d8f0 9fbd 12a8 f7bd b5c4 d1bc
000003f0: 512d 433d 5bca 343e 2412 2d3e 426d b13d

common.encoders.0.ff.2.bias f4 [32]
0.049938165 -0.06059862 -0.030417742 0.069028504 -0.21125281 0.081594445 0.02190843 0.06418395
-0.13184755 0.1573351 -0.049717177 0.088653125 0.035737686 -0.04747774 0.01402084 -0.18565081
-0.12338727 0.052142385 -0.09390253 0.20634173 -0.04561179 0.09712815 0.024844868 -0.040287137
0.075601436 -0.036440242 -0.13202061 -0.12849355 0.12533273 -0.13145268 0.05077788 -0.04134998
00000000: f68b 4c3d 4236 78bd a12e f9bc d15e 8d3d
00000010: a852 58be fd1a a73d 4f79 b33c e072 833d
00000020: 0b03 07be 741c 213e 3da4 4bbd c58f b53d
00000030: ae61 123d 0578 42bd aab7 653c 3f1b 3ebe
00000040: 77b2 fcbd 4193 553d f84f c0bd 3f4b 533e
00000050: 6ed3 3abd 20eb c63d 7787 cb3c 2004 25bd
00000060: edd4 9a3d 5d42 15bd 6930 07be d093 03be
00000070: 3957 003e 889b 06be 77fc 4f3d 995e 29bd

common.encoders.0.norm_att.weight f4 [32]
0.99273354 1.0233622 0.988398 0.95653874 1.0549206 1.1183648 0.9495978 1.0296212
0.9213917 1.0260698 1.103411 0.9646639 0.98037994 0.99702823 0.9798952 0.9073273
0.9523349 1.0692812 0.9039849 1.0291629 0.9679658 1.0882471 1.0766257 0.95592695
1.036865 1.0712688 1.0148239 0.9284427 1.0087994 1.032047 0.9383847 0.91773885
00000000: c923 7e3f 88fd 823f a707 7d3f b9df 743f
00000010: a307 873f 9426 8f3f d718 733f a1ca 833f
00000020: 54e0 6b3f 4156 833f 923c 8d3f 37f4 763f
00000030: 2efa 7a3f 3e3d 7f3f 69da 7a3f 9a46 683f
00000040: 38cc 733f 35de 883f 8e6b 673f 9cbb 833f
00000050: 9bcc 773f ae4b 8b3f dfce 893f a1b7 743f
00000060: feb7 843f 561f 893f c0e5 813f 6cae 6d3f
00000070: 5720 813f 1e1a 843f fb39 703f eff0 6a3f

common.encoders.0.norm_att.bias f4 [32]
0.0071653905 0.09805295 -0.069478676 0.07855141 -0.15398756 0.16078107 0.10397243 0.11101848
-0.035657108 -0.06541074 0.1098238 0.006318913 0.0607689 0.030960638 -0.04924258 -0.06774421
-0.13932672 -0.12792252 -0.021120455 0.19445111 0.015488101 0.031626455 -0.09258523 -0.14334494
-0.10062521 0.06329933 -0.052256074 -0.011416425 0.016544359 -0.011183189 0.029955236 -0.024523584
00000000: a7cb ea3b fccf c83d d64a 8ebd 90df a03d
00000010: eaae 1dbe cba3 243e 7fef d43d a85d e33d
00000020: 300d 12bd 11f6 85bd 4deb e03d e20e cf3b
00000030: cfe8 783d 2aa1 fd3c 96b2 49bd 7abd 8abd
00000040: aaab 0ebe 1ffe 02be ce04 adbc 311e 473e
00000050: cec1 7d3c be8a 013d 539d bdbd 04c9 12be
00000060: 9714 cebd 14a3 813d 770a 56bd f50b 3bbc
00000070: 0988 873c b239 37bc af64 f53c afe5 c8bc

common.encoders.0.norm_ff.weight f4 [32]
1.0865552 1.2023792 1.0792103 1.0263371 1.0396408 1.0206827 0.9974537 0.9911471
1.0452889 1.0900804 1.1990778 1.043252 1.1032717 1.0828025 1.0888544 1.1475364
1.08794 1.1017476 1.0751699 0.8794396 1.0096362 1.2097213 1.0564016 0.98075634
1.1331133 1.1333638 1.1589572 1.1078395 1.0963535 1.0865705 1.068333 1.1044687
00000000: 3e14 8b3f 90e7 993f 9023 8a3f 045f 833f
00000010: f312 853f bba5 823f 2059 7f3f d1bb 7d3f
00000020: 07cc 853f c187 8b3f 627b 993f 4889 853f
00000030: 0238 8d3f 4699 8a3f 955f 8b3f 79e2 923f
00000040: 9e41 8b3f 1106 8d3f 2b9f 893f f422 613f
00000050: c23b 813f 26d8 9a3f 2b38 873f d912 7b3f
00000060: db09 913f 1112 913f b658 943f afcd 8d3f
00000070: 5055 8c3f be14 8b3f 23bf 883f 3b5f 8d3f

common.encoders.0.norm_ff.bias f4 [32]
-0.0011569064 0.15074405 -0.10850987 0.06391854 -0.11833009 -0.05874601 0.005844787 -0.04683608
0.09502563 0.05659636 0.07542178 -0.022679 0.069874 -0.095797844 -0.11775914 -0.17249642
-0.1575388 -0.14306465 -0.027254041 -0.01267416 0.021783484 0.03136178 0.077346064 -0.14660531
-0.06280573 0.020439785 -0.1751128 -0.13288285 0.111266345 -0.05219949 0.10241644 -0.11561559
00000000: 56a3 97ba a65c 1a3e 6c3a debd b9e7 823d
00000010: 0c57 f2bd a89f 70bd a185 bf3b 30d7 3fbd
00000020: cc9c c23d 96d1 673d bc76 9a3d 4fc9 b9bc
00000030: 1a1a 8f3d a931 c4bd b42b f1bd e7a2 30be
00000040: da51 21be 8a7f 12be de43 dfbc 48a7 4fbc
00000050: 4773 b23c 3675 003d 9d67 9e3d b41f 16be
00000060: 4aa0 80bd 5671 a73c c550 33be 7112 08be
00000070: 9cdf e33d 22cf 55bd b6bf d13d dec7 ecbd

scalar_head.seq.0.weight f4 [2, 32, 1, 1]
-0.21444678 0.3114164 -0.18235174 -0.027608892 -0.14373061 -0.0788567 0.07710601 -0.09347996
0.17969607 0.054146595 -0.4541934 0.040580966 0.2343695 -0.07839232 -0.095311835 -0.31673008
0.08699933 -0.15202391 -0.33876228 0.047475617 0.075722046 -0.43065614 0.059257835 0.091906026
0.28018093 -0.28941518 -0.21365818 -0.06851444 0.11766459 0.11543731 0.030492824 -0.17885123
0.28229532 0.34406775 -0.06489259 0.3189865 -0.2043323 -0.16393323 -0.046053004 0.16948299
0.16980815 0.049095 0.13330157 -0.21745269 -0.005864748 -0.16778226 -0.14472464 -0.2050134
-0.25395742 -0.0046488107 -0.12691191 -0.013841686 0.09156064 0.32861036 0.18491708 -0.1921767
-0.34923026 0.25523338 -0.3431005 -0.1307556 0.23052765 -0.10746158 0.07737123 -0.35243067
00000000: f097 5bbe f871 9f3e 6aba 3abe 0b2c e2bc
00000010: 1e2e 13be 9f7f a1bd c1e9 9d3d 6c72 bfbd
00000020: 3f02 383e d2c8 5d3d 0a8c e8be 3a38 263d
00000030: 8ffe 6f3e 278c a0bd da32 c3bd 722a a2be
00000040: b42c b23d 28ac 1bbe 4072 adbe cb75 423d
00000050: 2914 9b3d f67e dcbe 58b8 723d 3a39 bc3d
00000060: e073 8f3e 3a2e 94be 36c9 5abe 4c51 8cbd
00000070: 22fa f03d 656a ec3d 16cc f93c c724 37be
00000080: 0389 903e a629 b03e 68e6 84bd 3352 a33e
00000090: 7d3c 51be 1dde 27be 13a2 3cbd f38c 2d3e
000000a0: 30e2 2d3e d717 493d 3580 083e ebab 5ebe
000000b0: 122d c0bb 1dcf 2bbe b232 14be 08ef 51be
000000c0: b506 82be 0d55 98bb 32f5 01be 3dc8 62bc
000000d0: 2584 bb3d 9e3f a83e e75a 3d3e f8c9 44be
000000e0: 4fce b2be f3ad 823e deaa afbe cce4 05be
000000f0: 710f 6c3e d114 dcbd cf74 9e3d cb71 b4be

scalar_head.seq.0.bias f4 [2]
0.032667577 -0.009826715
00000000: 70ce 053d 3b00 21bc
