kn-cuda-eval/tests/data/simple-bn-sttt-1x64.onnx (onnx, 66348 bytes, 8 tensors)

seq.1.weight f4 [64, 162]
0.044574298 0.050887495 0.038149938 0.043565873 -0.06453746 -0.044661 -0.015871393 0.0072604395
-0.061521705 -0.08505946 -0.07133032 -0.056602947 -0.095943876 0.0574719 -0.021396756 -0.061807096
0.0034122416 -0.0024368002 0.009098066 0.091403484 0.024649335 0.04103328 -0.033548374 0.03506778
-0.030997792 0.008169168 0.08579048 0.01734147 0.017939005 0.0031430982 0.05105486 0.00830519
0.07622689 0.043641288 0.01820033 -0.017660344 0.032683812 0.09029994 0.026415322 -0.026219558
-0.050817747 0.044198893 -0.070801996 0.03761006 0.035865817 0.071991935 0.006868757 -0.009582787
-0.045705397 0.036810152 -0.069768354 0.012041714 0.023263225 0.060264852 -0.052730948 -0.05893333
-0.019870277 -0.004812051 -0.071766794 -0.03352768 0.028831678 -0.06202637 0.020268762 -0.029443387
0.010698778 -0.0005329803 -0.06474288 -0.073325135 0.04876823 -0.023138335 0.015319929 0.053688552
-0.026227886 -0.020315668 0.031174451 -0.067332186 -0.046204552 -0.030786788 0.05316397 0.051957898
-0.047767866 0.027718164 0.031342383 -0.0814965 -0.005271599 -0.07391729 -0.004884936 -0.032705884
-0.012018002 0.0017312069 0.062685564 0.06019272 0.06158031 -0.009709605 -0.049326874 0.08705743
-0.038227305 -0.08355436 -0.0038709536 -0.041887634 0.0673236 0.042022992 0.012111526 -0.012347831
-0.018271927 -0.010586599 0.067674376 -0.011830111 -0.041199557 -0.043310925 0.01661492 -0.030008214
0.003699504 -0.023453912 0.02245033 -0.065001495 0.04641333 -0.036368947 -0.07321501 0.012016495
-0.040768925 -0.06477088 -0.035269447 -0.01561763 -0.038938288 -0.01082841 -0.018429877 0.07671283
-0.05142103 0.0032440536 0.062844 -0.0047069774 0.035613302 0.007979055 0.028009066 0.06302285
-0.07317939 0.08596326 -0.06339673 -0.016558785 -0.061833117 0.013839859 -0.025746163 -0.010991016
-0.05557556 0.060025953 -0.04217417 -0.020555753 -0.03384866 0.003220724 -0.017219892 0.013491877
-0.08752136 -0.04122664 0.051469408 -0.013869801 -0.04993125 -0.06566524 -0.0029656603 -0.06902255
-0.026918925 -0.035139244 -0.013986871 0.044049505 0.025207138 0.07860547 0.034272283 0.0018254854
0.00062929024 -0.04242057 -0.03234715 0.047022223 0.06779838 0.057691045 -0.0455007 0.0090267295
-0.028747547 0.04901836 0.057437338 -0.0062565897 0.06414214 -0.057277855 0.00016871042 -0.035088252
0.0645814 0.037016567 0.010598438 -0.046089154 -0.045746107 -0.040884428 0.050781365 -0.031731248
-0.057146728 -0.05461514 -0.01744492 0.03880282 -0.0342524 -0.04962572 -0.009945008 0.074087024
0.013954554 -0.0023723259 0.012269417 -0.012192896 0.007805728 -0.006871615 -0.07683364 0.053372987
0.027740497 -0.05734866 0.028289702 0.055889916 0.04645063 0.018026771 -0.00036098552 -0.055907413
0.0017019911 -0.07409727 0.038321767 0.024898482 0.06444716 -0.020570971 0.051382095 0.07806589
-0.08721569 0.003064459 -0.015206604 0.065596044 -0.0059419284 0.018746613 0.06674543 -0.014560855
0.013467105 -0.041366063 0.06309807 0.06468249 -0.048410386 0.06575058 0.05892178 0.00031161253
0.080603145 -0.023604803 -0.08409781 -0.020889116 -0.028893214 0.028013187 -0.052298192 -0.020781945
0.020315683 0.09810963 -0.033239022 -0.065316804 0.025689188 0.07369866 0.05661706 0.0053389673
00000000: 8a93 363d 686f 503d 1c43 1c3d 2172 323d
00000010: 372c 84bd 74ee 36bd b904 82bc fbe8 ed3b
00000020: 2ffe 7bbd a733 aebd a115 92bd 7ed8 67bd
00000030: 397e c4bd a867 6b3d 4048 afbc 7029 7dbd
00000040: ea9f 5f3b b9b2 1fbb 0e10 153c c031 bb3d
00000050: 67ed c93c 8312 283d 056a 09bd 3ca3 0f3d
00000060: 15ef fdbc f9d7 053c ebb2 af3d b30f 8e3c
00000070: d2f4 923c 70fc 4d3b e71e 513d 7e12 083c
00000080: d81c 9c3d 35c1 323d dc18 953c 6dac 90bc
00000090: 76df 053d 2def b83d f264 d83c 66ca d6bc
000000a0: 4526 50bd e609 353d a300 91bd 020d 1a3d
000000b0: 09e8 123d 8270 933d 4f13 e13b 1f01 1dbc
000000c0: 9535 3bbd 3ec6 163d b6e2 8ebd 9c4a 453c
000000d0: 8592 be3c 47d8 763d 68fc 57bd 1364 71bd
000000e0: fec6 a2bc 69ae 9dbb 78fa 92bd 5254 09bd
000000f0: 6930 ec3c 5d0f 7ebd ad0a a63c 4233 f1bc
00000100: ed49 2f3c b4b7 0bba ea97 84bd 7d2b 96bd
00000110: 32c1 473d 9b8c bdbc 7100 7b3c 87e8 5b3d
00000120: dddb d6bc 0b6d a6bc 9061 ff3c 75e5 89bd
00000130: fc40 3dbd 9334 fcbc 77c2 593d ced1 543d
00000140: 3da8 43bd 3411 e33c df60 003d a3e7 a6bd
00000150: 61bd acbb f361 97bd d011 a0bb 9bf6 05bd
00000160: 27e7 44bc aae9 e23a 4a61 803d a48c 763d
00000170: a33b 7c3d 0915 1fbc fa0a 4abd 2a4b b23d
00000180: 3c94 1cbd 8c1e abbd d3af 7dbb 5e92 2bbd
00000190: f5e0 893d 4d20 2c3d 6c6f 463c 8f4e 4abc
000001a0: 02af 95bc 6a73 2dbc dd98 8a3d 15d3 41bc
000001b0: dec0 28bd cc66 31bd 031c 883c c9d3 f5bc
000001c0: 6173 723b 6b22 c0bc c1e9 b73c 811f 85bd
000001d0: e71b 3e3d 9bf7 14bd c0f1 95bd d5e0 443c
000001e0: 51fd 26bd 98a6 84bd b276 10bd 17e1 7fbc
000001f0: c17d 1fbd a569 31bc 41fa 96bc 9e1b 9d3d
00000200: dc9e 52bd 309a 543b 5bb4 803d fd3c 9abb
00000210: 41df 113d 95ba 023c 4573 e53c 2012 813d
00000220: 13df 95bd 810d b03d 25d6 81bd 4aa6 87bc
00000230: b944 7dbd 93c0 623c 9ee9 d2bc aa13 34bc
00000240: 33a3 63bd c6dd 753d d3be 2cbd 8a64 a8bc
00000250: e4a4 0abd c812 533b bb10 8dbc 090d 5d3c
00000260: 663e b3bd 44dd 28bd 96d1 523d 293e 63bc
00000270: b684 4cbd 7f7b 86bd 865b 42bb b25b 8dbd
00000280: 1485 dcbc 2bee 0fbd 3029 65bc 416d 343d
00000290: 337f ce3c e8fb a03d 1861 0c3d 2045 ef3a
000002a0: f4f6 243a 31c1 2dbd 727e 04bd 609a 403d
000002b0: e1d9 8a3d 724d 6c3d f15e 3abd d9e4 133c
000002c0: fa7f ebbc 7ac7 483d 6a43 6b3d 1404 cdbb
000002d0: f45c 833d 2f9c 6abd dce7 3039 b3b8 0fbd
000002e0: 4143 843d af9e 173d 12a5 2d3c fbc7 3cbd
000002f0: 4560 3bbd 6e76 27bd 1f00 503d a0f8 01bd
00000300: b012 6abd 20b4 5fbd a6e8 8ebc b5ef 1e3d
00000310: 3f4c 0cbd 5744 4bbd 63f0 22bc f0ba 973d
00000320: a4a1 643c 0679 1bbb aa05 493c b6c4 47bc
00000330: 31c7 ff3b 492b e1bb f55a 9dbd a29d 5a3d
00000340: 0a40 e33c 6ee6 6abd cebf e73c d3ec 643d
00000350: 0443 3e3d e1ac 933c a842 bdb9 2cff 64bd
00000360: 5815 df3a 4fc0 97bd 49f7 1c3d e7f7 cb3c
00000370: dffc 833d 7484 a8bc 0876 523d 02e1 9f3d
00000380: 249e b2bd 17d5 483b 1f25 79bc 3857 863d
00000390: 82b4 c2bb 7f92 993c d4b1 883d a790 6ebc
000003a0: 22a5 5c3c 766f 29bd 9039 813d 4178 843d
000003b0: f849 46bd 3da8 863d f757 713d ed5f a339
000003c0: 4313 a53d dc5e c1bc 793b acbd a71f abbc
000003d0: 76b1 ecbc e97b e53c a136 56bd e63e aabc
000003e0: 136d a63c b4ed c83d a425 08bd d1c4 85bd
000003f0: 2272 d23c 53ef 963d 4ae7 673d 81f2 ae3b

seq.1.bias f4 [64]
-0.07964871 -0.059312053 -0.041562844 -0.07324053 -0.047904037 0.046700966 0.039937656 -0.042662844
-0.07323889 0.049719542 0.041904304 -0.030058248 -0.01563979 0.013876976 0.04280728 0.03293623
-0.049454093 -0.025016043 0.0074845552 0.0054910844 0.0666858 0.036441658 -0.04349457 0.055555627
-0.017802102 -0.049199462 -0.049598664 0.013461991 0.025484122 0.02783879 -0.019275995 -0.04534355
-0.0070267436 -0.0515454 -0.026570404 0.03247785 0.040211223 0.04334843 -0.0168389 0.009471453
-0.036706544 -0.016440848 -0.08791647 0.043631833 0.012250856 0.028538585 -0.078573965 0.07250026
0.022885626 -0.06409918 0.02517032 -0.08214959 0.047262967 0.04413278 0.043346893 0.042081926
0.06653746 0.071109146 -0.06731729 0.018305155 0.076219104 0.025369555 -0.009126782 -0.07255817
00000000: dd1e a3bd 32f1 72bd cd3d 2abd 22ff 95bd
00000010: 0637 44bd 8349 3f3d ab95 233d 3cbf 2ebd
00000020: 45fe 95bd b8a6 4b3d d9a3 2b3d b73c f6bc
00000030: 041f 80bc 425c 633c b056 2f3d 24e8 063d
00000040: 6090 4abd 72ee ccbc 0041 f53b 8eee b33b
00000050: 9192 883d d943 153d 5d27 32bd 4c8e 633d
00000060: b7d5 91bc 6085 49bd f827 4bbd af8f 5c3c
00000070: 14c4 d03c 2d0e e43c b1e8 9dbc 29ba 39bd
00000080: 9940 e6bb 4521 53bd 2daa d9bc 7e07 053d
00000090: 86b4 243d 208e 313d bcf1 89bc 272e 1b3c
000000a0: 9a59 16bd f5ae 86bc 8d0d b4bd 4bb7 323d
000000b0: d0b7 483c c0c9 e93c 63eb a0bd 047b 943d
000000c0: a37a bb3c 6e46 83bd fd31 ce3c 0b3e a8bd
000000d0: d096 413d 93c4 343d 838c 313d 195e 2c3d
000000e0: cb44 883d aca1 913d a6dd 89bd b1f4 953c
000000f0: c318 9c3d d0d3 cf3c 8088 15bc 6199 94bd

seq.2.weight f4 [64]
1.1295089 1.1105839 1.1241134 1.0740006 1.1327968 1.0676494 1.1205586 1.1241726
0.9760234 1.1012621 1.0162389 1.1117196 1.1235181 1.0729253 1.0751213 1.0575528
1.1298811 1.0475702 1.1165824 1.0522351 1.1159863 1.1237222 1.1203393 1.119438
1.1208413 1.09849 1.1176556 1.1249719 1.1213144 0.9836715 1.0881977 1.073678
0.9897535 1.1265404 1.1314145 1.0251119 1.1245583 1.0262187 1.0092224 1.1343089
1.0636746 1.0383841 1.0646241 1.1335365 1.0488522 1.0181105 1.1258444 1.1240098
1.1176224 1.1228629 1.0744882 1.127667 1.1216886 1.1159837 1.127803 1.0355488
1.1245624 1.1243775 1.1324362 1.0212774 1.1300677 1.1279131 1.1210948 1.1228911
00000000: bf93 903f 9d27 8e3f f3e2 8f3f da78 893f
00000010: 7cff 903f bca8 883f 776e 8f3f e3e4 8f3f
00000020: abdc 793f 28f6 8c3f 1e14 823f d44c 8e3f
00000030: 71cf 8f3f 9e55 893f 939d 893f e45d 873f
00000040: f29f 903f c816 863f 2cec 8e3f a4af 863f
00000050: a4d8 8e3f 21d6 8f3f 4767 8f3f bf49 8f3f
00000060: ba77 8f3f 529b 8c3f 570f 8f3f 14ff 8f3f
00000070: 3b87 8f3f e5d1 7b3f 104a 8b3f 486e 893f
00000080: 7c60 7d3f 7a32 903f 31d2 903f de36 833f
00000090: 87f1 8f3f 225b 833f 332e 813f 0931 913f
000000a0: 7d26 883f c5e9 843f 9a45 883f b917 913f
000000b0: ca40 863f 7251 823f ab1b 903f 8edf 8f3f
000000c0: 400e 8f3f f9b9 8f3f d488 893f 6457 903f
000000d0: 7e93 8f3f 8ed8 8e3f d95b 903f dd8c 843f
000000e0: a9f1 8f3f 9aeb 8f3f abf3 903f 38b9 823f
000000f0: 0fa6 903f 755f 903f 0980 8f3f e5ba 8f3f

seq.2.bias f4 [64]
0.12988654 0.11152806 0.124037474 0.07440506 0.13279858 0.06837672 0.12050996 0.12442588
-0.024500608 0.10128505 0.01624802 0.11242776 0.12412147 0.07296042 0.07510075 0.05808977
0.12997411 0.048255593 0.116696246 0.05225656 0.11651892 0.12430229 0.12047953 0.11944108
0.120863184 0.09885799 0.117759794 0.124934204 0.12128815 -0.016200613 0.088616535 0.07327611
-0.010256197 0.12652887 0.13141415 0.025147134 0.12454888 0.026384331 0.009004034 0.13434365
0.06382762 0.03809676 0.064560175 0.13353646 0.048791487 0.01818178 0.12582536 0.124177486
0.117615916 0.12325471 0.074548975 0.12764986 0.121821165 0.11598662 0.12793398 0.035671294
0.1245085 0.12436676 0.13407151 0.02088763 0.13005185 0.12786482 0.12095718 0.122887574
00000000: fa00 053e d368 e43d 5c07 fe3d ae61 983d
00000010: 5afc 073e 1809 8c3d edcd f63d ffd2 fe3d
00000020: 80b5 c8bc 896e cf3d 911a 853c 8740 e63d
00000030: 6633 fe3d 466c 953d 6cce 993d 8aef 6d3d
00000040: ef17 053e a8a7 453d 71fe ee3d fa0a 563d
00000050: 79a1 ee3d 3392 fe3d f9bd f63d 869d f43d
00000060: 1e87 f73d 0f76 ca3d 0c2c f13d 81dd ff3d
00000070: ec65 f83d 26b7 84bc 967c b53d c911 963d
00000080: 9c09 28bc c990 013e 6e91 063e 5d01 ce3c
00000090: 7c13 ff3d f423 d83c a885 133c 6291 093e
000000a0: 0eb8 823d 590b 1c3d 2038 843d c8bd 083e
000000b0: 95d9 473d f5f1 943c 5dd8 003e c450 fe3d
000000c0: 9de0 f03d f76c fc3d 22ad 983d a5b6 023e
000000d0: 607d f93d 658a ed3d 2001 033e 101c 123d
000000e0: 50fe fe3d 00b4 fe3d 0b4a 093e 891c ab3c
000000f0: 502c 053e ffee 023e 66b8 f73d 7bac fb3d

seq.2.running_mean f4 [64]
-0.054436263 0.0513329 0.17030352 -0.13609426 -0.08257555 -0.029195275 -0.07658945 0.041803226
-0.077672 -0.046657566 0.013473764 -0.14185522 0.11905024 0.031438697 -0.029694669 0.11220646
-0.05473458 0.06866551 0.1677288 -0.007839915 -0.106885366 -0.116906814 -0.07511801 0.13167098
0.1071339 -0.16075659 0.107466385 -0.00036338344 -0.10174494 0.14433116 -0.118140616 0.102332234
-0.009142371 -0.0623619 -0.03486995 -0.18176809 0.041133188 -0.016218448 0.08632268 -0.095402054
-0.11142464 0.007498456 -0.15945458 -0.03369225 0.2450194 -0.02844338 -0.27465415 0.1631112
0.019548258 -0.12563634 -0.10645818 -0.10925348 -0.1306981 -0.17907882 0.22603911 0.12861113
0.21124959 0.12195481 -0.18533659 0.0047891852 0.062066894 0.17669784 -0.03727108 -0.30285925
00000000: 8ff8 5ebd 7242 523d 0c64 2e3e 4b5c 0bbe
00000010: 5f1d a9bd ee2a efbc eeda 9cbd dc39 2b3d
00000020: 7f12 9fbd 011c 3fbd 10c1 5c3c 7f42 11be
00000030: 9dd0 f33d ddc5 003d 3c42 f3bc 80cc e53d
00000040: 5e31 60bd 81a0 8c3d 19c1 2b3e fd72 00bc
00000050: b7e6 dabd d76c efbd 79d7 99bd c2d4 063e
00000060: 0569 db3d 609d 24be 5617 dc3d 8084 beb9
00000070: a75f d0bd 8ccb 133e b5f3 f1bd 9093 d13d
00000080: e2c9 15bc 316f 7fbd cbd3 0ebd 6a21 3abe
00000090: 467b 283d 8ddc 84bc f2c9 b03d 2762 c3bd
000000a0: 9a32 e4bd 9cb5 f53b 1048 23be e200 0abd
000000b0: 5ee6 7a3e 1702 e9bc 789f 8cbe 9f06 273e
000000c0: ab23 a03c d0a6 00be bf06 dabd 4ac0 dfbd
000000d0: b9d5 05be 7060 37be cc76 673e a3b2 033e
000000e0: d051 583e 72c3 f93d e0c8 3dbe 99ee 9c3b
000000f0: db39 7e3d 47f0 343e 8fa9 18bd 5e10 9bbe

seq.2.running_var f4 [64]
0.43766773 0.46845803 0.30493516 0.30912003 0.2772413 0.3364104 0.60512275 0.27366254
0.27076575 0.29545087 0.48397684 0.48773602 0.3138061 0.38245824 0.32046 0.4001566
0.38912302 0.31039563 0.33734992 0.44595268 0.607777 0.3197687 0.38868594 0.18872423
0.27557 0.52336913 0.33524233 0.519446 0.4380056 0.5040796 0.36304215 0.32619864
0.85582143 0.72158045 0.17992228 0.59755325 0.30622786 0.3657445 0.27235854 0.21836461
0.37336645 0.18707566 0.33322847 0.41435978 0.44197696 0.29070106 0.6050338 0.3566598
0.40864715 0.3356218 0.31058156 0.2466456 0.9822439 0.34462777 0.2987074 0.28566077
0.5268631 0.520818 0.67418903 0.2572969 0.44687355 0.37265056 0.20710145 0.24670474
00000000: fc15 e03e bbd9 ef3e 7620 9c3e fb44 9e3e
00000010: 92f2 8d3e fc3d ac3e 53e9 1a3f 7f1d 8c3e
00000020: cfa1 8a3e 5645 973e d0cb f73e 89b8 f93e
00000030: 31ab a03e 91d1 c33e 5513 a43e 53e1 cc3e
00000040: 223b c73e 2dec 9e3e 21b9 ac3e e953 e43e
00000050: 4697 1b3f b9b8 a33e d801 c73e ed40 413e
00000060: 8317 8d3e 85fb 053f e2a4 ab3e 6afa 043f
00000070: 4542 e03e 5c0b 013f a9e0 b93e 8203 a73e
00000080: 1d17 5b3f 7fb9 383f 8c3d 383e 40f9 183f
00000090: e6c9 9c3e dd42 bb3e 9472 8b3e f99a 5f3e
000000a0: e329 bf3e c390 3f3e ec9c aa3e f726 d43e
000000b0: ce4a e23e c5d6 943e 7fe3 1a3f 1d9c b63e
000000c0: 333a d13e 9fd6 ab3e 8c04 9f3e aa90 7c3e
000000d0: 5674 7b3f 0d73 b03e 2df0 983e 2142 923e
000000e0: 80e0 063f 5454 053f a797 2c3f 6bbc 833e
000000f0: 9ccc e43e 0ecc be3e 6712 543e 2ba0 7c3e

seq.4.weight f4 [85, 64]
-0.08082706 -0.06506472 -0.15370712 -0.049280792 -0.12719275 -0.04383962 -0.20060572 -0.17435203
-0.041403096 -0.112498246 0.02498618 -0.04647588 -0.2076298 -0.07200406 -0.06481473 0.019166883
-0.17748532 -0.005303744 -0.097610116 -0.045411654 -0.2034318 -0.1541625 -0.21131293 -0.21111554
-0.10837726 -0.10941151 -0.20720606 -0.21484989 -0.19174616 0.0021432117 -0.07124197 -0.068799205
0.0074920678 -0.081823446 -0.024110597 -0.010059098 -0.10221495 -0.0018537339 -0.0029264379 -0.07745909
-0.031809743 -0.026662834 0.019999908 -0.15387689 -0.027137082 0.008634833 -0.20210315 -0.15316767
-0.22602499 -0.1719925 -0.03907265 -0.10381486 -0.20818996 -0.21019687 -0.077922046 -0.022383627
-0.18822134 -0.17169982 -0.14498517 0.022581078 -0.18793875 -0.10759526 -0.2115408 -0.17145707
-0.17131683 -0.19442493 -0.119804054 -0.008897725 0.004975637 -0.0639882 -0.13234179 -0.12940437
-0.0034416511 -0.117513984 -0.10273721 -0.14723533 0.0057912576 -0.10570192 -0.099283986 -0.22192724
0.0058986517 -0.06908385 -0.17178148 -0.033995125 -0.15835091 -0.17304274 -0.08287668 -0.08260059
-0.20734508 -0.04426732 -0.14664084 -0.01732637 -0.21418463 -0.00049177033 -0.08547212 0.018249396
-0.10502738 -0.0028874252 -0.2133641 -0.025294311 -0.19777025 -0.09387058 -0.09905833 -0.18562731
-0.04244451 -0.034577 -0.1416502 -0.14770313 -0.042211194 -0.16811019 -0.110238336 -0.067085214
-0.21983628 -0.15959854 -0.04139895 -0.1680742 -0.15157369 -0.19433457 -0.15732087 -0.17183459
0.0010195586 -0.055108562 -0.02718579 -0.17415318 -0.022994258 -0.22294761 -0.1486439 0.00787105
-0.12829432 -0.079636864 -0.13506478 -0.03544218 -0.1531277 -0.108458295 -0.15554301 -0.1844338
0.0071955104 -0.029856628 -0.09096091 -0.1611608 0.014281148 -0.08566994 0.022686606 0.002395933
-0.08720513 -0.07763911 -0.1256019 -0.12939146 -0.22275096 -0.15730458 -0.14602937 -0.20917477
-0.028113876 -0.05988834 -0.19364478 -0.09852773 -0.18065229 0.015196222 -0.088729054 -0.112257235
0.015727207 -0.2093794 -0.22727902 -0.08941834 -0.21682896 -0.09255229 0.024274923 -0.18709247
-0.2097015 -0.08197384 -0.21423142 0.013495025 0.0016197169 -0.0807184 -0.05796478 -0.1373188
-0.059916414 -0.15752001 -0.22562498 -0.11979468 -0.114438586 -0.10003507 -0.17880051 0.0152514
-0.07149954 -0.16317539 -0.07793704 -0.107825175 -0.050854266 -0.05311986 -0.050602045 -0.2004054
-0.1298379 -0.07656469 -0.09169784 -0.18982147 -0.10235551 -0.11930959 -0.0916506 -0.08808016
0.00950802 -0.021832956 -0.11135613 -0.13448004 -0.18171737 -0.00025901245 -0.18241921 -0.20412587
-0.014206815 -0.18626495 -0.016745225 -0.055659633 -0.13159287 -0.037048113 -0.119855754 -0.10074066
-0.021817513 -0.08857012 -0.111630395 -0.026713165 -0.006428229 -0.14357099 -0.06581867 -0.1528475
-0.052947957 -0.14016096 -0.19120245 -0.13965434 -0.13144784 -0.059036672 -0.10147706 -0.027275143
-0.03769772 -0.080081426 -0.100944884 -0.060281456 -0.21415675 -0.004839886 -0.010408925 -0.17480019
-0.10069126 0.0065645194 -0.021092366 -0.15333858 -0.022565514 -0.22710201 -0.21600224 -0.0932624
-0.22140726 -0.13149495 -0.06348177 -0.039096314 0.0133645 -0.18801068 -0.10307515 -0.15318067
00000000: a888 a5bd a740 85bd 6665 1dbe a8da 49bd
00000010: d13e 02be 2c91 33bd 966b 4dbe 5789 32be
00000020: 4b96 29bd 7b65 e6bd d1af cc3c 7e5d 3ebd
00000030: e89c 54be dd76 93bd 96bd 84bd de03 9d3c
00000040: b6be 35be 08cb adbb d0e7 c7bd 9201 3abd
00000050: 6d50 50be c6dc 1dbe 6b62 58be ac2e 58be
00000060: e6f4 ddbd 2413 e0bd d32d 54be 9c01 5cbe
00000070: 1b59 44be 2075 0c3b 4fe7 91bd 99e6 8cbd
00000080: 0580 f53b 0d93 a7bd 9683 c5bc eace 24bc
00000090: 1256 d1bd fdf8 f2ba 7bc9 3fbb dfa2 9ebd
000000a0: ef4a 02bd 046c dabc d9d6 a33c e791 1dbe
000000b0: 964e debc 1d79 0d3c 21f4 4ebe fcd7 1cbe
000000c0: 1873 67be cd1e 30be a50a 20bd e39c d4bd
000000d0: c02f 55be d93d 57be 9895 9fbd de5d b7bc
000000e0: 18bd 40be 14d2 2fbe fe76 14be f4fb b83c
000000f0: 0473 40be e75a dcbd 279e 58be 7192 2fbe
00000100: ae6d 2fbe 5417 47be d45b f5bd c3c7 11bc
00000110: ab0a a33b 3f0c 83bd 9b84 07be 9482 04be
00000120: 538d 61bb 2cab f0bd e367 d2bd dcc4 16be
00000130: 97c4 bd3b 407a d8bd 6755 cbbd e540 63be
00000140: 7a49 c13b d57b 8dbd 7ce7 2fbe 793e 0bbd
00000150: be26 22be 1e32 31be 40bb a9bd 802a a9bd
00000160: 4552 54be a651 35bd 0429 16be 08f0 8dbc
00000170: 3753 5bbe 26ea 00ba 020c afbd c27f 953c
00000180: 9818 d7bd f53a 3dbb 1e7c 5abe 0436 cfbc
00000190: 4984 4abe 383f c0bd 18df cabd 1615 3ebe
000001a0: 4bda 2dbd 9da0 0dbd c00c 11be 7d3f 17be
000001b0: a5e5 2cbd 1425 2cbe a3c4 e1bd f963 89bd
000001c0: c31c 61be cd6d 23be f291 29bd a51b 2cbe
000001d0: 2236 1bbe a4ff 46be b918 21be 68f5 2fbe
000001e0: b6a2 853a 84b9 61bd bcb4 debc 3655 32be
000001f0: 745e bcbc 614c 64be 1b36 18be 94f5 003c
00000200: 965f 03be a718 a3bd 6c4e 0abe d22b 11bd
00000210: 82cd 1cbe 621f debd ab46 1fbe 37dc 3cbe
00000220: 51c8 eb3b e395 f4bc b749 babd 5607 25be
00000230: 7afb 693c b973 afbd 43d9 b93c 1605 1d3b
00000240: 9a98 b2bd 4101 9fbd c99d 00be 327f 04be
00000250: d418 64be 7414 21be b988 15be e931 56be
00000260: 124f e6bc 7a4d 75bd d14a 46be e8c8 c9bd
00000270: eafc 38be 93f9 783c 94b7 b5bd 1fe7 e5bd
00000280: 58d6 803c 8e67 56be d5bb 68be f620 b7bd
00000290: 6908 5ebe 0e8c bdbd 34dc c63c 2b95 3fbe
000002a0: fdbb 56be e7e1 a7bd 7b5f 5bbe 3d1a 5d3c
000002b0: ae4c d43a b04f a5bd 7a6c 6dbd 4d9d 0cbe
000002c0: ea6a 75bd ed4c 21be 3c0a 67be ea56 f5bd
000002d0: c75e eabd 30df ccbd 7b17 37be 02e1 793c
000002e0: 5a6e 92bd 7317 27be 749d 9fbd 72d3 dcbd
000002f0: 904c 50bd 3694 59bd 1744 4fbd 1337 4dbe
00000300: 3af4 04be f3cd 9cbd 14cc bbbd 8f60 42be
00000310: c49f d1bd 9658 f4bd 4fb3 bbbd 5f63 b4bd
00000320: 87c7 1b3c 07db b2bc af0e e4bd 23b5 09be
00000330: 1e14 3abe 10cc 87b9 1acc 3abe 5f06 51be
00000340: b3c3 68bc 3dbc 3ebe 482d 89bc 5bfb 63bd
00000350: 48c0 06be c3bf 17bd ef76 f5bd 1f51 cebd
00000360: a4ba b2bc 4064 b5bd 7a9e e4bd 91d5 dabc
00000370: e5a3 d2bb 4604 13be f0cb 86bd 0e84 1cbe
00000380: f5df 58bd 5b86 0fbe 93ca 43be 8c01 0fbe
00000390: 439a 06be 70d0 71bd 34d3 cfbd 1f70 dfbc
000003a0: ed68 1abd bb01 a4bd 31bc cebd b0e9 76bd
000003b0: e84b 5bbe e897 9ebb 328a 2abc d2fe 32be
000003c0: 3837 cebd 2e1b d73b e6c9 acbc ca04 1dbe
000003d0: 50db b8bc 6e8d 68be b12f 5dbe 5b00 bfbd
000003e0: 96b8 62be 9da6 06be bb02 82bd 7523 20bd
000003f0: c7f6 5a3c df85 40be 1019 d3bd 65db 1cbe

seq.4.bias f4 [85]
0.0058803745 -0.07595905 -0.056919698 0.005517912 -0.11989592 -0.14415334 -0.11195338 -0.160266
-0.1717711 -0.12151605 -0.03903742 -0.13287324 -0.04509774 -0.02976152 -0.028425578 -0.06991604
-0.16170524 -0.15858698 -0.20734523 -0.14773232 -0.2007421 -0.089017615 0.009971965 -0.18804553
-0.08007638 -0.03855641 -0.0012572707 -0.004682258 -0.19318211 -0.017739948 -0.14051752 -0.046478976
-0.093156025 -0.15014496 -0.062398735 0.009407379 -0.09365225 -0.092566505 -0.049736634 -0.09130417
-0.18737106 -0.0558476 -0.0407977 -0.01516702 -0.1504905 -0.0019703023 -0.21859947 -0.09028056
-0.078684255 -0.1040515 -0.012259651 -0.06710146 -0.05505957 0.0059385337 0.024788134 -0.01422311
-0.11812474 -0.09931414 -0.022721656 -0.070861176 -0.19853793 -0.14586821 -0.08471042 -0.011357911
0.014753342 -0.073334515 -0.19475296 -0.048173472 -0.082619295 -0.10824551 0.0056548007 -0.015752736
-0.18717442 0.02050867 -0.024021197 -0.2009855 0.01564331 -0.091343075 -0.034013864 -0.08982621
-0.1692006 -0.04867122 -0.06360392 -0.093368575 -0.084855646
00000000: 28b0 c03b 6b90 9bbd a124 69bd 9acf b43b
00000010: fe8b f5bd ef9c 13be d047 e5bd c51c 24be
00000020: c3e4 2fbe 68dd f8bd b4e5 1fbd ec0f 08be
00000030: 68b8 38bd 6ece f3bc c2dc e8bc 2430 8fbd
00000040: 0f96 25be a064 22be 4f52 54be 2447 17be
00000050: 568f 4dbe de4e b6bd 7461 233c 028f 40be
00000060: 16ff a3bd 54ed 1dbd 01cb a4ba a06d 99bb
00000070: 88d1 45be 5e53 91bc d3e3 0fbe bd60 3ebd
00000080: 96c8 bebd 9abf 19be d195 7fbd 6821 1a3c
00000090: c0cc bfbd 8293 bdbd a4b8 4bbd aefd babd
000000a0: 33de 3fbe 74c0 64bd 7d1b 27bd 187f 78bc
000000b0: 2e1a 1abe 3020 01bb 8ad8 5fbe 04e5 b8bd
000000c0: 3625 a1bd f418 d5bd b4dc 48bc 7e6c 89bd
000000d0: 2586 61bd 0898 c23b 7c10 cb3c 0c08 69bc
000000e0: 62eb f1bd 3665 cbbd c422 babc aa1f 91bd
000000f0: 874d 4bbe 7a5e 15be a87c adbd 8816 3abc
00000100: 00b8 713c 6830 96bd 526d 47be 8c51 45bd
00000110: 4e34 a9bd d2af ddbd e84b b93b e20b 81bc
00000120: a7aa 3fbe cc01 a83c 1ac8 c4bc 25cf 4dbe
00000130: 6626 803c 1412 bbbd 1f52 0bbd cef6 b7bd
00000140: ec42 2dbe 795b 47bd c642 82bd 0638 bfbd
00000150: ccc8 adbd
